aca_backend_api/models/tca/gnn_fold2.pt (torch, 764673 bytes, 12 tensors)

node_emb.0.weight f4 [77, 128]
0	0xbe2a470a	-0.16628662
1	0xbe2e4962	-0.17020181
2	0xbd17979c	-0.03700982
3	0xbd833e34	-0.06408349
4	0x3e005cbd	0.12535377
5	0x3dd152f0	0.10220897
6	0xbd3f2dc9	-0.046674524
7	0xbe9ff4fd	-0.312416
8	0x3d42f80c	0.047599837
9	0xbe3f1219	-0.18659247
10	0x3d53bb83	0.051692497
11	0x3d3a6a1d	0.045511354
12	0x3c910080	0.017700434
13	0x3e3b3016	0.18280062
14	0x3e28e7db	0.16494696
15	0xbd1598c8	-0.036522657
16	0xbe4c94cf	-0.19978641
17	0xbe804002	-0.25048834
18	0x3dab6743	0.08369305
19	0x3df006ad	0.11720023
20	0x3db52489	0.08844859
21	0xbe6b32eb	-0.22968642
22	0xbd4e8396	-0.05041846
23	0x3e8c20cc	0.27368772
24	0x3de2ec4c	0.11080226
25	0xbdb11b43	-0.08647778
26	0xbcd1cd7e	-0.025610682
27	0x3cddffdb	0.02709954
28	0x3e522237	0.20520864
29	0x3e6fec38	0.23429954
30	0x3e0f1f1d	0.13976713
31	0xbdff338a	-0.12461002
32	0xbdb999db	-0.09062549
33	0x3b98e6ca	0.004666184
34	0xbd950759	-0.07276792
35	0x3d164892	0.036690302
36	0x3d850088	0.06494242
37	0x3c8802ea	0.016602952
38	0x3dc1d51a	0.09464474
39	0x3d857160	0.06515765
40	0xbc779474	-0.015111078
41	0x3defb449	0.117043085
42	0xbd2f3e1f	-0.042783853
43	0x3bfe2038	0.0077553056
44	0x3d9e2896	0.07722585
45	0x3eae18f4	0.34003413
46	0xbe5e297d	-0.21695514
47	0xbe6ff9f0	-0.23435187
48	0xbdcb99be	-0.09941433
49	0x3e040271	0.12891556
50	0x3e1f9dea	0.15587583
51	0x3cd72f03	0.026267534
52	0xbd0b587c	-0.034019932
53	0xbd6d0071	-0.05786175
54	0x3da45720	0.0802443
55	0xbd6f0f97	-0.058364477
56	0xbd86f93e	-0.06590508
57	0x3de10e81	0.109890945
58	0x3e660a0a	0.22464767
59	0x3f00f40c	0.50372386
60	0xbe67954e	-0.22615549
61	0xbe3aa797	-0.18227993
62	0x3e899c3c	0.2687701
63	0xbda6d479	-0.08145995
64	0xbdac310f	-0.08407795
65	0x3e0b23c0	0.13587856
66	0x3e28011c	0.16406673
67	0x3e431624	0.19051415
68	0xbe5f9080	-0.21832466
69	0x3ec22369	0.3791764
70	0xbd8f1cd9	-0.06987924
71	0x3d4b0006	0.04956057
72	0xbe766cde	-0.24064967
73	0xbda64aa5	-0.08119706
74	0xbd9124b5	-0.070870794
75	0xbd97259e	-0.07380222
76	0xbe216012	-0.15759304
77	0x3e28a0bf	0.1646757
78	0xbcaa34f0	-0.020777196
79	0x3df3bb44	0.119009525
80	0xbc61e511	-0.013787524
81	0x3dcfd322	0.10147692
82	0xbdfd9460	-0.12381816
83	0x390a1e79	0.00013172058
84	0x3dfea9ef	0.12434756
85	0xbd72030c	-0.059084937
86	0x3e1d3677	0.15352808
87	0x3d58acab	0.052899044
88	0xbd14d2dc	-0.036333904
89	0x3eae1ef2	0.34007984
90	0xbe8e4bae	-0.27792114
91	0xbbf0ab77	-0.007344659
92	0xbe1e0bdb	-0.1543421
93	0xbe10aa3a	-0.14127436
94	0x3ba2492a	0.0049525695
95	0x3dd6cb08	0.10487944
96	0x3e78ed57	0.24309288
97	0xbe4db7b9	-0.20089616
98	0x3d507426	0.050892018
99	0x3d9d4116	0.0767843
100	0xbec59fd6	-0.38598508
101	0xbe804a88	-0.25056863
102	0xbd0a146d	-0.033710886
103	0x3d295d97	0.04134902
104	0x3d156259	0.036470745
105	0x3c3a0f4f	0.011356189
106	0x3d4c7c7e	0.049923413
107	0x3d89736a	0.067114666
108	0x3d8a37f9	0.06748957
109	0xbe02e1e7	-0.12781487
110	0x3dec5625	0.11539868
111	0xbe0c2bdd	-0.13688608
112	0xbd04638b	-0.032321494
113	0xbeb82508	-0.35965753
114	0xbc307232	-0.010769414
115	0xbba47d11	-0.005019792
116	0x3e1192c3	0.14216141
117	0x3d533cfa	0.051571824
118	0xbe0b5d1b	-0.13609736
119	0xbc07fc3d	-0.008299884
120	0xbdbc5bde	-0.0919721
121	0xbd8c452b	-0.0684913
122	0x3e9153ff	0.28384396
123	0xbd7387cd	-0.05945568
124	0x3c95ea46	0.018300187
125	0x3e302a56	0.1720365
126	0x3e0ba748	0.13638031
127	0x3e51d229	0.20490326
128	0xbea612d6	-0.32436246
129	0xbe966f0d	-0.293816
130	0xbe3fd231	-0.18732525
131	0xbd2c5761	-0.04207552
132	0x3c90f15c	0.017693214
133	0x3e431e0c	0.1905443
134	0x3effc37b	0.49953827
135	0xbf1d3777	-0.6141276
136	0xbd1a742d	-0.03770845
137	0xbcaf641a	-0.021410037
138	0xbe7823a0	-0.2423234
139	0xbe38b706	-0.18038568
140	0x3e54d9d1	0.20786215
141	0xbe605af4	-0.21909696
142	0xbdee9997	-0.11650389
143	0x3cb1a030	0.021682829
144	0xbe9b251a	-0.30301744
145	0x3ebd0d14	0.3692404
146	0x3dcbbbfb	0.09947964
147	0x3e77faab	0.24216716
148	0x3e40de63	0.18834834
149	0x3e06041d	0.13087507
150	0x3ab3404e	0.001367578
151	0x3dd7189f	0.10502743
152	0x3e132b94	0.14372092
153	0xbec1f1e5	-0.37879863
154	0xbe2ab487	-0.16670428
155	0x3e5e9cf5	0.21739562
156	0x3da5ade9	0.08089811
157	0xbd92ce10	-0.071682096
158	0xbe8b86d4	-0.27251303
159	0xbe320b3f	-0.17387103
160	0x3e1929cb	0.14957349
161	0xbe925ed3	-0.2858797
162	0x3de4a35f	0.11163973
163	0x3e1f1ae6	0.15537605
164	0x3e1e7ebe	0.15478036
165	0xbdf76756	-0.12080257
166	0x3e70f048	0.2352916
167	0x3e764254	0.2404874
168	0x3e1e89a0	0.15482187
169	0xbd7b9daa	-0.061429657
170	0xbe326920	-0.17422915
171	0x3cd25aca	0.025678057
172	0xbe368e6b	-0.17827766
173	0xbe0a556b	-0.13509147
174	0x3d1440d4	0.036194637
175	0xbed318de	-0.4122991
176	0x3dd55580	0.104166985
177	0xbdf5db2a	-0.12004693
178	0xbec923e2	-0.3928519
179	0xbe9931d8	-0.2992084
180	0x3d119ebc	0.03555177
181	0xbe904c6a	-0.281833
182	0x3ef77cca	0.48337394
183	0x3e572faa	0.21014276
184	0xbe6b46b7	-0.22976194
185	0xbe9fdb06	-0.3122179
186	0x3e2611f0	0.1621778
187	0xbe05e796	-0.13076624
188	0x3e70acb4	0.23503381
189	0xbdef3182	-0.11679365
190	0xbe91d047	-0.28479216
191	0x39f477c5	0.00046628542
192	0x3ddc1803	0.10746767
193	0x3ee2046e	0.44144005
194	0xbd0058fb	-0.03133486
195	0x3d1c77ae	0.038200073
196	0xbda25742	-0.07926799
197	0x3e1eafe4	0.15496784
198	0xbc52b57a	-0.01286065
199	0x3df0b517	0.1175329
200	0xbda13497	-0.07871359
201	0xbe1f8c0d	-0.15580769
202	0x3e2932f1	0.16523339
203	0xbc9f8a1b	-0.019475034
204	0x3e703841	0.23458959
205	0xbf034eda	-0.5129219
206	0x3e5c20b3	0.21496849
207	0xbd50c868	-0.050972372
208	0x3e35e51f	0.17763184
209	0xbd45f722	-0.048331387
210	0x3e89eb2e	0.2693724
211	0x3dee2ec6	0.11630015
212	0xbeb40811	-0.35162404
213	0x3e88f622	0.26750284
214	0xbe1c480c	-0.15261859
215	0xbece929c	-0.4034623
216	0x3ea13851	0.31488279
217	0x3e09b743	0.13448815
218	0x3e1bd1e8	0.15216792
219	0x3e69e110	0.22839761
220	0x3e8921b8	0.26783538
221	0x3d99a83a	0.0750279
222	0xbeb6479f	-0.35601518
223	0xbe819a84	-0.253132
224	0x3e849b9f	0.2589998
225	0x3ea26d7d	0.31724158
226	0x3cbd59b4	0.023114063
227	0x3d970235	0.07373468
228	0xbe3a0af8	-0.18168247
229	0x3e491d7b	0.19640152
230	0x3e6c7988	0.23093235
231	0xbd5a9ae4	-0.05337037
232	0x3e40f3b1	0.18842961
233	0xbda0c5a4	-0.07850197
234	0xbe2fe718	-0.17177999
235	0x3e353d2b	0.17699115
236	0xbe166f41	-0.14690877
237	0x3e88c298	0.26710963
238	0x3e98803b	0.29785332
239	0xbe29998e	-0.16562483
240	0xbf1e8646	-0.61923635
241	0xbed17dc6	-0.4091627
242	0xbdab1b73	-0.08354845
243	0xbc44ed4f	-0.012019469
244	0x3e617644	0.22017771
245	0xbe6d9840	-0.2320261
246	0xbda32f50	-0.079680085
247	0x3e2dcef9	0.16973485
248	0xbd3c3e03	-0.045957576
249	0x3e126343	0.14295678
250	0x3e0e2cef	0.13884328
251	0xbd214832	-0.03937549
252	0xbe914aee	-0.2837748
253	0xbde22c3c	-0.11043593
254	0x3e76d646	0.24105176
255	0xbd283ce9	-0.041073713

gnn_layers.0.W0.weight f4 [128, 128]
0	0x3ec5f12c	0.38660562
1	0xbd4b3201	-0.049608234
2	0xbd5c7960	-0.05382669
3	0x3dfa653d	0.12226341
4	0x3e30d9bb	0.17270558
5	0xbe2e74fd	-0.17036815
6	0xbe7bbae4	-0.24583012
7	0x3edd285d	0.43194857
8	0xbece89bd	-0.4033946
9	0x3eba6068	0.36401677
10	0x3df7b26f	0.120945804
11	0xbd64fdd7	-0.055906143
12	0xbe137639	-0.14400567
13	0xbee36c4e	-0.44418567
14	0x3e1df118	0.15424001
15	0x3e2630f4	0.16229612
16	0xbdf2ceba	-0.11855836
17	0x3dad2e17	0.084560566
18	0x3ea6d8a1	0.3258715
19	0x3dd64f88	0.10464388
20	0xbf0f00e0	-0.5586071
21	0x3dd5672c	0.10420069
22	0x3bf2b667	0.007406998
23	0xbde3f0a9	-0.11129887
24	0x3da668f7	0.08125489
25	0xbde72ed4	-0.11288229
26	0x3e20c885	0.15701492
27	0xbe8aad7b	-0.2708548
28	0xbe8d53b3	-0.2760292
29	0xbbc7ff58	-0.0061034374
30	0x3d95947a	0.0730371
31	0xbe1ccb81	-0.15312006
32	0x3dfa1128	0.122103035
33	0xbcb5d00a	-0.022193927
34	0x3d3b0440	0.04565835
35	0x3e4c9c6c	0.19981545
36	0xbdfe99d2	-0.12431683
37	0xbec9645e	-0.39334387
38	0x3d800ccb	0.0625244
39	0xbd109a50	-0.035303414
40	0xbd41dc0e	-0.047329
41	0xbe87d9ae	-0.26533264
42	0x3e2d3e0b	0.16918199
43	0x3ec881a6	0.39161414
44	0x3ea34877	0.31891224
45	0xbda10ef8	-0.07864183
46	0xbe54ad23	-0.20769171
47	0xbe73e92e	-0.2381942
48	0x3d183c81	0.037167076
49	0x3ed249cd	0.4107193
50	0x3e9c1285	0.3048288
51	0x3ee77b63	0.45211324
52	0x3ec03124	0.3753749
53	0xbe4e6390	-0.20155168
54	0xbec38ee3	-0.3819495
55	0x3d42e7c5	0.047584314
56	0x3e1e853f	0.15480517
57	0xbdd53ba2	-0.10411765
58	0xbea30f00	-0.31847382
59	0xbe210284	-0.15723616
60	0xbedea2e4	-0.4348365
61	0x3dda97a7	0.10673457
62	0xbd7406ae	-0.059576683
63	0x3d890a19	0.06691379
64	0xbd700ada	-0.0586041
65	0xbbe14ad2	-0.0068753744
66	0xbdf81d79	-0.121149965
67	0xbdb573b5	-0.0885996
68	0xbe5e81be	-0.2172918
69	0x3dcf38a3	0.101182245
70	0xbe780f4a	-0.24224582
71	0x3c9cfa03	0.019162184
72	0x3dbc096c	0.091814846
73	0xbe0aac65	-0.13542326
74	0x3eee77e0	0.46575832
75	0xbd852bbe	-0.06502484
76	0x3d8e899c	0.06959841
77	0xbe06d3bb	-0.13166706
78	0xbe718165	-0.23584516
79	0x3e0ad03c	0.13555998
80	0xbd054f4d	-0.03254633
81	0xbe1d496f	-0.15360044
82	0x3e71eeed	0.23626299
83	0xbdbaf7c0	-0.09129286
84	0xbe4a9a84	-0.19785506
85	0x3e83f1b0	0.2577033
86	0xbd0bad8d	-0.034101058
87	0xbd8b8f7b	-0.06814476
88	0x3e82e30b	0.25563845
89	0xbeb7cb4f	-0.358973
90	0xbedbc585	-0.42924133
91	0xbe8fd5c1	-0.2809277
92	0xbe50b2b3	-0.20380668
93	0x3e2b3f12	0.16723278
94	0xbed761f9	-0.42066935
95	0xbcd64ce0	-0.026159704
96	0xbec24c8f	-0.37949035
97	0x3e9759ae	0.29560608
98	0xbea29803	-0.317566
99	0x3d6ede1d	0.058317292
100	0x3da808b9	0.08204789
101	0xbd741df5	-0.05959888
102	0x3cf01454	0.029306568
103	0x3d84cc47	0.06484275
104	0x3ebd1828	0.36932492
105	0xbe3892c6	-0.1802474
106	0x3eab0c74	0.33407938
107	0x3e564e36	0.20928273
108	0xbe5b2b01	-0.21403123
109	0xbe8d95a7	-0.27653238
110	0xbe98cd4b	-0.29844126
111	0x3dcb09c8	0.09913975
112	0x3df3ab07	0.11897855
113	0xbeda2d18	-0.4261253
114	0x3e7471ed	0.23871584
115	0x3cf83927	0.03030069
116	0x3dcee98e	0.10103141
117	0xbe0dd7ae	-0.13851807
118	0x3e4bdf58	0.19909418
119	0x3c2a97d9	0.01041218
120	0x3e4488be	0.19192788
121	0x3e0152e1	0.12629272
122	0x3e996448	0.2995932
123	0xbe8417db	-0.2579945
124	0xbe014c67	-0.12626801
125	0x3e4b926b	0.19880073
126	0x3dc615df	0.0967214
127	0x3e885661	0.26628402
128	0xbe25983c	-0.16171354
129	0x3eed9abb	0.46407112
130	0x3d7721bf	0.060334917
131	0xbe730849	-0.2373363
132	0x3d8fb4de	0.070169196
133	0xbef8c701	-0.48589328
134	0x3e94ebd2	0.29086167
135	0x3e881c16	0.26583928
136	0xbe19d621	-0.1502309
137	0xbd30a379	-0.04312465
138	0xbd7a482f	-0.061103996
139	0x3d2e24a2	0.042515405
140	0xbd31785d	-0.043327678
141	0x3cd5a57c	0.026079886
142	0x3c63efaf	0.0139121255
143	0x3ba3df63	0.005000995
144	0x3cebcbf9	0.028783785
145	0x3e9749b2	0.29548413
146	0x3e2e339b	0.17011873
147	0xbe69b30a	-0.22822204
148	0x3d925649	0.07145364
149	0xbe4eab33	-0.20182495
150	0xbd0c31fb	-0.034227353
151	0x3ef7f8f9	0.4843214
152	0xbe38386a	-0.1799027
153	0x3d925c43	0.07146504
154	0xbea6dfa4	-0.325925
155	0x3e7bddef	0.2459638
156	0xbe782a33	-0.24234848
157	0xbdf569b5	-0.11983053
158	0xbd054904	-0.032540336
159	0xbee73a48	-0.45161653
160	0xbe960eb6	-0.293081
161	0x3cae7600	0.021296501
162	0xbebf5277	-0.37367603
163	0x3ef2c5bf	0.47416493
164	0xbe864572	-0.26224858
165	0x3e458884	0.19290358
166	0x3d3b8385	0.045779724
167	0x3e145c63	0.14488368
168	0x3e47c3cf	0.19508289
169	0x3e411e8d	0.1885931
170	0xbe3505e2	-0.17678025
171	0xbe8c62f7	-0.27419254
172	0x3eca8545	0.39554802
173	0x3e38b265	0.18036802
174	0x3e411d88	0.18858922
175	0x3e9eae5f	0.3099241
176	0x3ea4d866	0.3219635
177	0xbe4a7bf7	-0.19773851
178	0x3d86ccd5	0.06582037
179	0x3e8dcc6e	0.2769503
180	0xbef14cbc	-0.47128856
181	0x3e8918af	0.26776645
182	0x3e8c7884	0.27435696
183	0xbe737c62	-0.23777917
184	0xbda88bfa	-0.082298234
185	0xbdc33d9d	-0.09533236
186	0xbe11cc6c	-0.14238137
187	0xbc8b6d35	-0.017019847
188	0xbe2ccda8	-0.16875327
189	0xbec515af	-0.38493106
190	0xbe199cd4	-0.15001231
191	0x3dda2799	0.10652084
192	0x3e63d7eb	0.22250335
193	0xbf0061fd	-0.5014952
194	0xbebef611	-0.3729711
195	0xbea846b2	-0.32866436
196	0x3e804706	0.25054187
197	0x3d2b7ec2	0.041868933
198	0xbea78186	-0.32716006
199	0x3eb47dd8	0.3525226
200	0xbcea4d1b	-0.02860122
201	0x3ead603f	0.33862492
202	0xbe875581	-0.26432422
203	0x3e273193	0.16327505
204	0x3c385073	0.011249649
205	0x3da25035	0.079254545
206	0x3e0c9c1d	0.13731427
207	0x3eac811a	0.33692247
208	0xbc60452a	-0.013688365
209	0xbec9db15	-0.3942496
210	0xbea9a905	-0.33136764
211	0xbf20b446	-0.62775075
212	0xbea97fff	-0.33105466
213	0x3dc3177c	0.09525964
214	0x3ea8fd09	0.3300555
215	0x3eae1008	0.33996606
216	0x3d79529d	0.0608698
217	0xbe18fb64	-0.14939648
218	0xbe8a210d	-0.2697834
219	0x3eb6ca92	0.35701424
220	0xbe02a768	-0.12759173
221	0xbcffb3a5	-0.03121359
222	0x3e784622	0.24245504
223	0x3ebb73f2	0.36611897
224	0xbd871dca	-0.06597479
225	0x3e4f21f0	0.2022779
226	0x3da01559	0.07816572
227	0xbe98f107	-0.2987139
228	0x3ce93ea6	0.028472256
229	0xbe94d5d0	-0.29069376
230	0xbe513237	-0.20429312
231	0x3defd785	0.11711029
232	0x3e1ebf43	0.15502648
233	0x3ddc96c3	0.10770943
234	0xbe69cead	-0.22832747
235	0x3e243f41	0.16039754
236	0x3e5ff1e2	0.21869615
237	0x3ec60e98	0.3868301
238	0xbc9fe05a	-0.019516159
239	0xbea2f10b	-0.31824526
240	0x3d3bfbf2	0.04589457
241	0x3de74d00	0.112939835
242	0xbec477b4	-0.38372576
243	0xbe50b1ac	-0.20380276
244	0xbe084757	-0.13308464
245	0x3e87e66a	0.2654298
246	0x3e0286e7	0.12746774
247	0xbe60d089	-0.2195455
248	0xbacc9e67	-0.0015611172
249	0xbe589dd3	-0.21153955
250	0x3e7e9e5d	0.24865098
251	0x3e408c37	0.18803488
252	0xbe50dd94	-0.20397025
253	0xbd5b09b7	-0.05347606
254	0x3e2dd8a6	0.16977176
255	0xb9ca8220	-0.00038625393

gnn_layers.0.W1.weight f4 [128, 128]
0	0x3e059545	0.13045223
1	0x3e8916d8	0.2677524
2	0x3e4f6191	0.20252062
3	0x3db9c82e	0.09071384
4	0x3e9b9396	0.30386037
5	0xbdbcf454	-0.092262894
6	0xbeb7dfc5	-0.3591291
7	0x3f18f37d	0.59746534
8	0xbdfd1d47	-0.123591
9	0xbd1743e0	-0.036929965
10	0x3e74c41d	0.23902936
11	0xbcef1bb7	-0.02918802
12	0x3e0222c6	0.12708578
13	0xbd038103	-0.032105457
14	0x3e0e398f	0.13889144
15	0xbc38f7b7	-0.011289529
16	0x3dfa0586	0.12208085
17	0x3c40189e	0.011724619
18	0xbe870128	-0.2636807
19	0xbd6525bb	-0.055944186
20	0xbe97e7bc	-0.29668987
21	0xbed5fd5f	-0.4179487
22	0xbc83c03b	-0.016082874
23	0x3e2ee93f	0.17081164
24	0xbcb02883	-0.021503692
25	0x3e05bfd4	0.13061458
26	0xbe0ea177	-0.13928781
27	0x3c04e44a	0.008111069
28	0x3e0531c0	0.1300726
29	0xbe450dd3	-0.19243555
30	0x3ea7face	0.32808536
31	0x3e3a12a2	0.1817117
32	0xbd3187e9	-0.043342505
33	0xbb9e151e	-0.0048242947
34	0xbd2ccd7c	-0.042188153
35	0x3e8d83fc	0.2763976
36	0xbe6a6910	-0.2289164
37	0x3ed38cb4	0.41318285
38	0x3e0c7afa	0.13718787
39	0x3c816a90	0.015797883
40	0xbe0208da	-0.12698689
41	0xbd979de6	-0.074031636
42	0xbe1ccbae	-0.15312073
43	0x3e85099e	0.259839
44	0xbe16e056	-0.14734015
45	0xbe0b7313	-0.13618116
46	0x3df81d8b	0.1211501
47	0xbe947ef5	-0.2900311
48	0x3d629663	0.0553192
49	0x3da87f11	0.08227361
50	0xbe876591	-0.26444677
51	0x3dd56d18	0.104211986
52	0xbee941b4	-0.4555794
53	0xbd950da4	-0.07277992
54	0x3ddcdf44	0.10784772
55	0xbe59d1cd	-0.21271439
56	0x3d894166	0.06701927
57	0xbc1dbf04	-0.009628061
58	0xbd3b0d48	-0.045666963
59	0xbe446000	-0.19177246
60	0xbd0f1ccf	-0.034939583
61	0xbd676cff	-0.05650043
62	0x3eb390b8	0.3507135
63	0xbd836b38	-0.06416935
64	0x3c5380f8	0.0129091665
65	0x3ee43482	0.4457131
66	0xbeb1d188	-0.34730172
67	0xbd81efe4	-0.06344584
68	0xbdf029fb	-0.11726757
69	0x3d21ec68	0.039532095
70	0x3deb7664	0.114971906
71	0xbe5ad9d5	-0.21372159
72	0x3e589636	0.21151051
73	0xbd501077	-0.050796952
74	0xbebfacbe	-0.3743648
75	0x3e251577	0.1612147
76	0x3c8d39ef	0.017239539
77	0xbdea1e9f	-0.11431622
78	0x3e2e43b7	0.17018019
79	0x3eb44cd7	0.35214874
80	0x3d594a16	0.05304917
81	0xbd101127	-0.035172608
82	0x3d180982	0.037118442
83	0x3dd94d78	0.10610479
84	0xbde02501	-0.10944558
85	0xbe24ff04	-0.16112906
86	0xbeb3a7d6	-0.35088986
87	0x3eeea434	0.46609652
88	0xbc99a5c4	-0.018755801
89	0xbddde3fb	-0.108344994
90	0xbe981d4e	-0.29709858
91	0x3d700208	0.058595687
92	0x3d4fc349	0.050723348
93	0x3cb3f8df	0.021969257
94	0xbe3e42a4	-0.18580109
95	0xbdd33808	-0.103134215
96	0x3ec809b7	0.39069912
97	0x3e20c36c	0.15699548
98	0xbeaca850	-0.33722162
99	0xbd8b584a	-0.06803949
100	0xbcd11fc4	-0.025527842
101	0x3d806ebd	0.06271122
102	0x3e391961	0.18076088
103	0xbe11f655	-0.14254124
104	0x3ebc0b81	0.36727527
105	0x3d8630e2	0.065522924
106	0x3d8a6877	0.06758206
107	0xbe36ae14	-0.17839843
108	0xbe86a950	-0.2630105
109	0x3dc2885d	0.094986655
110	0xbe47135b	-0.19440977
111	0xbd89edc5	-0.06734804
112	0x3db1be3a	0.08678861
113	0x3e767e97	0.24071728
114	0xbd947847	-0.072495036
115	0x3cb451c3	0.022011643
116	0xbe8c652b	-0.27420935
117	0xbe2dd0b0	-0.16974139
118	0xbc07fe44	-0.008300368
119	0x3e4091dc	0.18805641
120	0x3df139f3	0.11778631
121	0xbeb845f7	-0.3599088
122	0x3dcd635b	0.10028716
123	0xbf030b0e	-0.51188743
124	0x3e440fad	0.19146605
125	0x3d0168cc	0.031594083
126	0x3d85e79d	0.06538317
127	0x3e51a795	0.20474084
128	0x3e1f7de0	0.15575361
129	0x3d04dcb3	0.032437038
130	0x3e9fb4fc	0.31192768
131	0xbd3b964b	-0.045797627
132	0x3dbc99a1	0.0920899
133	0xbdbb91f1	-0.091586955
134	0xbde194e4	-0.11014727
135	0x3e33115b	0.1748709
136	0xbe16dd38	-0.14732826
137	0xbd7ffbd9	-0.06249604
138	0xbe0a3741	-0.1349764
139	0xbeee060e	-0.46488994
140	0x3ce4bca6	0.027921986
141	0xbe799515	-0.24373277
142	0xbe5a2b03	-0.2130547
143	0xbe38b03f	-0.18035983
144	0x3e82a1e1	0.2551413
145	0xbdc5151c	-0.09623167
146	0x3e1f8d71	0.155813
147	0xbe44cfe5	-0.1921993
148	0x3ebc6a2c	0.36799753
149	0xbd097997	-0.033563223
150	0xbe57054a	-0.20998111
151	0x3eb9d2e8	0.3629372
152	0xbd24c474	-0.040226415
153	0x3de048df	0.10951399
154	0x3e7c543b	0.24641506
155	0xbee2c00f	-0.44287154
156	0xbd5abb70	-0.05340141
157	0xbdcec0b6	-0.100953504
158	0xbe275133	-0.16339569
159	0xbe804956	-0.2505595
160	0xbead5457	-0.3385341
161	0xbe410a50	-0.1885159
162	0xbe36194c	-0.17783087
163	0x3eea0c30	0.45712423
164	0xbd1f7e77	-0.038938966
165	0x3cd724a1	0.026262583
166	0x3ed080e3	0.40723333
167	0x3ecb7447	0.3973715
168	0xbe276b86	-0.1634961
169	0xbe416e27	-0.18889676
170	0x3e56a605	0.20961769
171	0xbe74cbed	-0.23905917
172	0xbdcb2cfd	-0.0992069
173	0x3ecd41a0	0.4008913
174	0xbdca0bc4	-0.09865525
175	0x3e8fcb6b	0.28084883
176	0xbddb7b6c	-0.107169
177	0xbecd5951	-0.40107206
178	0xbc0b5342	-0.008503737
179	0x3e4fe001	0.20300294
180	0xbdb7171e	-0.08939956
181	0x3f094a27	0.5362877
182	0x3e99195c	0.2990216
183	0xbd2369ed	-0.03989594
184	0x3d43bc86	0.04778721
185	0xbdd8633e	-0.10565804
186	0xbe18e151	-0.14929701
187	0x3da08288	0.07837397
188	0xbde53f7a	-0.11193748
189	0x3c6c4193	0.014419931
190	0x3e8be9a3	0.27326688
191	0x3d60c136	0.05487176
192	0x3e55ca16	0.20877871
193	0xbda10bb6	-0.07863562
194	0x3e77053b	0.24123089
195	0x3e6e3a9b	0.23264544
196	0x3e257364	0.161573
197	0xbd496b21	-0.04917443
198	0xbebf5951	-0.3737283
199	0xbef28b9e	-0.47372144
200	0x3e19857a	0.14992324
201	0x3eade0e3	0.33960637
202	0xbbce77be	-0.0063008955
203	0xbc9db442	-0.019250993
204	0x3a6514b7	0.00087387435
205	0x3e11ec86	0.14250383
206	0xbc034fea	-0.0080146585
207	0x3e7cc557	0.24684654
208	0xbe0bd1f6	-0.13654312
209	0xbec398de	-0.38202566
210	0xbeea848a	-0.45804244
211	0xbeecf72f	-0.46282336
212	0xbde06c3e	-0.109581456
213	0x3cecb2db	0.028893879
214	0x3ec82529	0.3909085
215	0x3d8c02b1	0.06836451
216	0xbe216093	-0.15759496
217	0x3db4ed68	0.08834344
218	0x3d1ced23	0.03831209
219	0x3e0f37c4	0.13986117
220	0x3ce3fd99	0.027830886
221	0xbed137e7	-0.40862963
222	0xbe0a11e5	-0.13483389
223	0x3ddf1da6	0.10894327
224	0xbf06fe94	-0.52732205
225	0xbe618848	-0.22024643
226	0xbd0cfa32	-0.034418292
227	0x3e31951d	0.17342038
228	0xbe76e8e0	-0.24112272
229	0xbe9c2f7e	-0.30504984
230	0x3d9f20a4	0.077698976
231	0xbe3b8c0b	-0.18315141
232	0xbd43b729	-0.047782097
233	0xbe119b37	-0.14219366
234	0xbe8a58ca	-0.27020866
235	0x3dfffea8	0.12499744
236	0x3d3833e9	0.04497138
237	0x3c95abb5	0.018270353
238	0xbea2b7d4	-0.31780875
239	0xbee55cf7	-0.4479749
240	0x3d957620	0.07297921
241	0x3e3d12e6	0.1846424
242	0x3d966194	0.0734283
243	0xbc00b657	-0.007855973
244	0xbf0b20fb	-0.543472
245	0xbe4d5590	-0.20052171
246	0x3e819d6f	0.25315425
247	0xbc478c51	-0.01217945
248	0x3ced239e	0.028947648
249	0xbd7f1d22	-0.062283643
250	0xbdc20b3f	-0.09474801
251	0x3d40c05a	0.04705844
252	0x3e57c0c7	0.21069632
253	0xbdd24d63	-0.102686666
254	0xbc6d55ac	-0.014485758
255	0x3f1ab56f	0.60433096

gnn_layers.0.W2.weight f4 [128, 128]
0	0x3e4d8733	0.20071106
1	0x3dea8e95	0.114529766
2	0xbe2c797c	-0.16843218
3	0xbe478dc0	-0.19487667
4	0x3e257f91	0.16161944
5	0xbe5b2e9f	-0.21404503
6	0x3e5687c9	0.20950235
7	0x3dbe808f	0.09301864
8	0xbbb23687	-0.005438629
9	0xbdfecb05	-0.12441067
10	0xbcb280f3	-0.021790003
11	0xbeb9e3ea	-0.36306697
12	0xbd8c389e	-0.06846736
13	0x3e5ceccf	0.2157471
14	0xbe5eec9f	-0.21769951
15	0x3e449ab6	0.19199643
16	0x3e1f2a6c	0.15543526
17	0x3e394c62	0.18095544
18	0xbe5090a0	-0.2036767
19	0x3ed67a0e	0.41889995
20	0x3e97fd26	0.29685324
21	0xbc94b441	-0.018152358
22	0xbe423a39	-0.18967523
23	0xbd94a8a5	-0.07258729
24	0xbd8bc236	-0.06824152
25	0x3e2a4cfa	0.16630927
26	0x3d7e93d9	0.062152717
27	0xbe72bf01	-0.23705675
28	0x3d2a05b5	0.04150935
29	0x3d826b20	0.06368089
30	0xbd3f7c52	-0.04674942
31	0xbccd81f1	-0.025086375
32	0x3dce26cc	0.10065994
33	0xbebb377b	-0.36565766
34	0xbe3d91da	-0.18512669
35	0x3e187c0a	0.14891067
36	0x3e334f82	0.17510799
37	0x3e0fce58	0.14043558
38	0x3d9955ec	0.074870914
39	0xbe4e24d9	-0.20131244
40	0xbc56edcd	-0.01311822
41	0x3db52679	0.08845229
42	0x3e41edb4	0.18938333
43	0xbdd29161	-0.10281635
44	0x3e624bd0	0.22099233
45	0xbdbb0fe0	-0.09133887
46	0x3b951135	0.0045491704
47	0x3ecc9723	0.39959058
48	0xbec32a2c	-0.38118112
49	0xbddc562d	-0.10758624
50	0x3e4e6f59	0.20159663
51	0xbed3ca01	-0.41365054
52	0x3db7e282	0.0897875
53	0x3b8d794c	0.004317438
54	0xbeae84f2	-0.34085804
55	0x3d488745	0.048957128
56	0xbddf7ecd	-0.10912857
57	0xbd56ca5c	-0.05243908
58	0x3dca8d62	0.09890248
59	0x3e17d81f	0.14828537
60	0x3d8f7e58	0.0700652
61	0xbeb11d5d	-0.34592715
62	0x3cccfa14	0.02502159
63	0x3e3638b4	0.17795068
64	0x3f000d81	0.50020605
65	0x3d937299	0.07199592
66	0x3e91cca2	0.28476435
67	0x3e9138a9	0.2836354
68	0xbe1e4044	-0.15454203
69	0xbd74e72d	-0.05979078
70	0xbe92f206	-0.28700274
71	0xbd716b9d	-0.05894052
72	0x3e89f1b1	0.26942208
73	0xbe07f84e	-0.13278314
74	0x3ec30016	0.38086003
75	0xbe48134d	-0.19538613
76	0xbdc5d336	-0.09659426
77	0x3e867a1e	0.26265043
78	0xbe8ce2bf	-0.27516744
79	0xbe17ff0f	-0.14843391
80	0x3da10300	0.078619
81	0x3e64b0a9	0.22333016
82	0xbecbdad8	-0.39815402
83	0xbedb401c	-0.4282235
84	0xbe3cb219	-0.18427314
85	0x3e7413e7	0.23835717
86	0x3f093cec	0.53608584
87	0x3d1a8140	0.03772092
88	0x3e9baf57	0.3040721
89	0xbda7647a	-0.08173461
90	0x3e72ece1	0.23723175
91	0x3d9b90d3	0.075959824
92	0x3d0179ea	0.031610407
93	0xbc6fdb3c	-0.014639672
94	0xbe8743be	-0.2641887
95	0x3ec2fab8	0.38081908
96	0xbde62380	-0.1123724
97	0x3d3ac7f8	0.04560086
98	0x3f04984d	0.5179489
99	0xbd17c17f	-0.037049767
100	0xbdb303d9	-0.08740968
101	0xbdd2048d	-0.10254774
102	0xbe631848	-0.22177231
103	0x3d824b26	0.0636199
104	0xbd89930f	-0.06717502
105	0xbe03db40	-0.12876606
106	0xbe0498f3	-0.1294897
107	0xbde40709	-0.11134154
108	0xbe78095c	-0.2422232
109	0xbe507ec8	-0.20360863
110	0x3d9f8cdc	0.07790539
111	0xbe1b16fb	-0.15145485
112	0xbe43719a	-0.19086304
113	0xbe17af6f	-0.14813016
114	0x3c953ee8	0.018218473
115	0xbe688382	-0.22706416
116	0xbe03a140	-0.1285448
117	0x3e55c016	0.20874056
118	0x3e043c5d	0.12913652
119	0x3d2916f6	0.041281663
120	0x3e502a4e	0.20328638
121	0xbeabd4a0	-0.33560658
122	0x3de85540	0.11344385
123	0x3f10c4ad	0.56550103
124	0xbe1a6ac2	-0.15079787
125	0x3dbb46f2	0.09144391
126	0xbda9553d	-0.08268211
127	0x3ea8799a	0.32905275
128	0x3e807c64	0.25094903
129	0xbe05d8d1	-0.1307099
130	0x3c4b07e5	0.012392019
131	0x3ed80480	0.42190933
132	0xbb2f8ba3	-0.002678611
133	0xbda3d0fe	-0.079988465
134	0xbe0dd1aa	-0.13849512
135	0x3ba89e9f	0.0051458622
136	0x3e104f06	0.14092645
137	0xbedae69e	-0.42754072
138	0xbe3ce57f	-0.18446921
139	0xbe1de4ac	-0.15419263
140	0x3dd7bdbb	0.10534235
141	0x3e5517ad	0.20809813
142	0xbe90cfbd	-0.28283492
143	0x3dcf04c6	0.10108332
144	0x3e19ab31	0.1500671
145	0xbe8736e6	-0.26409072
146	0xbe7935b9	-0.243369
147	0xbd20f546	-0.03929641
148	0x3efa4ec0	0.48888206
149	0xbeb54713	-0.35405788
150	0x3d6b2999	0.057412717
151	0xbe428b84	-0.18998533
152	0x3d5ecaa0	0.054392457
153	0xbd245325	-0.040118355
154	0x3efa3b35	0.48873296
155	0x3cadc2cc	0.02121105
156	0x3ebc4c40	0.36776924
157	0xbea42953	-0.32062778
158	0x3ed586cc	0.41704404
159	0x3dcedb3d	0.1010041
160	0x3ea8ad2c	0.3294462
161	0xbe24f64f	-0.16109584
162	0xbd4eda05	-0.05050089
163	0x3c90d4fc	0.017679684
164	0x3e9446cf	0.28960273
165	0xba0bac21	-0.00053280784
166	0x3ce61518	0.02808623
167	0xbddee651	-0.10883773
168	0x3ec689a4	0.38776886
169	0xbd88d54e	-0.0668131
170	0x3dadaf30	0.0848068
171	0x3e81ce84	0.2535287
172	0x3d230ea2	0.039808877
173	0xbd8bfd65	-0.068354405
174	0xbe7d2ca9	-0.24724068
175	0x3d7dad58	0.06193289
176	0xbdc49281	-0.09598256
177	0xbeb98636	-0.36235207
178	0xbd3fb639	-0.04680464
179	0x3e9c9103	0.30579385
180	0x3e769698	0.24080884
181	0x3e7921c1	0.24329282
182	0xbe31e441	-0.17372228
183	0x3d16bea1	0.03680289
184	0x3e8a1b5f	0.26974007
185	0xbe0935fc	-0.133995
186	0xbda566e9	-0.08076269
187	0xbe1b7689	-0.15181936
188	0xbd87fec4	-0.066403896
189	0x3df670af	0.120332114
190	0x3d2b85e4	0.041875735
191	0xbe8d73d8	-0.27627444
192	0x3e1562fe	0.14588544
193	0xbf066238	-0.5249362
194	0x3e3037b4	0.17208749
195	0x3e0f67fb	0.14004509
196	0x3eb6915f	0.35657784
197	0x3e7efab2	0.2490032
198	0xbde960e2	-0.11395432
199	0xbeea4df0	-0.45762587
200	0xbd9e536a	-0.07730754
201	0x3e98e387	0.2986109
202	0xbd3076be	-0.04308199
203	0x3ea002e6	0.3125221
204	0xbe3e7863	-0.18600611
205	0x3c6e0d75	0.014529576
206	0x3d534adf	0.051585075
207	0x3e374571	0.17897584
208	0x3e20c9af	0.15701936
209	0x3d932b43	0.07185986
210	0x3e9f4b4e	0.3111214
211	0xbd598560	-0.053105712
212	0xbd64ac71	-0.055828515
213	0xbe970fae	-0.2950415
214	0xbdb67d86	-0.089106604
215	0x3dd59342	0.10428478
216	0xbdb7ac1f	-0.08968376
217	0xbdb7cee1	-0.08975006
218	0x3eacdc9d	0.33762065
219	0xbda869fa	-0.082233384
220	0x3f0a2d01	0.5397492
221	0xbe9f9ec8	-0.31175828
222	0xbe0619ef	-0.1309583
223	0x3edb2610	0.42802477
224	0xbe8a7a1d	-0.2704629
225	0x3d3664ba	0.044529654
226	0x3c0f8bc6	0.008761352
227	0xbe157b03	-0.14597706
228	0xbe4fdbf2	-0.20298746
229	0xbe10f8da	-0.1415743
230	0x3e07d1f7	0.13263689
231	0xbd40b0fe	-0.047043793
232	0x3d9d7859	0.0768897
233	0xbe579c46	-0.21055707
234	0xbdcf1cad	-0.10112891
235	0x3e419b3e	0.18906876
236	0x3ca0a758	0.019611046
237	0xbe6a6d26	-0.228932
238	0xbe6e8a99	-0.23295058
239	0xbe32157d	-0.1739101
240	0x3d24037e	0.040042393
241	0x3e57e58f	0.21083663
242	0xbde07f2f	-0.10961758
243	0xbdb377ae	-0.087630615
244	0xbe699d7a	-0.22813979
245	0xbc67c071	-0.014145003
246	0x3ecf0512	0.40433556
247	0x3dd9c2f3	0.10632887
248	0xbe3268f2	-0.17422846
249	0xbeccbefe	-0.39989465
250	0xbe885974	-0.26630747
251	0xbc6b6a08	-0.014368542
252	0x3dbdec81	0.09273625
253	0xbbda075b	-0.006653709
254	0x3d293d35	0.041318137
255	0xbe90e714	-0.283013

gnn_layers.1.W0.weight f4 [128, 128]
0	0xbe89a1ff	-0.26881406
1	0xbe8f4949	-0.279856
2	0xbe3e00f7	-0.18555056
3	0xbe341fc3	-0.17590241
4	0x3d3d2602	0.046178825
5	0x3df08e82	0.11745931
6	0x3e2c1796	0.16805872
7	0xbe4e3ca3	-0.20140319
8	0x3d3b2f93	0.045699667
9	0xbe5b61de	-0.21424052
10	0x3d7e7a8a	0.06212858
11	0xbe24e049	-0.16101183
12	0xbebb6a0e	-0.3660435
13	0xbc67d228	-0.014149226
14	0x3dbfe0ce	0.0936905
15	0xbe2b2d0c	-0.16716403
16	0x3e092112	0.13391522
17	0xbe51c0ea	-0.20483747
18	0xbb6e32af	-0.0036346128
19	0x3e573f7d	0.21020313
20	0x3e8e3cc2	0.2778073
21	0x3e9a3cfc	0.30124652
22	0x3e4c4395	0.19947655
23	0x3e3ae5f6	0.18251786
24	0xbe39e982	-0.18155482
25	0x3e84b7ca	0.2592147
26	0xbee04101	-0.43799594
27	0xbdb545d3	-0.088512085
28	0x3da97c32	0.082756415
29	0x3cba8c5a	0.022772003
30	0xbe2dc42a	-0.16969362
31	0xbdfe7749	-0.124250956
32	0xbe431d2d	-0.19054098
33	0xbecaf56a	-0.3964036
34	0x3e5e21b3	0.21692543
35	0x3dca3466	0.098732755
36	0x3cdb112d	0.026741588
37	0x3dafd593	0.08585658
38	0xbe5f7e65	-0.2182556
39	0x3a5dd37f	0.00084619963
40	0x3daab2c6	0.083348796
41	0x3c448a1e	0.01199582
42	0x3e1e76f3	0.15475063
43	0xbe42c6ca	-0.19021145
44	0x3d9be456	0.07611911
45	0x3e52b17d	0.20575519
46	0xbec2722d	-0.37977734
47	0xbd5ad751	-0.053427998
48	0xbe846078	-0.2585485
49	0x3ea134b8	0.31485534
50	0x3da03161	0.07821918
51	0xbd0758c1	-0.033043627
52	0x3de45f95	0.11151043
53	0xbe85f6ff	-0.26165006
54	0xbe4f6515	-0.20253403
55	0xbe78c712	-0.2429469
56	0xbed88697	-0.42290184
57	0x3d1dba6e	0.03850787
58	0x3e0cc91f	0.13748597
59	0xbdc378d0	-0.095445275
60	0x3e336822	0.17520192
61	0x3ee398b4	0.4445244
62	0x3d902644	0.070385486
63	0xbe276b12	-0.16349438
64	0xbe1bbe64	-0.15209347
65	0xbce1690b	-0.027515909
66	0x3dd3dc5d	0.10344765
67	0xbdab81bd	-0.08374355
68	0x3ec6f3f9	0.3885801
69	0xbe8dd4d0	-0.27701426
70	0xbc8a474f	-0.016879706
71	0x3a6a858c	0.00089462916
72	0x3cc62089	0.024185436
73	0xbc426ca6	-0.011866724
74	0xbd8d5da8	-0.06902629
75	0xbecc6aa8	-0.39925122
76	0xbdbf2ce3	-0.09334733
77	0xbea7618e	-0.32691616
78	0x3e0e775f	0.13912724
79	0x3e3e9e28	0.1861502
80	0x3e679b01	0.22617723
81	0x3ea7d533	0.32779846
82	0x3ecbe478	0.39822745
83	0xbcb20cbd	-0.02173459
84	0x3e501ae2	0.20322755
85	0x3e199527	0.14998303
86	0xbe56f4ef	-0.20991872
87	0x3e88df73	0.26732978
88	0xbec262f5	-0.37966123
89	0x3e83dd1f	0.2575464
90	0x3e34f01b	0.17669718
91	0xbe92d342	-0.28676802
92	0xbe5c2e3d	-0.21502014
93	0x3e82a91c	0.25519645
94	0x3d898aae	0.06715904
95	0x3e7b2438	0.24525535
96	0xbdb63243	-0.088963054
97	0x3e38528a	0.18000236
98	0x3c02fef0	0.007995352
99	0xbe34949d	-0.17634816
100	0x3e1963c5	0.14979465
101	0x3d6cba04	0.057794586
102	0xbf1602f0	-0.5859823
103	0x3ecc1994	0.39863265
104	0xbe1eb2e7	-0.15497933
105	0xbddd7b0a	-0.108144835
106	0xbd6b28e9	-0.05741206
107	0xbeac03a1	-0.3359652
108	0xbded7a2b	-0.11595567
109	0xbe1d7e83	-0.15380292
110	0xbea62f59	-0.32457998
111	0xbd3bed1e	-0.04588043
112	0xbec592db	-0.38588604
113	0x3dfe7e9e	0.12426494
114	0x3a58a0d0	0.0008263709
115	0xbdc4f013	-0.09616103
116	0xbd562e91	-0.052290503
117	0xbea5db9d	-0.32394114
118	0x3daa252d	0.08307872
119	0xbe9601d6	-0.29298276
120	0xbd653a7c	-0.05596398
121	0xbd2fc79b	-0.042914968
122	0x3e2dbb00	0.16965866
123	0xbeacc35c	-0.33742797
124	0x3e5945a7	0.21217977
125	0xbe0e95e0	-0.1392436
126	0xbe4f48be	-0.20242593
127	0xbeab0f43	-0.3341008
128	0xbb88d98c	-0.0041763242
129	0xbbaccdbb	-0.0052735484
130	0xbc0de759	-0.008661115
131	0x3ab23d03	0.0013598505
132	0x3b4f5bf2	0.0031640497
133	0xbc248771	-0.010042057
134	0xbc4ec132	-0.012619304
135	0xbc5db6a3	-0.0135323135
136	0xbc1b3332	-0.009472655
137	0x3a0cd093	0.0005371656
138	0xbc31103a	-0.010807091
139	0xbc892e60	-0.016745746
140	0x3bfedc10	0.0077776983
141	0xbc754d8a	-0.0149721
142	0xbc1cd525	-0.009572302
143	0xbbac991a	-0.0052672746
144	0xbc8a50fd	-0.016884321
145	0x3be11598	0.0068690293
146	0x3b3b5544	0.0028584758
147	0xbc2c3825	-0.010511433
148	0xbc533a7a	-0.01289236
149	0x3be870b8	0.0070935152
150	0x3bf0d4d1	0.0073495884
151	0xbb59f069	-0.0033254868
152	0xbbee215f	-0.0072671617
153	0xbc52cb81	-0.012865902
154	0x3b4a4f5a	0.003087005
155	0xbc559eb3	-0.013038325
156	0xbc48dd8c	-0.012259852
157	0xb9ca0b8d	-0.00038537048
158	0xbb9d0cd1	-0.0047927876
159	0xbb68bfe6	-0.003551477
160	0x3b9cee1b	0.0047891266
161	0x3ba61cb7	0.005069341
162	0xbca25f30	-0.01982078
163	0xbc393bc6	-0.011305755
164	0xbb2a7cd2	-0.002601434
165	0xbc14d80d	-0.009084714
166	0xba96d23e	-0.0011506749
167	0xbc14b397	-0.009076021
168	0x3ad2e1fd	0.0016089078
169	0xbc99b382	-0.018762354
170	0xbc55e60b	-0.013055335
171	0xbaebd495	-0.0017992432
172	0x3b4d1db7	0.003129823
173	0xbc80c5d2	-0.015719328
174	0xbcbbb261	-0.022912206
175	0xbbcc16fd	-0.0062283264
176	0x3bd58620	0.006516233
177	0xbb13f6ac	-0.0022577448
178	0xbc550ffe	-0.013004301
179	0xbc3fcd60	-0.01170668
180	0xbb9d4f79	-0.0048007336
181	0xbc3e9e52	-0.011634426
182	0x3943b49d	0.00018663933
183	0xbbe835ba	-0.007086483
184	0x3c0026e2	0.00782177
185	0xbc3080a7	-0.010772861
186	0x3c00d748	0.007863827
187	0xbbab4793	-0.005227038
188	0xbbf9bc74	-0.0076213423
189	0xb973868f	-0.00023224413
190	0x3b0ee72a	0.0021805265
191	0x3c3b9cc6	0.011450952
192	0x3b881dd4	0.0041539464
193	0xbbd45bb6	-0.0064806594
194	0xbbf04f00	-0.0073336363
195	0x3c1fee0b	0.009761344
196	0x3b72b080	0.0037031472
197	0x3c23c297	0.009995124
198	0x3c189315	0.009312411
199	0xbc72c592	-0.014817612
200	0x3aff36d1	0.0019471293
201	0x3c008476	0.007844081
202	0xbb59b4b5	-0.0033219282
203	0xbca52ec7	-0.020163907
204	0xbc4e631a	-0.01259687
205	0xbc30b474	-0.010785211
206	0xbc6b37e9	-0.014356592
207	0xbbd58ab3	-0.0065167784
208	0x3b48ed2f	0.003065895
209	0x3a8e1e82	0.0010842832
210	0xbb11730c	-0.0022193817
211	0xbc8346e4	-0.016025014
212	0x3b0996f3	0.0020994514
213	0xbc5507ef	-0.01300238
214	0xb9b03b4a	-0.0003361351
215	0xbbf16f52	-0.0073680067
216	0xbbf99c05	-0.007617476
217	0xbc88994a	-0.016674656
218	0xb9c1b1ce	-0.00036944303
219	0xbc6518cf	-0.013982966
220	0x3ac8c17d	0.0015316453
221	0xbc73a44d	-0.014870715
222	0x3b836d9c	0.004010869
223	0xbcad435a	-0.02115028
224	0x3bdb967f	0.00670129
225	0x3b04c3e0	0.0020258352
226	0xbc4d04e3	-0.012513372
227	0xbc3d8936	-0.011568358
228	0x3a18d898	0.0005830615
229	0xbb143fe7	-0.0022621097
230	0xbca2063b	-0.019778362
231	0x3b19cee7	0.002346927
232	0xba7503e2	-0.0009346587
233	0xbc5e2f6c	-0.013561111
234	0xbc0f00c0	-0.008728206
235	0xbc73fa8d	-0.014891279
236	0xbc2296f3	-0.009923684
237	0xbc163c85	-0.009169702
238	0xbb9caf53	-0.0047816425
239	0xbc409b1c	-0.011755731
240	0xbbde88f6	-0.0067912294
241	0xbaf8375d	-0.0018937398
242	0x3bdb2f68	0.006689001
243	0xbca6a5b4	-0.020342685
244	0xbac3ffbb	-0.0014953533
245	0x3b9c0765	0.0047616237
246	0xbc81c0cf	-0.015839009
247	0xbc474f4c	-0.012164902
248	0xbc340cfd	-0.010989425
249	0x3ae39c38	0.0017365282
250	0xbb80466c	-0.003914645
251	0xbbf83e2e	-0.007575772
252	0xbc6cac74	-0.014445413
253	0xbbb7d807	-0.0056104693
254	0xba050281	-0.00050739205
255	0xbae76fe4	-0.0017657247

gnn_layers.1.W1.weight f4 [128, 128]
0	0x3e55e1d9	0.20886935
1	0x3e8cb6ae	0.27483124
2	0xbe964f57	-0.29357406
3	0x3e75034e	0.23927042
4	0xbd901df8	-0.07036966
5	0x3e198c86	0.14995012
6	0x3e620b2b	0.22074573
7	0xbeab6690	-0.33476686
8	0x3e207776	0.1567057
9	0x3ca5e7c5	0.020252118
10	0x3e834c9a	0.2564438
11	0xbcf83a6b	-0.030301293
12	0xbe7a0e37	-0.24419485
13	0xbe251a2f	-0.1612327
14	0x3e64d368	0.2234627
15	0x3d866ed7	0.0656411
16	0x3caba51f	0.02095276
17	0x3e96fd0d	0.29489937
18	0xbe555a2a	-0.20835176
19	0xbe54325c	-0.20722336
20	0xbec844d7	-0.3911502
21	0x3e08f31f	0.13373993
22	0x3db8f2f9	0.09030718
23	0x3e71f7e1	0.23629715
24	0x3dd64364	0.104620725
25	0x3e752c24	0.2394262
26	0x3d34337d	0.043994416
27	0xbd127f2f	-0.035765823
28	0x3d62d831	0.055381957
29	0x3d1f3bbe	0.038875334
30	0xbdaf8dc9	-0.08571965
31	0x3eaf6080	0.3425331
32	0x3de36190	0.11102593
33	0x3e07cbc8	0.1326133
34	0x3e83e865	0.2576324
35	0xbd7a8090	-0.061157763
36	0x3cb29285	0.021798382
37	0xbed6884f	-0.4190087
38	0x3e0b268d	0.13588925
39	0x3d5edbe1	0.05440891
40	0xbd8fd8cc	-0.070237726
41	0x3dfb55b7	0.12272208
42	0x3d5b6d52	0.053571053
43	0x3e44a2d9	0.19202746
44	0xbdbbdffc	-0.09173581
45	0xbd6f05a6	-0.058354996
46	0x3e72e260	0.23719168
47	0x3d94ae6a	0.07259829
48	0xbd95945c	-0.07303688
49	0x3c37556b	0.011189799
50	0x3e01137b	0.12605087
51	0xbdc8dfab	-0.09808286
52	0x3ebd5ba4	0.3698398
53	0xbd265f3b	-0.040618163
54	0xbeab98d9	-0.3351505
55	0x3e16d2a4	0.1472879
56	0xbe079b81	-0.13242914
57	0xbf4ac0bb	-0.79200333
58	0x3e5982b4	0.21241266
59	0xbdbedba8	-0.0931924
60	0xbcc29f15	-0.023757497
61	0xbeabe4b4	-0.33572924
62	0xbe2da0ea	-0.16955915
63	0x3f008129	0.5019708
64	0x3ee93de8	0.45555043
65	0x3e5cddc1	0.21568967
66	0x3ecfaf97	0.40563652
67	0xbe90a2ca	-0.28249198
68	0xbe20dcf9	-0.15709294
69	0xbeaf9e36	-0.34300393
70	0x3e8fdd2b	0.28098425
71	0x3f19235e	0.5981959
72	0x3d82d3c9	0.06388051
73	0xbc668436	-0.0140696075
74	0x3e868ae1	0.2627783
75	0xbdf32317	-0.11871927
76	0xbc5d3f7c	-0.013503905
77	0xbe5c3446	-0.21504316
78	0xbe90e9a2	-0.28303248
79	0xbe42cad4	-0.19022685
80	0x3e8750b8	0.2642877
81	0xbe7ef29c	-0.24897236
82	0x3e63bbf2	0.22239664
83	0x3dc99b0d	0.09844027
84	0x3e65c05d	0.22436662
85	0xbf1adda9	-0.60494477
86	0x3e750641	0.23928167
87	0x3e2de77e	0.16982839
88	0xbe694b92	-0.22782734
89	0xbcdc37fa	-0.02688216
90	0xbdcf9353	-0.10135522
91	0x3e8d9914	0.27655852
92	0x3d3ddf0a	0.046355285
93	0x3dc06f25	0.09396199
94	0xbe9d4b4f	-0.30721518
95	0xbe29c69f	-0.16579674
96	0xbcb3db91	-0.021955283
97	0xbe8bfcd2	-0.27341324
98	0x3de3d2c2	0.11124183
99	0x3e64c3da	0.22340336
100	0xbd0b88b6	-0.034065925
101	0xba3a9f4d	-0.00071190746
102	0xbd3d33c6	-0.046191953
103	0xbd829102	-0.06375314
104	0xbe306903	-0.17227559
105	0xbc0cf358	-0.00860294
106	0x3e8ee46b	0.27908644
107	0xbdbc79d4	-0.09202924
108	0xbc3c72f3	-0.011502015
109	0x3ea5d6f2	0.32390553
110	0xbd9e2cfd	-0.077234246
111	0xbd09712f	-0.033555206
112	0xbdc6dfe4	-0.097106725
113	0x3e80cd29	0.25156525
114	0x3e924d90	0.285748
115	0x3dda43f3	0.106574915
116	0xbe8fdb08	-0.28096795
117	0x3db2d16e	0.08731352
118	0xbd299386	-0.041400455
119	0x3e39da7b	0.1814975
120	0xbe3938f2	-0.18088129
121	0x3e0469d3	0.12930994
122	0xbd840c25	-0.06447629
123	0xbda40e4a	-0.08010538
124	0xbf031636	-0.51205766
125	0xba1cc6af	-0.0005980534
126	0x3e5805e1	0.21095993
127	0x3e81062a	0.25200015
128	0xbbf20144	-0.007385405
129	0xbc090918	-0.0083639845
130	0x3b9cd079	0.004785594
131	0x3aa7ab7c	0.0012792195
132	0xbc7abfe2	-0.0153045375
133	0x3c14e1cc	0.009087037
134	0xbbd1deaf	-0.00640472
135	0x3c75a8f7	0.014993898
136	0xbb38a50d	-0.002817455
137	0xbc31a2b1	-0.010842011
138	0xbc30e80e	-0.010797514
139	0xbc20af0e	-0.009807361
140	0x3c0d6236	0.008629372
141	0x3c11db88	0.008902438
142	0xbb8e810a	-0.0043488787
143	0x3b9c6f79	0.0047740308
144	0x3b1c8b67	0.0023886801
145	0x3be17a68	0.006881047
146	0xbbfbdec5	-0.0076864683
147	0xbc6e5366	-0.014546251
148	0x3ba883b6	0.0051426543
149	0xbc0f6e6a	-0.008754352
150	0x3a85ebf3	0.0010217413
151	0xbad77d75	-0.0016440587
152	0xbbcce764	-0.00625317
153	0x3be63856	0.0070257587
154	0xbc91fbbc	-0.017820232
155	0xbcb357a7	-0.021892382
156	0xbbf93c3e	-0.0076060584
157	0xbb810986	-0.003937903
158	0xbc686441	-0.014184059
159	0x3b99e67b	0.004696665
160	0xbb886ef6	-0.004163618
161	0x3a40ac54	0.00073498976
162	0xbcd24851	-0.025669249
163	0x3be8a930	0.007100247
164	0xbb819df2	-0.003955596
165	0x3bb10734	0.00540247
166	0xbcafdd51	-0.021467837
167	0xbc7d44f2	-0.015458332
168	0x39e3b710	0.00043433206
169	0xbb297a46	-0.0025860234
170	0xbb882d6d	-0.004155806
171	0xbb8777a0	-0.0041341335
172	0xbc7eaab0	-0.015543625
173	0x3b0fbce0	0.0021932647
174	0xbc1e91f4	-0.009678353
175	0xbbce4df6	-0.0062959148
176	0xb91e4657	-0.00015094258
177	0xbaf57e81	-0.0018729718
178	0x3a7ec984	0.0009719359
179	0xbc47f3ed	-0.0122041525
180	0xbb9be548	-0.004757557
181	0x3b6c777a	0.0036081956
182	0x3b719f5d	0.003686867
183	0x39125ccf	0.00013958219
184	0x3bff1aee	0.0077851927
185	0x3c3e3f14	0.011611719
186	0xbc4f7049	-0.012661048
187	0x3b933a31	0.004493021
188	0xbb314330	-0.0027048104
189	0xbbd078b8	-0.006362047
190	0xbc2badd5	-0.0104784565
191	0x3c456bc1	0.012049616
192	0xbb81434d	-0.0039447905
193	0xbbe6fe91	-0.0070493896
194	0xbc9d4106	-0.019196045
195	0xbb1527de	-0.0022759358
196	0xbc9dae0f	-0.019248037
197	0xbba421f5	-0.005008931
198	0xbc159ae5	-0.009131168
199	0xbbb0b724	-0.005392926
200	0xbc63a87c	-0.01389515
201	0xbbacb1a8	-0.0052702017
202	0x3bf4cf1d	0.007470979
203	0xbc3b2bdd	-0.011424032
204	0xbb8efa30	-0.004363321
205	0xbae048d3	-0.0017111547
206	0xbba8e4ee	-0.0051542437
207	0x3b0b85e3	0.002128952
208	0x3bedba9a	0.0072549107
209	0xbaf21dda	-0.0018472031
210	0x396fe2a0	0.0002287724
211	0xbbf4aeb1	-0.007467114
212	0xbc2c0c23	-0.0105009405
213	0x3b86d538	0.004114773
214	0x3bc0b929	0.005881448
215	0x3ba1b538	0.004934933
216	0x3b20ed5b	0.0024555537
217	0x3ac48b3c	0.0014995108
218	0xbbce7dd7	-0.0063016224
219	0xbbd57a80	-0.0065148473
220	0xbc080053	-0.008300859
221	0xbc8183a8	-0.015809849
222	0xbcb04012	-0.021514926
223	0xbcbab7ce	-0.022792723
224	0x3c38b1cd	0.01127286
225	0xbbf9e7c3	-0.007626505
226	0x3a5a25a0	0.00083216466
227	0xbc149921	-0.009069712
228	0x3b5f71ce	0.0034094932
229	0xbc544457	-0.012955747
230	0xbbe0ff25	-0.006866353
231	0xba221d20	-0.00061841495
232	0xbc3fc067	-0.011703587
233	0x3a4f9799	0.0007919013
234	0xbc9fdac8	-0.019513503
235	0x3c1006ba	0.008790666
236	0x3b7d5874	0.0038657458
237	0xbac63db0	-0.0015124585
238	0xba141096	-0.00056482235
239	0x38f8d5d0	0.00011865387
240	0x3b5fb895	0.003413712
241	0x3baf0385	0.0053409957
242	0xbc35decc	-0.011100482
243	0xbcba40b6	-0.022735935
244	0xbcafcbb6	-0.021459442
245	0x3c82077e	0.015872713
246	0xbaaa9e4e	-0.0013017149
247	0xbbc51552	-0.0060145045
248	0xbbabec12	-0.0052466476
249	0x3b9c7b9b	0.004775477
250	0x3b87273a	0.004124549
251	0xbc654a4e	-0.013994766
252	0xbc6959f9	-0.014242643
253	0x3b52f1aa	0.00321875
254	0xbc5e3c48	-0.013564177
255	0x3b062d10	0.0020473637

gnn_layers.1.W2.weight f4 [128, 128]
0	0xbcbeb80a	-0.023281116
1	0xbf283c68	-0.6571717
2	0x3e8fe745	0.28106132
3	0x3e57edb2	0.21086767
4	0xbe9b7fdf	-0.30370995
5	0x3e2e0d9a	0.16997376
6	0xbe64cabf	-0.22342966
7	0x3c66c1bd	0.014084277
8	0xbe5a4922	-0.2131696
9	0xbeaa21f7	-0.33229038
10	0xbe6202b4	-0.22071344
11	0xbe811244	-0.25209248
12	0xbedbf0ea	-0.4295724
13	0xbe0b8f47	-0.13628875
14	0x3b756888	0.0037446339
15	0xbe4aeaf4	-0.1981619
16	0xbd872a1d	-0.06599829
17	0x3cb6f4ce	0.022333529
18	0x3e847b08	0.25875115
19	0x3e8ba3a6	0.2727329
20	0x3cd3b783	0.025844341
21	0xbe9b6207	-0.30348226
22	0xbdd4e02e	-0.103943214
23	0x3e008564	0.12550884
24	0x3d9e94f5	0.07743255
25	0xbdac7745	-0.08421186
26	0xbe25f63e	-0.16207215
27	0x3e94b22f	0.29042193
28	0x3e026b6e	0.12736294
29	0x3d04f5bd	0.032460917
30	0x3d95fb89	0.07323367
31	0xbe09eccf	-0.13469242
32	0xbd7cb8f4	-0.061699823
33	0x3da374aa	0.07981236
34	0xbdaabb22	-0.08336474
35	0xbdc5fd90	-0.09667504
36	0x3e6de958	0.23233545
37	0x3bd1a78e	0.006398148
38	0x3e557c10	0.20848107
39	0xbdb33680	-0.087506294
40	0x3e85d921	0.2614222
41	0x3d1368fb	0.03598879
42	0x3e7e960a	0.24861923
43	0xbd31fcf0	-0.04345411
44	0x3e0f9d3a	0.14024821
45	0x3d9e3d8f	0.07726585
46	0x3ec51b09	0.3849719
47	0xbd87ace7	-0.066247754
48	0x3ea08b73	0.3135639
49	0xbe677acd	-0.22605439
50	0xbd965241	-0.073399074
51	0xbc82d76e	-0.015971866
52	0x3ee58328	0.44826627
53	0x3dd6df64	0.10491827
54	0x3e147908	0.14499295
55	0x3d85157b	0.06498238
56	0xbc8435ad	-0.016138876
57	0x3e9e32b0	0.30898046
58	0xbe6c90b0	-0.23102069
59	0xbe0cf10f	-0.13763832
60	0x3edb8789	0.42876843
61	0x3de2ae38	0.11068386
62	0xbe46362b	-0.19356601
63	0x3e622dde	0.2208781
64	0xb9f8d422	-0.00047460297
65	0x3d74653a	0.05966685
66	0xbf299140	-0.6623726
67	0xbd51425d	-0.05108868
68	0x3e9d8010	0.30761766
69	0xbe306588	-0.17226231
70	0x3d0c9035	0.034317214
71	0xbd98513f	-0.074373715
72	0xbd4011f4	-0.04689212
73	0x3e67e189	0.22644629
74	0x3e074f1a	0.13213769
75	0xbf06681f	-0.52502626
76	0x3d1a8794	0.037726954
77	0x3efec08e	0.49756283
78	0xbe062af5	-0.13102324
79	0x3f0375bb	0.5135152
80	0x3dc3f139	0.09567494
81	0x3ee459c7	0.44599745
82	0x3d0ef407	0.03490069
83	0x3d012f5c	0.031539306
84	0xbed65f8b	-0.41869769
85	0x3e8559f5	0.26045194
86	0x3bfcb7e0	0.0077123493
87	0xbd45057c	-0.048100933
88	0x3e1b5154	0.15167743
89	0xbf003232	-0.5007659
90	0x3da9a7e9	0.082839794
91	0x3ec1d135	0.37854925
92	0x3e6be855	0.23037846
93	0xba1f01e4	-0.00060656504
94	0x3e8a409a	0.27002412
95	0x3d91c173	0.07116976
96	0xbda68334	-0.08130494
97	0x3d8ce4f0	0.06879604
98	0x3e21812e	0.15771934
99	0xbe12a440	-0.14320469
100	0xbea76036	-0.3269059
101	0x3eaa2ae8	0.3323586
102	0x3c843d19	0.016142415
103	0x3cc72455	0.024309317
104	0x3e97dd30	0.2966094
105	0x3e11ee4c	0.1425106
106	0xbeb47173	-0.35242805
107	0x3c342e87	0.010997421
108	0xbdd7cede	-0.10537504
109	0x3d55e204	0.0522175
110	0x3cfca894	0.030842103
111	0x3dee289b	0.11628839
112	0xbd93019d	-0.07178042
113	0xbd560805	-0.05225374
114	0x3e1f85ba	0.15578356
115	0x3df99a96	0.12187688
116	0xbc27d5c1	-0.010243834
117	0x3edcb47c	0.4310645
118	0x3e46ea63	0.19425349
119	0xbe8bbba7	-0.27291605
120	0xbe0f3cc6	-0.13988027
121	0x3dc56b63	0.09639623
122	0x3ebb2de3	0.36558446
123	0x3dd23ebd	0.10265873
124	0xbf0dc8bd	-0.5538443
125	0xbe430114	-0.1904338
126	0xbdf95e8f	-0.12176239
127	0xbecab2f1	-0.39589646
128	0x3b93c7e8	0.0045099147
129	0xbc17fceb	-0.009276609
130	0xbc63b850	-0.013898924
131	0xbc6a13f7	-0.014286987
132	0x3b83fe1a	0.004028094
133	0xbaae978c	-0.0013320311
134	0x3c39408f	0.011306896
135	0xbbbef2b4	-0.0058272723
136	0xbc7a64c5	-0.015282814
137	0x3c12f588	0.008969672
138	0xbbbd5295	-0.005777667
139	0x3c08c772	0.008348333
140	0xbc6967b6	-0.014245918
141	0xbc3b5122	-0.011432918
142	0xbafbf725	-0.0019223435
143	0xbc8974fb	-0.016779413
144	0xbc808904	-0.015690334
145	0xbbb3035c	-0.005463047
146	0x3b859fd8	0.0040778928
147	0xbb408bb3	-0.0029380142
148	0xba411953	-0.00073661393
149	0x3c6f5fa0	0.014610201
150	0xbc46249a	-0.012093687
151	0x3b1fdfb2	0.0024394807
152	0x3c1bc250	0.009506777
153	0x3b735318	0.0037128385
154	0x3bf5da6a	0.0075028436
155	0x3c11c544	0.008897129
156	0xbb45664a	-0.0030120783
157	0xbb8223c7	-0.00397155
158	0x3c191974	0.009344447
159	0xbc8fee2c	-0.017569624
160	0xbbc74850	-0.0060816184
161	0xbbae1468	-0.005312491
162	0xbc8130a5	-0.015770266
163	0xbc6554de	-0.013997285
164	0xbbb48b3c	-0.005509762
165	0xbc41b01c	-0.011821773
166	0xbbf2cec6	-0.007409903
167	0x3b6da6ee	0.0036262828
168	0xbaead309	-0.0017915677
169	0xbb4c1034	-0.0031137588
170	0xbba2bd67	-0.004966426
171	0xbc716e97	-0.014735839
172	0x3b6798e8	0.0035338942
173	0x3bd952f6	0.006632204
174	0xbc578bb8	-0.01315587
175	0xbb9379b5	-0.0045005926
176	0xbc229b4e	-0.009924723
177	0xbc6d70e0	-0.0144922435
178	0xbbe366ca	-0.0069397436
179	0xbb21d276	-0.0024692095
180	0x3c1e5f99	0.009666347
181	0x3b33a0c5	0.0027409059
182	0x3a0775dc	0.0005167404
183	0xbb93bc95	-0.0045085647
184	0x3aaaad3a	0.0013021596
185	0x3c0cddb2	0.008597778
186	0xbcbe1a48	-0.023205891
187	0xbc5e436c	-0.013565879
188	0x3bbb40fb	0.0057145334
189	0x3aae3a9a	0.0013292611
190	0xbbefb4df	-0.0073152627
191	0x3c1b2124	0.009468351
192	0x3be2a623	0.0069167777
193	0x3b94ad2c	0.0045372453
194	0xbc4f55fd	-0.012654779
195	0xbabfd0eb	-0.0014634406
196	0xbc779b80	-0.015112758
197	0xbb83a345	-0.004017266
198	0xbbcb5214	-0.006204853
199	0x3b8dbffc	0.004325865
200	0xbac99ff6	-0.0015382755
201	0xbb50e162	-0.003187262
202	0x3bb34759	0.005471152
203	0xbc437ee2	-0.011932107
204	0x3c142494	0.009041924
205	0x3bf2a414	0.0074048135
206	0xbb063360	-0.00204774
207	0xbc9245ef	-0.017855613
208	0xbae45997	-0.0017421719
209	0x3c384920	0.011247903
210	0xbbe8dda7	-0.007106501
211	0x3ba3f5ac	0.0050036516
212	0xbc2ce56a	-0.010552743
213	0xbb1c87fe	-0.0023884769
214	0xbbd8f12b	-0.0066205463
215	0x3c34f5d6	0.01104494
216	0xbb27ea86	-0.0025621965
217	0x3b9a6d8c	0.004712766
218	0xbc211d0a	-0.009833584
219	0xbc1c84a5	-0.009553109
220	0x3a862448	0.0010234201
221	0x3bb7e553	0.0056120544
222	0x3beb2db9	0.0071770814
223	0xbb13505b	-0.0022478316
224	0xbc7a70d3	-0.015285688
225	0x3a1fa1dc	0.00060894876
226	0xbb568dfc	-0.0032738438
227	0xbba96624	-0.005169647
228	0xbbe5f361	-0.0070175384
229	0xbc85dda4	-0.016341038
230	0xbb7ef92d	-0.0038905845
231	0xbc1dd3cd	-0.009633017
232	0xbb95d815	-0.004572878
233	0x3bf7bc2e	0.0075602746
234	0xbab7c99f	-0.001402188
235	0x3c211b38	0.00983315
236	0xbbc01d7c	-0.00586289
237	0x39b5b6e8	0.00034659286
238	0xbc0b03ad	-0.008484763
239	0xbc53e7f0	-0.012933716
240	0xbb71a3db	-0.0036871347
241	0x39b0f537	0.00033752035
242	0x3bfa145f	0.007631823
243	0xbc166ae7	-0.009180761
244	0x3c566306	0.013085132
245	0x3beb1551	0.007174172
246	0xbc31fad2	-0.010863023
247	0xbad95d80	-0.0016583651
248	0x39c95c26	0.00038406363
249	0x3b9d382c	0.004797956
250	0xbc41bccc	-0.011824798
251	0xbc5798cd	-0.013158989
252	0xbbd6f4d0	-0.0065599456
253	0xbc6d6099	-0.014488363
254	0xbc913254	-0.017724194
255	0xbc5eccf3	-0.013598668
