aca_backend_api/models/tca/gnn_fold0.pt (torch, 764673 bytes, 12 tensors)

node_emb.0.weight f4 [77, 128]
-0.25834823 -0.26443195 -0.057500046 -0.09956193 0.19475384 0.15879484 -0.07251463 -0.4853793
0.07395196 -0.28989467 0.08031097 0.0707081 0.027499959 0.2840021 0.25626695 -0.056742527
-0.31039342 -0.38916576 0.13002816 0.18208566 0.13741563 -0.35684818 -0.07833181 0.42520922
0.17214495 -0.13435416 -0.039789606 0.042102672 0.3188181 0.36401477 0.21714649 -0.19359836
-0.14079759 0.007249572 -0.11305471 0.057003543 0.10089649 0.025794871 0.14704284 0.101232
-0.023477068 0.18184154 -0.06646988 0.0120488 0.119980596 0.5282867 -0.33706722 -0.36409616
-0.15445341 0.20028783 0.24217407 0.0408099 -0.052854996 -0.08989594 0.12466982 -0.09067671
-0.10239281 0.1707296 0.34901816 0.782602 -0.35136157 -0.28319764 0.41757062 -0.12656
-0.13062575 0.21110612 0.25489786 0.29598543 -0.33919612 0.58910275 -0.10856654 0.07699803
-0.3738791 -0.12615001 -0.11010738 -0.114661634 -0.24484076 0.25584662 -0.03228011 0.18489623
-0.021420704 0.15765817 -0.19236754 0.00020464648 0.19318976 -0.091795675 0.238526 0.08218488
-0.05644971 0.5283584 -0.43179023 -0.011410834 -0.23979156 -0.21948692 0.0076945256 0.16294211
0.37767678 -0.31211796 0.07906718 0.119294465 -0.59967774 -0.38929102 -0.052374624 0.064240694
0.056661956 0.017643305 0.07756238 0.10427154 0.1048543 -0.19857587 0.17928527 -0.21267025
-0.05021564 -0.5587749 -0.01673172 -0.007798898 0.22086799 0.080123454 -0.21144749 -0.012894946
-0.14289132 -0.10641013 0.44099176 -0.09237203 0.028431935 0.26728222 0.21188533 0.3183445
-0.46722248 0.119431466 -0.12356938 0.17638452 0.14005134 0.15072405 0.23698178 0.14193448
-0.13657372 0.09035096 -0.15258588 -0.6389559 0.10568537 -0.14528212 -0.2346431 -0.13368103
-0.22944488 -0.077238984 0.035049066 0.20931461 -0.042290144 0.28498495 -0.113392875 0.29890493
0.008194813 -0.35422423 -0.25775677 0.20206371 0.013006548 0.114187516 -0.15611029 0.09080578
0.019611908 -0.12695602 0.20518298 -0.30504975 -0.013303329 -0.23878698 0.16500823 -0.05041039
-0.040437236 -0.14378907 -0.28334635 0.22485279 -0.14947893 -0.42669702 -0.102216914 -0.20746341
0.09723752 -0.22117996 -0.31959662 -0.2206235 0.16944726 -0.10808338 0.41855556 0.27429336
-0.44293353 -0.20695476 0.27223733 -0.12643743 0.33135754 -0.4145108 -0.68631893 -0.29547617
0.07023123 0.2235887 0.27612397 0.06615802 -0.072872035 0.16572997 0.46126702 0.6787348
-0.26653174 -0.1627085 -0.010655533 0.23788136 0.45714545 -0.52535474 0.24488622 -0.06993933
0.35766286 0.0140807545 0.19233496 0.102452666 -0.4223959 0.5687652 -0.30458322 -0.15265916
0.31633103 0.24154334 -0.07640031 0.0029585024 0.20915648 0.31399933 -0.432917 -0.0448646
0.17460036 0.1568631 -0.033713374 0.3229601 -0.21317413 0.29383668 0.11237446 -0.47884506
-0.05085331 -0.07262718 0.25540796 0.31030974 -0.16504428 0.2231329 0.62247735 -0.42536485
-0.38506493 -0.56561863 0.023987304 -0.332354 0.3689203 -0.017849334 0.3033159 -0.25195915
0.10992683 0.6838382 0.27586275 -0.16686836 -0.14316906 -0.05176863 0.5666604 0.12407441
00000000: 3846 84be a063 87be 2b85 6bbd 20e7 cbbd
00000010: 8d6d 473e 1d9b 223e 8d82 94bd a383 f8be
00000020: 2074 973d 136d 94be 147a a43d 69cf 903d
00000030: 9847 e13c b968 913e 6c35 833e da6a 68bd
00000040: e3eb 9ebe bc40 c7be 1a26 053e aa74 3a3e
00000050: afb6 0c3e ceb4 b6be 6e6c a0bd 06b5 d93e
00000060: c446 303e 2394 09be 6dfa 22bd da73 2c3d
00000070: 203c a33e 2560 ba3e a65b 5e3e a63e 46be
00000080: 3e2d 10be d18d ed3b 3a89 e7bd 8c7c 693d
00000090: d2a2 ce3d c44f d33c 6692 163e b952 cf3d
000000a0: fb52 c0bc ab34 3a3e 5c21 88bd 5468 453c
000000b0: 63b8 f53d cc3d 073f 1394 acbe d06a babe
000000c0: 0929 1ebe 4118 4d3e 7bfc 773e 4828 273d
000000d0: 7b7e 58bd 5d1b b8bd e452 ff3d b6b4 b9bd
000000e0: 52b3 d1bd bed3 2e3e 82b2 b23e 9b58 483f
000000f0: aae5 b3be 48ff 90be d1cb d53e f298 01be
00000100: c2c2 05be 342c 583e f981 823e 678b 973e
00000110: 1dab adbe 70cf 163f 2258 debd 25b1 9d3d
00000120: 156d bfbe 782d 01be fa7f e1bd b8d3 eabd
00000130: 89b7 7abe 54fe 823e 2638 04bd 7055 3d3e
00000140: 797a afbc 2571 213e fffb 44be 5f96 5639
00000150: 89d3 453e 5fff bbbd 2940 743e 8c50 a83d
00000160: d037 67bd 7f42 073f 9c13 ddbe 82f4 3abc
00000170: eb8b 75be 2ec1 60be 5c22 fc3b 4cda 263e
00000180: da5e c13e edcd 9fbe f9ed a13d a850 f43d
00000190: 7b84 19bf 2751 c7be c686 56bd a090 833d
000001a0: 5e16 683d b188 903c 06d9 9e3d 518c d53d
000001b0: dabd d63d 7957 4bbe 8f96 373e 3bc6 59be
000001c0: eaae 4dbd df0b 0fbf f610 89bc e68d ffbb
000001d0: 382b 623e c417 a43d b185 58be 5345 53bc
000001e0: 1a52 12be 8eed d9bd acc9 e13e 8c2d bdbd
000001f0: 17ea e83c 37d9 883e 78f8 583e 0dfe a23e
00000200: c937 efbe 7c98 f43d f111 fdbd 259e 343e
00000210: 9e69 0f3e 6857 1a3e 5aab 723e 4657 113e
00000220: fbd9 0bbe ed09 b93d 793f 1cbe 9d92 23bf
00000230: 9271 d83d d6c4 14be 4846 70be aee3 08be
00000240: 99f3 6abe 792f 9ebd 9c8f 0f3d 9256 563e
00000250: 6e38 2dbd 8ce9 913e 863a e8bd 110a 993e
00000260: 8943 063c e15c b5be b2f8 83be cae9 4e3e
00000270: 6b19 553c 25db e93d 60db 1fbe 61f8 b93d
00000280: 27a9 a03c c200 02be 7d1b 523e 7b2f 9cbe
00000290: 35f6 59bc 9384 74be ebf7 283e 207b 4ebd
000002a0: 84a1 25bd 713d 13be c612 91be cf3f 663e
000002b0: 0111 19be 0878 dabe 1a57 d1bd 4a71 54be
000002c0: 7724 c73d 007d 62be 2ba2 a3be 20eb 61be
000002d0: 9583 2d3e d25a ddbd ea4c d63e 2e70 8c3e
000002e0: 2fc8 e2be f3eb 53be b162 8b3e d078 01be
000002f0: b2a7 a93e c23a d4be 99b2 2fbf a748 97be
00000300: 64d5 8f3d 70f4 643e 1f60 8d3e db7d 873d
00000310: ef3d 95bd 1eb5 293e 312b ec3e 90c1 2d3f
00000320: d976 88be 0f9d 26be 8b94 2ebc 2c97 733e
00000330: f80e ea3e a67d 06bf 74c3 7a3e 5a3c 8fbd
00000340: 961f b73e f7b2 663c 75f3 443e b4d2 d13d
00000350: 4744 d8be 999a 113f 55f2 9bbe af52 1cbe
00000360: 24f6 a13e 2357 773e c477 9cbd 6fe3 413b
00000370: 1e2d 563e 85c4 a03e 4ca7 ddbe f1c3 37bd
00000380: 70ca 323e b8a0 203e 0917 0abd 075b a53e
00000390: 524a 5abe c371 963e 9524 e63d 2e2b f5be
000003a0: 8f4b 50bd 8fbd 94bd d5c4 823e ebe0 9e3e
000003b0: 5e01 29be f37c 643e ad5a 1f3f 6cc9 d9be
000003c0: 3b27 c5be 62cc 10bf 0681 c43c 4e2a aabe
000003d0: 1fe3 bc3e c438 92bc 394c 9b3e ca00 81be
000003e0: 5121 e13d 0510 2f3f e23d 8d3e 8adf 2abe
000003f0: e99a 12be 580b 54bd a810 113f b91a fe3d

gnn_layers.0.W0.weight f4 [128, 128]
-0.17251374 -0.282798 -0.023312476 0.2982792 -0.21923189 -0.027909942 0.08115688 -0.29433593
0.24929264 -0.34461245 -0.15464829 -0.17409414 0.071775265 -0.19555408 -0.32136354 -0.38277975
-0.17071329 -0.31943208 0.012843573 0.047692295 0.033526484 0.48676848 -0.047077484 0.078276664
0.2590116 -0.12312242 -0.28131053 0.08965574 -0.24093506 0.18851596 0.043235388 -0.13564526
0.09792112 -0.057926964 0.25167868 0.008121023 0.07754688 0.048773896 0.013546203 -0.25309458
-0.32893386 -0.2802388 0.06635009 -0.13348445 -0.007695623 0.08874241 -0.35159642 -0.23891185
-0.09187485 -0.03812833 0.269896 -0.17721277 0.19632535 -0.019088427 -0.04338753 0.042328116
0.0925976 -0.191812 0.1746405 -0.017482 -0.34257105 0.038207524 0.20546554 0.17003144
0.024849743 0.2687355 0.35270143 -0.33349916 0.2001445 0.06788077 0.13092893 -0.43367156
-0.08762787 -0.058943063 0.0398194 -0.20828255 0.1681818 0.15286244 0.5559607 -0.11478237
0.31288326 -0.15773958 0.19814683 0.084851615 0.24159978 0.12490196 -0.05555661 -0.0978599
0.33324707 0.13199791 0.13596083 0.07524784 -0.039978955 0.30959696 -0.3074328 0.010533948
0.27994004 0.19277942 0.08892489 0.053552102 0.15976062 -0.027436862 0.15807346 -0.24877658
0.26347622 -0.041054375 0.057194598 0.053543217 -0.08097977 -0.02410673 -0.047963973 -0.25894743
-0.09028229 0.015890444 -0.25091502 -0.08235 -0.34259126 -0.010805938 0.80527824 -0.30619562
-0.08657952 0.29436058 0.20712218 -0.4035275 0.19006027 -0.37920982 0.03177155 0.02860325
-0.028163495 0.45444983 -0.19805187 0.48817593 -0.58948386 0.10893185 0.469114 -0.19931337
-0.18089971 0.013650028 -0.013484105 -0.49648994 -0.37299898 -0.36380383 0.34739485 0.03566009
0.36352396 0.015777312 0.09561248 -0.13939562 0.093119 -0.2458577 -0.06099213 0.1673872
-0.28017485 0.2960812 -0.25845835 0.114724204 -0.30291298 -0.13955653 0.056307483 -0.3195362
-0.28716972 0.13959321 -0.335916 -0.020185197 0.020601753 0.19206621 0.42360106 0.5676264
-0.15516853 0.29901844 -0.14380926 -0.5572488 -0.09863811 -0.33327466 0.355743 0.26230022
0.18286864 0.02624446 0.22425301 0.17924194 -0.018715803 0.19704115 0.24204628 -0.30697778
-0.23182443 0.07445602 -0.24658339 0.48654366 -0.08801224 -0.266949 -0.42421484 -0.097479805
-0.4305596 -0.39269266 0.23502648 -0.31283385 -0.36630562 -0.045274325 -0.28971812 -0.058673155
0.1809568 -0.1437128 -0.18879463 0.55542207 0.040248834 -0.14060766 0.33683187 0.26874033
0.21224697 -0.42501712 -0.25811622 -0.32821828 0.30741653 -0.41659853 0.016587202 -0.24873428
0.42318818 0.09423393 -0.21255466 0.11536081 -0.21015139 -0.0057764202 0.15113857 0.58498085
0.29470357 0.1660658 0.08975226 -0.6396724 -0.25392514 -0.10941623 -0.3607649 -0.17354578
0.22900902 -0.4343195 -0.31381926 0.041801926 0.14529906 0.044211473 0.27684584 -0.32294148
-0.1465127 -0.110005476 0.15473387 -0.12841024 -0.07167626 0.26917455 0.21509387 0.18518269
0.46678028 -0.4589086 0.3892665 0.23243953 0.32132468 0.021965595 -0.16895549 0.045267574
00000000: 71a7 30be e6ca 90be cef9 bebc 0db8 983e
00000010: 537e 60be 64a3 e4bc 9435 a63d 33b3 96be
00000020: 9246 7f3e 0b71 b0be 1f5c 1ebe bc45 32be
00000030: e9fe 923d 543f 48be c389 a4be b5fb c3be
00000040: 77cf 2ebe 9a8c a3be d96d 523c ff58 433d
00000050: 1153 093d b839 f93e 52d4 40bd 844f a03d
00000060: 2b9d 843e 9b27 fcbd ef07 90be 6e9d b73d
00000070: aeb7 76be 540a 413e 9717 313d 97e6 0abe
00000080: de8a c83d d344 6dbd 07dc 803e 0a0e 053c
00000090: e6d0 9e3d 23c7 473d e5f0 5d3c 9d95 81be
000000a0: 056a a8be 767b 8fbe 8ee2 873d 26b0 08be
000000b0: 912b fcbb 95be b53d 7204 b4be 4fa5 74be
000000c0: e228 bcbd 742c 1cbd cf2f 8a3e 4477 35be
000000d0: 8309 493e 555f 9cbc 1fb7 31bd 3f60 2d3d
000000e0: cfa3 bd3d 5d6a 44be f6d4 323e 6936 8fbc
000000f0: 7965 afbe 7e7f 1c3d 8f65 523e b91c 2e3e
00000100: b091 cb3c b397 893e 4895 b43e 67c0 aabe
00000110: aef2 4c3e 1305 8b3d 3c12 063e 330a debe
00000120: 3e76 b3bd 486e 71bd ab19 233d 0548 55be
00000130: da37 2c3e f987 1c3e 7153 0e3f 0513 ebbd
00000140: 3c32 a03e 7c86 21be 01e7 4a3e afc6 ad3d
00000150: ef65 773e 99cc ff3d 548f 63bd c56a c8bd
00000160: 5c9f aa3e 762a 073e 5139 0b3e 8a1b 9a3d
00000170: f9c0 23bd 7e83 9e3e d567 9dbe 9596 2c3c
00000180: 4d54 8f3e f867 453e 411e b63d 7359 5b3d
00000190: 4a98 233e 45c3 e0bc 02de 213e 4abf 7ebe
000001a0: 5be6 863e a228 28bd e244 6a3d 2250 5b3d
000001b0: b9d8 a5bd 7a7b c5bc df75 44bd c294 84be
000001c0: ece5 b8bd ad2c 823c ef77 80be 1ea7 a8bd
000001d0: 1f68 afbe 640b 31bc b726 4e3f acc5 9cbe
000001e0: 9a50 b1bd 6eb6 963e d617 543e 289b cebe
000001f0: 299f 423e ca27 c2be e322 023d 5d51 ea3c
00000200: 21b7 e6bc a6ad e83e 1cce 4abe 32f2 f93e
00000210: 6ae8 16bf a917 df3d b62f f03e ce18 4cbe
00000220: c63d 39be 5ea4 5f3c 6fec 5cbc ee33 febe
00000230: b9f9 bebe 7f44 babe bddd b13e 5110 123d
00000240: d01f ba3e 6c3f 813c 7ad0 c33d babd 0ebe
00000250: 2db5 be3d 1fc2 7bbe e2d2 79bd 8d67 2b3e
00000260: 1473 8fbe f497 973e a754 84be 86f4 ea3d
00000270: 6917 9bbe e8e7 0ebe ada2 663d 409a a3be
00000280: e907 93be 86f1 0e3e 2ffd abbe 6d5b a5bc
00000290: 02c5 a83c 01ad 443e 3de2 d83e f74f 113f
000002a0: 80e4 1ebe f218 993e bc42 13be dba7 0ebf
000002b0: c702 cabd faa2 aabe f223 b63e 374c 863e
000002c0: eb41 3b3e 9ffe d63c 95a2 653e 338b 373e
000002d0: e251 99bc 28c5 493e fbda 773e 312c 9dbe
000002e0: 6263 6dbe 667c 983d 5b80 7cbe 401c f93e
000002f0: c33f b4bd 8aad 88be b032 d9be 7ea3 c7bd
00000300: 4f72 dcbe 030f c9be c8aa 703e c22b a0be
00000310: 698c bbbe 9271 39bd ef55 94be 4353 70bd
00000320: bd4c 393e 7329 13be 6153 41be 2430 0e3f
00000330: f6db 243d 74fb 0fbe 3a75 ac3e 5598 893e
00000340: 4557 593e d89b d9be cf27 84be 3a0c a8be
00000350: b365 9d3e 674c d5be e2e1 873c 33b4 7ebe
00000360: 1fac d83e b8fd c03d eea7 59be 4a42 ec3d
00000370: ed31 57be 2048 bdbb 12c4 1a3e 4ec1 153f
00000380: 63e3 963e 270d 2a3e 08d0 b73d 92c1 23bf
00000390: 7a02 82be 9e15 e0bd 2db6 b8be fcb5 31be
000003a0: 5781 6a3e 205f debe ebac a0be 7f38 2b3d
000003b0: 47c9 143e 1717 353d bdbe 8d3e 9658 a5be
000003c0: 6d07 16be 8d4a e1bd 8e72 1e3e f97d 03be
000003d0: 01cb 92bd 3fd1 893e 9141 5c3e 88a0 3d3e
000003e0: d3fd ee3e 11f6 eabe f04d c73e a104 6e3e
000003f0: ab84 a43e 31f1 b33c ab02 2dbe 7e6a 393d

gnn_layers.0.W1.weight f4 [128, 128]
0.30621418 0.007936038 -0.0521295 0.46256942 0.086206585 0.043488618 -0.12020877 0.28302392
-0.25168434 -0.15384343 0.046444695 0.28678784 0.24540465 0.30383852 -0.15925135 -0.34653923
-0.3992508 -0.2061611 -0.024924945 -0.26157832 -0.106211305 -0.038945317 -0.03072739 -0.10171159
0.063439645 -0.17469153 -0.3363198 -0.016151676 -0.062271714 0.124838606 -0.27669325 0.2814917
-0.091596186 -0.1157775 -0.20675056 0.049878873 0.44362906 -0.43311566 0.073519096 -0.020295803
0.030841617 0.038021807 -0.28417373 0.10793738 -0.18630156 -0.39554083 0.118154384 -0.21033408
0.15508553 0.031041672 0.27723134 -0.08581366 -0.35271025 0.19532168 0.106641226 0.38268945
-0.028512266 -0.13729358 0.17545381 -0.13118918 0.26607874 -0.097399294 0.07621833 0.024410455
0.07758346 0.07627214 0.258699 -0.13087647 -0.081762746 0.17546892 -0.04690794 0.23377302
0.08557713 -0.49527636 -0.00082259625 0.10793137 -0.20991105 0.17066109 0.04641636 -0.2620246
-0.03445061 -0.021029448 0.30301416 -0.15022676 -0.14967865 0.262331 0.078835614 0.069575064
-0.24547383 -0.09287226 -0.55475014 0.29439703 0.3159456 0.03041329 0.506368 0.0014277124
-0.024587814 0.042048085 -0.04329513 -0.0037107568 -0.12166052 -0.06290812 0.40673938 -0.14016806
0.0025963767 0.11363591 -0.28799585 -0.20406371 0.024129149 -0.16739738 0.0063413274 0.054942
0.0059038065 0.11795112 -0.034193847 -0.57319766 -0.08478018 -0.3766648 -0.47530398 0.10010857
0.11270924 0.20867999 0.25525817 0.21202847 -0.58420694 -0.047670495 0.08980163 -0.20117065
-0.023093605 0.014058861 0.21964692 -0.1410105 0.23425275 0.060151763 -0.1342127 0.026710892
-0.008143885 0.24699938 0.15729314 -0.33792594 -0.115573235 0.023365526 -0.1001373 -0.08046013
0.15041661 0.11673823 0.1685261 -0.27695677 0.07405596 0.3263097 -0.15758607 0.31261447
0.20216379 -0.0033497151 -0.00538349 -0.11294141 -0.21930401 0.13971083 -0.20626669 -0.10560915
-0.08814524 -0.33262485 0.0026375996 -0.19247094 0.026555115 0.33907694 0.23308437 -0.012600068
-0.24171273 -0.371748 0.034949496 -0.22239402 -0.061401676 -0.10389148 0.008899071 -0.2162568
-0.08258852 -0.26452154 -0.15423466 -0.12215475 -0.054213013 -0.10760886 0.12730862 0.0042245938
-0.074756205 0.07556206 0.3267991 -0.24983907 -0.11693964 0.121476494 -0.0796697 -0.16140746
0.096326865 -0.35893473 0.24303561 -0.19487527 0.0053590294 -0.10318653 0.08126039 -0.2887198
-0.014206176 -0.106859654 0.24336769 0.2361794 -0.30618182 -0.25379515 -0.04230816 -0.06184605
0.30021977 -0.054103583 0.014023174 -0.14267786 0.0332373 0.06198857 0.046099752 0.12828603
0.20334412 0.32862383 0.10528187 -0.07498852 0.09629451 -0.0043836697 0.36514333 -0.19580011
0.12059294 -0.04271197 0.0853935 -0.062071722 -0.0033446955 0.13153705 -0.00055940775 -0.23924734
0.40104786 -0.018054755 0.22179876 0.14656626 0.026879715 -0.4628885 0.050591614 -0.056846034
-0.018456584 0.06924133 -0.05646228 0.0850462 -0.06410463 -0.36805296 0.15878616 -0.20884497
0.15533085 -0.008241788 0.070993684 0.33869368 0.089681014 0.10924461 -0.2064558 -0.030765856
00000000: 1bc8 9c3e 2806 023c be85 55bd e6d5 ec3e
00000010: 148d b03d 1f21 323d 0430 f6bd 83e8 903e
00000020: c5dc 80be 2289 1dbe cb3c 3e3d dbd5 923e
00000030: 5b4b 7b3e b990 9b3e c912 23be 976d b1be
00000040: 9a6a ccbe e51b 53be 662f ccbc 98ed 85be
00000050: 5085 d9bd 2085 1fbd 02b8 fbbc 2b4e d0bd
00000060: a5ec 813d 56e2 32be 1c32 acbe 8550 84bc
00000070: a010 7fbd 62ab ff3d bdaa 8dbe ae1f 903e
00000080: c896 bbbd c11c edbd 6bb6 53be ca4d 4c3d
00000090: 5923 e33e 56c1 ddbe 2e91 963d 6243 a6bc
000000a0: 8fa7 fc3c c1bc 1b3d 387f 91be 460e dd3d
000000b0: d6c5 3ebe 5484 cabe edfa f13d d161 57be
000000c0: bece 1e3e 1b4b fe3c 44f1 8d3e 12bf afbd
000000d0: 7096 b4be 6802 483e b766 da3d dfef c33e
000000e0: 8e92 e9bc b096 0cbe 2aaa 333e 7556 06be
000000f0: 793b 883e 4879 c7bd 5b18 9c3d 6ff8 c73c
00000100: 14e4 9e3d 9134 9c3d 3274 843e 7b04 06be
00000110: 3a73 a7bd 20ae 333e 8a22 40bd 3262 6f3e
00000120: 1043 af3d dd94 fdbe 80a3 57ba 1f0b dd3d
00000130: ecf2 56be c8c1 2e3e 151f 3e3d 1728 86be
00000140: 151c 0dbd f345 acbc ac24 9b3e 0bd5 19be
00000150: 5c45 19be 4050 863e 9174 a13d 5f7d 8e3d
00000160: 7e5d 7bbe d033 bebd 1b04 0ebf 35bb 963e
00000170: 9fc3 a13e 4b25 f93c 55a1 013f 1422 bb3a
00000180: 626c c9bc 9d3a 2c3d 3c56 31bd 2b30 73bb
00000190: 2729 f9bd f9d5 80bd 2540 d03e 3788 0fbe
000001a0: f927 2a3b f2b9 e83d 3174 93be 14f6 50be
000001b0: 7eaa c53c 386a 2bbe e9ca cf3b dd0a 613d
000001c0: b874 c13b 5b90 f13d d90e 0cbd 15bd 12bf
000001d0: 3ba1 adbd 35da c0be 0b5b f3be b905 cd3d
000001e0: 1ad4 e63d 35b0 553e 33b1 823e fe1d 593e
000001f0: 968e 15bf 2342 43bd ebe9 b73d aeff 4dbe
00000200: cd2e bdbc 2357 663c 1feb 603e 0e65 10be
00000210: f4df 6f3e b261 763d 0e6f 09be cdd0 da3c
00000220: ee6d 05bc 68ed 7c3e 7411 213e a104 adbe
00000230: a9b1 ecbd 0f69 bf3c c914 cdbd 48c8 a4bd
00000240: d006 1a3e 7414 ef3d 1b92 2c3e 47cd 8dbe
00000250: a7aa 973d 1112 a73e 3e5e 21be 010f a03e
00000260: 0604 4f3e e586 5bbb fd67 b0bb d34d e7bd
00000270: 3b91 60be 5b10 0f3e 9337 53be 9c49 d8bd
00000280: 7e85 b4bd ce4d aabe 94db 2c3b 1a17 45be
00000290: 1d8a d93c 7e9b ad3e abad 6e3e 8470 4ebc
000002a0: 8b83 77be c155 bebe 3427 0f3d 42bb 63be
000002b0: 5380 7bbd 0ec5 d4bd 69cd 113c 6c72 5dbe
000002c0: 2c24 a9bd 5e6f 87be b1ef 1dbe 452c fabd
000002d0: 770e 5ebd 0962 dcbd 315d 023e 766e 8a3b
000002e0: c819 99bd 48c0 9a3d 3652 a73e d0d5 7fbe
000002f0: 0d7e efbd abc8 f83d de29 a3bd ff47 25be
00000300: 0547 c53d 4bc6 b7be 54de 783e 628d 47be
00000310: cc9a af3b 7653 d3bd d96b a63d 15d3 93be
00000320: 05c1 68bc 3cd9 dabd 6135 793e 03d9 713e
00000330: ddc3 9cbe 70f1 81be 524b 2dbd 4952 7dbd
00000340: 68b6 993e b89b 5dbd 74c1 653c 251a 12be
00000350: d623 083d bae7 7d3d 18d3 3c3d 6a5d 033e
00000360: 7139 503e 6241 a83e 059e d73d 9593 99bd
00000370: 0e36 c53d e3a4 8fbb 11f4 ba3e d37f 48be
00000380: 6ef9 f63d bff2 2ebd cae2 ae3d eb3e 7ebd
00000390: ae32 5bbb a6b1 063e 38a5 12ba 41fd 74be
000003a0: 2556 cd3e 91e7 93bc 371f 633e 7715 163e
000003b0: d932 dc3c b9ff ecbe 2739 4f3d 63d7 68bd
000003c0: 4332 97bc 66ce 8d3d fe44 67bd b42c ae3d
000003d0: 4a49 83bd 7071 bcbe d798 223e 75db 55be
000003e0: 0d0f 1f3e 9008 07bc 2365 913d 4269 ad3e
000003f0: aeaa b73d a3bb df3d 2669 53be ad08 fcbc

gnn_layers.0.W2.weight f4 [128, 128]
0.40068418 -0.07070602 -0.18983956 0.047434215 -0.398789 -0.09524475 0.21081068 -0.029416185
-0.043125235 0.049335815 -0.30951124 0.29674554 -0.36182725 0.16651212 -0.11667122 0.33035034
0.117703184 0.24559884 -0.30194396 -0.007453925 -0.23154786 0.22975571 0.3403488 -0.093731165
-0.39538386 0.2638808 -0.056604963 0.09433481 0.31639206 -0.2285048 -0.14836363 -0.11231293
0.014688771 0.041154705 -0.17274709 -0.11175443 0.36918387 0.06429112 -0.37816802 -0.13525715
-0.050209966 0.110096715 0.09460313 0.00522077 -0.2771866 0.14486773 0.3259248 -0.08284743
-0.05904154 0.08117901 -0.025371915 0.114872694 -0.12664136 -0.020585245 -0.131998 -0.21798216
-0.03587055 0.09472839 -0.13816199 0.17545679 0.17486681 0.1430459 -0.14507008 -0.2620238
-0.10393358 0.18963674 -0.34954667 0.07100447 -0.3090561 0.12861475 0.12173197 -0.027197324
-0.03650447 -0.1752765 -0.26697165 -0.013672342 0.04641792 -0.0059701735 0.069310345 -0.14421141
0.14009747 0.01720145 -0.45263734 0.07541643 0.035872806 0.080655806 0.06799059 0.65426534
0.08279032 -0.1916002 -0.09257386 -0.054591786 0.14221744 0.20149963 0.10441085 0.26248366
0.14034086 0.14617895 -0.23217177 -0.19812016 0.37236306 -0.21381176 0.20559669 -0.07792752
-0.103837304 0.100648895 -0.16857386 -0.02599917 0.22956981 -0.00087358896 -0.17256841 -0.014887705
-0.030775959 0.056807213 -0.1764443 0.029124465 0.2201322 0.10028875 0.026370704 -0.18294501
0.13364252 0.00068632123 -0.03482614 0.22477452 0.30458668 0.080805086 0.021307701 0.068368495
-0.050780825 -0.0031208931 0.6051442 -0.13504839 0.013373777 -0.1689852 -0.048394676 -0.06817151
0.24236622 -0.11681163 -0.23943454 0.19701184 0.06062336 0.053410586 -0.2959094 0.31349918
0.03372669 0.10497426 -0.28727955 0.16893348 0.23993349 -0.03585311 -0.03974174 -0.083767146
0.09961634 0.004606959 0.058025327 0.127347 -0.38821664 0.25152922 0.050393615 -0.020690156
0.10299439 -0.22831759 0.26226032 -0.04411138 -0.1406727 0.018416217 0.10738866 0.19429798
-0.19970897 -0.10166406 0.0026018599 -0.20207895 0.008708395 -0.0983026 0.109913066 -0.087277815
0.011135882 -0.05582546 0.041850973 -0.07933594 0.04939591 -0.11857062 0.16814588 0.19714446
0.022772636 -0.16667084 0.15472992 -0.017211089 0.24815185 0.17338987 -0.011017763 0.06985142
0.020724844 0.0475452 0.16899002 0.03299987 0.26092985 -0.19978596 -0.13673596 0.0044658114
-0.09845817 0.14670403 -0.12473581 -0.11993373 -0.20345001 0.07157001 -0.048248112 0.13031271
0.06283662 0.0242004 0.1466323 0.0075168987 0.10702182 0.015030881 0.116503514 -0.117810875
-0.15160532 0.18810108 0.27299106 -0.32211417 0.05738989 -0.113745004 0.049318384 -0.018497728
-0.18685772 -0.099496976 0.049864784 -0.12305067 -0.12848777 0.17656562 0.14612333 0.11228983
0.017038248 0.18473758 -0.23679164 -0.19538282 0.18354183 0.00047971858 0.053450726 0.05516409
-0.07466172 -0.3689431 -0.05850126 -0.012968476 0.057778057 -0.012181236 -0.075651206 0.23758657
-0.09648544 -0.16072117 0.1537831 -0.15231484 0.019633094 -0.01808993 0.27057612 0.21719576
00000000: 7a26 cd3e 51ce 90bd 4d65 42be 614a 423d
00000010: 122e ccbe ae0f c3bd c1de 573e 36fa f0bc
00000020: 16a4 30bd 5a14 4a3d 4278 9ebe 08ef 973e
00000030: 6c41 b9be 2782 2a3e 52f1 eebd ae23 a93e
00000040: 5e0e f13d 437e 7b3e 6698 9abe 0e40 f4bb
00000050: e21a 6dbe 1545 6b3e 3342 ae3e 20f6 bfbd
00000060: c16f cabe 621b 873e 9bda 67bd 9c32 c13d
00000070: 24fe a13e 2afd 69be a3ec 17be 5204 e6bd
00000080: 2ca9 703c d691 283d 9de4 30be 82df e4bd
00000090: ab05 bd3e 10ab 833d 3d9f c1be da80 0abe
000000a0: f7a8 4dbd 637a e13d 49bf c13d fe12 ab3b
000000b0: 67eb 8dbe 3558 143e 9edf a63e eaab a9bd
000000c0: 8bd5 71bd 2e41 a63d c3d8 cfbc 6042 eb3d
000000d0: 46ae 01be 63a2 a8bc 7c2a 07be b736 5fbe
000000e0: ffec 12bd f500 c23d 567a 0dbe f2aa 333e
000000f0: 4910 333e a07a 123e 408d 14be fc27 86be
00000100: 21db d4bd 2230 423e c8f7 b2be cb6a 913d
00000110: 9a3c 9ebe 96b3 033e 9c4e f93d eccc debc
00000120: b685 15bd af7b 33be 82b0 88be f501 60bc
00000130: b820 3e3d 72a1 c3bb 95f2 8d3d 28ac 13be
00000140: b675 0f3e 0eea 8c3c 15c0 e7be ee73 9a3d
00000150: 5def 123d df2e a53d a73e 8b3d ef7d 273f
00000160: f98d a93d d832 44be 5d97 bdbd a39b 5fbd
00000170: 73a1 113e eb55 4e3e 5bd5 d53d 4264 863e
00000180: 84b5 0f3e efaf 153e 70be 6dbe 03e0 4abe
00000190: 5fa6 be3e 78f1 5abe f087 523e 7798 9fbd
000001a0: a7a8 d4bd 0221 ce3d a09e 2cbe 36fc d4bc
000001b0: 5914 6b3e 9001 65ba c6b5 30be 90eb 73bc
000001c0: dd1d fcbc aeae 683d d1ad 34be 6e96 ee3c
000001d0: 566a 613e 3064 cd3d 6007 d83c f055 3bbe
000001e0: 96d9 083e 3dea 333a dba5 0ebd 4b2b 663e
000001f0: c9f2 9b3e 237d a53d 7d8d ae3c c804 8c3d
00000200: 8eff 4fbd e687 4cbb bbea 1a3f 204a 0abe
00000210: b01d 5b3c 750a 2dbe 7f39 46bd 819d 8bbd
00000220: da2e 783e f03a efbd 542e 75be 79bd 493e
00000230: 3350 783d 0fc5 5a3d 7081 97be f782 a03e
00000240: ff24 0a3d bffc d63d 4e16 93be e6fc 2c3e
00000250: 20b1 753e b6da 12bd 3cc8 22bd 1c8e abbd
00000260: a703 cc3d f9f5 963b f7ab 6d3d 4167 023e
00000270: 55c4 c6be 70c8 803e 8969 4e3d 677e a9bc
00000280: b9ee d23d 16cc 69be fc46 863e 22ae 34bd
00000290: 810c 10be 9bdd 963c 96ee db3d 0df6 463e
000002a0: 8280 4cbe 3f35 d0bd f783 2a3b c9ed 4ebe
000002b0: a8ad 0e3c e052 c9bd 1a1a e13d b6be b2bd
000002c0: 4673 363c 3da9 64bd ed6b 2b3d e27a a2bd
000002d0: 5e53 4a3d 27d5 f2bd 6f2e 2c3e 3de0 493e
000002e0: ae8d ba3c c3ab 2abe 8571 1e3e 45fe 8cbc
000002f0: 851b 7e3e 1d8d 313e d983 34bc 430e 8f3d
00000300: 26c7 a93c c1be 423d b80b 2d3e df2a 073d
00000310: 9998 853e b194 4cbe 8304 0cbe f155 923b
00000320: 70a4 c9bd 9539 163e 7d75 ffbd d19f f5bd
00000330: 3355 50be 4c93 923d d09f 45bd b270 053e
00000340: 7cb0 803d eb3f c63c c726 163e 5150 f63b
00000350: 422e db3d 1644 763c 6599 ee3d d446 f1bd
00000360: 6d3e 1bbe 929d 403e 7cc5 8b3e 26ec a4be
00000370: a911 6b3d 24f3 e8bd 1302 4a3d 8c88 97bc
00000380: a157 3fbe 12c5 cbbd 043f 4c3d fd01 fcbd
00000390: 4c92 03be 9ecd 343e 5ba1 153e 36f8 e53d
000003a0: cc93 8b3c d92b 3d3e 8279 72be 6f12 48be
000003b0: 64f2 3b3e bd82 fb39 26ef 5a3d bef3 613d
000003c0: 3ee8 98bd 1ce6 bcbe 049f 6fbd bb79 54bc
000003d0: afa8 6c3d cf93 47bc 05ef 9abd e549 733e
000003e0: 299a c5bd 1794 24be 5179 1d3e 6cf8 1bbe
000003f0: 95d5 a03c 5531 94bc f488 8a3e 9168 5e3e

gnn_layers.1.W0.weight f4 [128, 128]
-0.0035966297 -0.035474095 -0.006130812 -0.057395186 0.0006581525 -0.034065034 -0.06565907 -0.012693268
-0.026759254 0.023858191 0.008471653 -0.0010769415 -0.05535824 -0.028520096 -0.017821029 -0.048108768
-0.0048767296 -0.043921042 -0.008890116 0.004444495 0.00240061 0.012365795 -0.0197627 -0.004598905
-0.03767177 -0.017737685 0.022639722 -0.017761823 -0.0047734166 -0.024161208 -0.021831295 -0.02533095
-0.02413417 -0.0029066575 -0.031927682 0.00064520957 -0.0133811375 -0.038981788 -0.025710791 -0.015696544
0.010317583 -0.008839383 0.027323522 -0.028303158 -0.014448982 0.010566667 -0.04097714 -0.04139037
-0.05301825 -0.007798681 0.0014299983 0.011952411 0.03701489 -0.02529508 -0.008698652 -0.024924219
-0.023715818 -0.016500743 -0.009047639 -0.01655716 -0.030070074 -0.04013041 -0.029843887 -0.021765208
-0.006988563 0.00154975 -0.010277813 -0.010042545 -0.020370854 -0.0123458635 -0.0012387572 -0.03071581
0.0015927528 -0.01896297 -0.003361238 -0.03550967 0.0052934093 -0.016391125 -0.01850348 -0.017700305
-0.01519128 -0.026568227 -0.015778571 -0.017378874 -0.0045281854 -0.012685114 -0.0059154476 -0.0279604
0.016801573 -0.009887372 -0.011439791 -0.019946683 -0.05125927 -0.024900123 -0.009919383 -0.02143541
-0.013283154 -0.0042114197 -0.044698138 0.024960795 -0.0027293959 -0.007359929 -0.012962312 -0.013590481
-0.01490499 -0.04381923 -0.021983089 -0.014958857 -0.057405036 -0.01518286 0.0064192633 -0.011152731
-0.031827785 -0.002595419 -0.05155254 -0.04146375 -0.01698899 -0.038812388 -0.0040730606 -0.05180691
-0.002117695 -0.0016912535 -0.0052101524 -0.011841378 -0.011409251 -0.016196426 0.018243777 -0.01404423
-0.016333008 -0.032273915 -0.029590447 -0.011319752 -0.010512846 0.006559887 -0.027648646 -0.029844515
-0.008003519 -0.00083310355 -0.01091894 -0.02280872 0.0015341631 -0.03029081 -0.030124033 -0.021778265
-0.039329484 0.026900137 -0.018284103 0.0023159487 -0.012756113 -0.012543184 -0.012058558 -0.029766511
-0.025045982 -0.023630898 0.0061863624 -0.035522673 -0.018616963 -0.015341782 -0.015990393 -0.0010827048
0.017505756 0.0035456822 -0.041536137 -0.009564329 -0.014088068 -0.027753204 0.0040065083 0.013275249
0.0073698163 -0.013685401 -0.028793946 -0.029204456 -0.018366009 -0.020841928 -0.030449273 -0.018786278
-0.025177646 0.0010607963 -0.008363936 -0.034797896 -0.0098221125 0.00890737 -0.008923579 -0.013273983
0.012858342 -0.03475335 0.0076951506 -0.014680649 -0.015907671 -0.018181399 -0.0047847307 0.001221307
0.008411306 -0.039655775 -0.016818633 0.012856261 -0.019008216 0.0030842163 -0.0026971488 -0.05863521
-0.004814307 -0.02209174 -0.03686156 -0.050833236 -0.039291624 -0.022746414 -0.025528999 -0.0043188175
-0.03589706 -0.0139665585 -0.009697574 -0.05232097 -0.021484053 -0.006073431 -0.012754803 -0.03304758
-0.021022713 -0.03891108 -0.03197826 -0.03856022 0.0011402837 -0.024987778 0.010349764 -0.036921218
-0.029456452 0.020611178 -0.033858407 0.004993102 -0.024508808 -0.024415374 -0.017386388 0.007541703
0.020186245 -0.0208817 -0.03905909 -0.052977823 -0.0033307862 0.0034735773 -0.003886962 -0.035754394
-0.017262375 -0.007071529 -0.015556523 -0.042661402 -0.027140336 0.015527403 -0.029088218 -0.043617927
-0.019689828 -0.03003586 -0.028493628 -0.028216613 -0.03048926 -0.016692843 -0.034092933 0.0007909918
00000000: 6fb5 6bbb 494d 11bd fbe4 c8bb 3717 6bbd
00000010: de87 2c3a c787 0bbd 4378 86bd 6df7 4fbc
00000020: 3936 dbbc 4172 c33c b0cc 0a3c 2928 8dba
00000030: 52bf 62bd faa2 e9bc 68fd 91bc b30d 45bd
00000040: f9cc 9fbb 8de6 33bd d9a7 11bc 20a3 913b
00000050: 8d53 1d3b e799 4a3c 63e5 a1bc 69b2 96bb
00000060: b74d 1abd 9f4e 91bc f076 b93c 3e81 91bc
00000070: 526a 9cbb baed c5bc 8bd7 b2bc da82 cfbc
00000080: 06b5 c5bc 9f7d 3ebb 9ac6 02bd 4823 293a
00000090: 8f3c 5bbc 5eab 1fbd 709f d2bc 0a96 80bc
000000a0: 140b 293c 0fd3 10bc 94d5 df3c 06dc e7bc
000000b0: 6cbb 6cbc d01f 2d3c a5d7 27bd f388 29bd
000000c0: aa29 59bd 148c ffbb c86e bb3a 0cd4 433c
000000d0: ed9c 173d a137 cfbc ca84 0ebc e02d ccbc
000000e0: ad47 c2bc 912c 87bc 8c3c 14bc e2a2 87bc
000000f0: 8455 f6bc c95f 24bd 2b7b f4bc f34c b2bc
00000100: 5100 e5bb fb20 cb3a 4664 28bc 7d89 24bc
00000110: c7e0 a6bc 4e46 4abc cb5d a2ba b99f fbbc
00000120: eac3 d03a 3b58 9bbc 3748 5cbb 9672 11bd
00000130: 5674 ad3b ae46 86bc 9c94 97bc 3b00 91bc
00000140: d9e4 78bc 9ca5 d9bc 1042 81bc 245e 8ebc
00000150: 2c61 94bb 39d5 4fbc 5fd6 c1bb 350d e5bc
00000160: 74a3 893c a5fe 21bc f66d 3bbc 3a67 a3bc
00000170: 3ef5 51bd 58fb cbbc e884 22bc 5099 afbc
00000180: 96a1 59bc f3ff 89bb 6515 37bd 957a cc3c
00000190: aadf 32bb 8f2b f1bb e15f 54bc 9caa 5ebc
000001a0: 0f34 74bc cb7b 33bd e115 b4bc fe15 75bc
000001b0: 8b21 6bbd 88c1 78bc af58 d23b f2b9 36bc
000001c0: da5d 02bd e817 2abb c228 53bd e5d5 29bd
000001d0: 7f2c 8bbc bdf9 1ebd 4f77 85bb 7c33 54bd
000001e0: 07c9 0abb 0dad ddba edb9 aabb 5702 42bc
000001f0: deed 3abc 5eae 84bc f973 953c c519 66bc
00000200: cdcc 85bc a731 04bd aa67 f2bc 7b76 39bc
00000210: 123e 2cbc 52f4 d63b 6a7f e2bc 7c7c f4bc
00000220: 3121 03bc a264 5aba 5be5 32bc 5ad9 babc
00000230: f915 c93a 6f24 f8bc adc6 f6bc 5568 b2bc
00000240: f417 21bd ad5d dc3c 8bc8 95bc 2cc7 173b
00000250: 04ff 50bc ed81 4dbc 4291 45bc e6d8 f3bc
00000260: 3b2d cdbc 9695 c1bc f8b6 ca3b 3980 11bd
00000270: 9a82 98bc 195c 7bbc 49fe 82bc 8be9 8dba
00000280: 3b68 8f3c ad5e 683b cc21 2abd b4b3 1cbc
00000290: a4d1 66bc b05a e3bc 0749 833b 6e80 593c
000002a0: 807e f13b bb38 60bc 48e1 ebbc 2f3e efbc
000002b0: 5074 96bc b1bc aabc c170 f9bc aee5 99bc
000002c0: 5a41 cebc 6b0a 8b3a e408 09bc 3d88 0ebd
000002d0: edec 20bc 38f0 113c 3434 12bc 1f7b 59bc
000002e0: ccab 523c 8759 0ebd 9a27 fc3b 1b87 70bc
000002f0: ce50 82bc 28f1 94bc 3bc9 9cbb 4314 a03a
00000300: 93cf 093c 186e 22bd 3bc7 89bc 11a3 523c
00000310: 1eb7 9bbc 9020 4a3b a6c2 30bb 792b 70bd
00000320: 56c1 9dbb bdf9 b4bc 26fc 16bd 8336 50bd
00000330: 41f0 20bd b056 babc 3122 d1bc de84 8dbb
00000340: cc08 13bd fed3 64bc 93e2 1ebc 834e 56bd
00000350: 53ff afbc a203 c7bb 85f9 50bc e65c 07bd
00000360: d337 acbc 3a61 1fbd a3fb 02bd 52f1 1dbd
00000370: 9275 953a 2bb3 ccbc 0e92 293c b43a 17bd
00000380: a84e f1bc c6d8 a83c 1daf 0abd 2d9d a33b
00000390: b2c6 c8bc c002 c8bc e66d 8ebc 6420 f73b
000003a0: a05d a53c 1910 abbc 6dfc 1fbd 46ff 58bd
000003b0: 5249 5abb f5a4 633b 67bc 7ebb 3373 12bd
000003c0: d369 8dbc 49b8 e7bb c9e0 7ebc b9bd 2ebd
000003d0: 6955 debc a666 7e3c 6a4a eebc b6a8 32bd
000003e0: 904c a1bc c40d f6bc 786b e9bc 8726 e7bc
000003f0: 9dc4 f9bc 6ebf 88bc 08a5 0bbd 905a 4f3a

gnn_layers.1.W1.weight f4 [128, 128]
-0.013984806 0.0118154045 -0.025200406 -0.010625642 -0.01195344 0.027751548 -0.023904663 -0.028645646
-0.012297131 -0.024784843 -0.011339678 -0.011288342 -0.02056132 0.013526576 0.0037383013 0.004042512
0.015881252 -0.022453336 -0.0087014 -0.0052038725 0.008674197 -0.014028279 -0.023965405 -0.015133875
-0.04495783 -0.013608558 -0.01728062 -0.0084606875 0.007718538 -0.007811227 0.0034581395 -0.022351207
-0.021683557 -0.008644501 -0.013512983 -0.06545683 -0.051121067 0.017024802 -0.024857942 -0.0439835
-0.011470133 -0.023280146 0.019132303 -0.015662668 -0.0020114656 0.0028784124 -0.0062784515 -0.057427537
-0.016308084 -0.009892065 0.004667248 0.0023357596 0.00913506 -0.002769889 -0.006385267 -0.028834984
-0.03234301 0.007736398 -0.0011190115 0.003932534 -0.030534053 -0.013054428 0.009977871 -0.008443499
0.017292 0.022969311 -0.016519895 -0.015605789 0.0060900664 -0.029986233 -0.016720738 0.007029899
0.011563564 -0.0069311988 -0.028336924 -0.033280965 -0.016324757 -0.048643112 -0.04457227 0.00015044902
-0.0053869444 -0.006386671 0.00979656 0.021643307 -0.03309801 -0.011499633 -0.0047150603 -0.017872704
-0.015171954 0.0035524843 -0.025345929 -0.0152624445 -0.0009846793 -1.573381e-05 0.031540405 -0.004275832
0.01883644 -0.018762754 -0.014308533 -0.004852337 -0.024878792 0.038998205 -0.0069848346 -0.0016868657
-0.00568214 0.008930245 0.0009928319 -0.026655668 0.027599445 -0.01663459 -0.002312012 0.020688005
0.0008345851 0.02543701 -0.00041133954 0.006310883 -0.0016747883 -0.020283481 0.023998791 -0.033971712
-0.026084144 0.011716156 0.014555747 -0.0015459802 -0.026215492 -0.028565971 -0.013330863 -0.008167758
-0.0005178217 -0.019394677 -0.009425068 -0.017968023 -0.033891395 0.017086688 -0.008711502 0.025299478
-0.02019595 -0.02626305 -0.019087244 -0.0077609657 0.0022378124 -0.021466503 -0.026655765 -0.01049162
0.014251167 -0.010109169 -0.023062076 -0.05047652 0.011750354 -0.022022163 -0.009931312 -0.017561385
-0.005729161 0.010573968 -0.04371361 -0.045543976 -0.013803532 -0.04341487 -0.030585455 0.01745016
-0.007113803 -0.0012755138 -0.05069539 -0.007052036 -0.00087841816 0.0029541047 -0.035830345 -0.029598957
-0.015030386 -0.02078048 -0.017351726 0.0022677132 -0.057138897 -0.0065239137 -0.015111659 -0.028816046
0.008455724 -0.001788129 -0.009527859 -0.06112394 -0.030884672 -0.004206147 -0.0015372407 -0.019033952
-0.028310165 0.010134181 -0.031990457 -0.014741991 -0.031107064 -0.019659707 -0.014331844 0.0071324822
-0.0152816195 -0.021289831 -0.05305465 -0.027622439 -0.03908801 -0.013396323 -0.018223027 -0.010903326
-0.027224662 -0.022506103 0.018132616 -0.019524043 -0.013979987 0.009757322 0.0057155928 -0.0042519984
-0.034774475 -0.008570605 0.013673302 -0.001489338 -0.046340536 0.008300137 -0.0067580133 -0.026083494
-0.0112386625 -0.016256468 0.006024352 -0.023311418 -0.015197149 -0.0012550199 -0.02367116 -0.055684067
-0.023147084 0.0077124136 -0.006827765 -0.024962641 0.013978451 -0.033728957 -0.028536044 0.008254673
-0.028548995 -0.031081554 -0.029813645 0.022169214 -0.029000578 -0.003429951 -0.0027892033 -0.0259805
-0.0073500853 -0.018007748 -0.051795308 -0.045871485 -0.014136792 0.008360658 0.017272972 -0.03321226
-0.017435687 0.021453988 -0.008361821 -0.049149465 -0.039657813 -0.031995106 -0.027002519 -0.0020878506
00000000: 8720 65bc 6695 413c 1571 cebc 2c17 2ebc
00000010: 5cd8 43bc 3757 e33c b6d3 c3bc 46aa eabc
00000020: e879 49bc 9509 cbbc 0fca 39bc bdf2 38bc
00000030: 3770 a8bc 929e 5d3c 4afe 743b 0c77 843b
00000040: 6619 823c 0ff0 b7bc 5190 0ebc 3f85 aabb
00000050: 381e 0e3c ded6 65bc 1953 c4bc 13f4 77bc
00000060: b425 38bd 6ef6 5ebc 1690 8dbc b29e 0abc
00000070: caeb fc3b 52f5 ffbb f4a1 623b e119 b7bc
00000080: b7a1 b1bc aaa1 0dbc 8f65 5dbc 3b0e 86bd
00000090: 5364 51bd 9977 8b3c e2a2 cbbc 0b28 34bd
000000a0: 3aed 3bbc 01b6 bebc 59bb 9c3c ff4e 80bc
000000b0: cbd2 03bb bfa3 3c3b 78bb cdbb 2339 6bbd
000000c0: 8898 85bc 5412 22bc b7ef 983b 8b13 193b
000000d0: 38ab 153c 0787 35bb 803b d1bb 5837 ecbc
000000e0: 1b7a 04bd 9c81 fd3b ccab 92ba 7cdc 803b
000000f0: 8d22 fabc 3de2 55bc 397a 233c 9a56 0abc
00000100: f4a7 8d3c 232a bc3c bb54 87bc 6caf 7fbc
00000110: 2e8f c73b b0a5 f5bc eef9 88bc 115b e63b
00000120: 1a75 3d3c 1c1f e3bb d622 e8bc 9f51 08bd
00000130: 7fbb 85bc 003e 47bd 6a91 36bd dac1 1d39
00000140: f784 b0bb 4847 d1bb c081 203c 4e4d b13c
00000150: c791 07bd f568 3cbc cb80 9abb c769 92bc
00000160: ca93 78bc ccd0 683b 44a2 cfbc 550f 7abc
00000170: 5b10 81ba 1afc 83b7 8330 013d 471c 8cbb
00000180: e14e 9a3c 59b4 99bc 566e 6abc 5a00 9fbb
00000190: 9cce cbbc 95bc 1f3d 0ae1 e4bb d219 ddba
000001a0: 3f31 babb 2a50 123c e921 823a fd5c dabc
000001b0: 3b18 e23c 4445 88bc 2085 17bb e479 a93c
000001c0: 0fc8 5a3a 4761 d03c 0fa9 d7b9 86cb ce3b
000001d0: 9284 dbba 8b29 a6bc 1d99 c43c ec25 0bbd
000001e0: 6aae d5bc 1ff5 3f3c 3a7b 6e3c 7da2 caba
000001f0: dfc1 d6bc 2f03 eabc b169 5abc 0fd2 05bc
00000200: 6dbe 07ba 96e1 9ebc 9a6b 1abc ad31 93bc
00000210: b4d1 0abd 62f9 8b3c b0ba 0ebc da40 cf3c
00000220: fa71 a5bc 9c25 d7bc da5c 9cbc b34f febb
00000230: 43a8 123b 85da afbc 315d dabc 0be5 2bbc
00000240: ba7d 693c eea0 25bc aeec bcbc 78c0 4ebd
00000250: 8f84 403c d367 b4bc f1b6 22bc e5dc 8fbc
00000260: b0bb bbbb 703e 2d3c 0b0d 33bd 528c 3abd
00000270: 3628 62bc cad3 31bd 598e fabc a3f3 8e3c
00000280: e81a e9bb 242f a7ba f8a5 4fbd c414 e7bb
00000290: a545 66ba a799 413b d7c2 12bd 8379 f2bc
000002a0: 0242 76bc d33b aabc 3525 8ebc ea9d 143b
000002b0: 7a0a 6abd 8ec6 d5bb e496 77bc a10f ecbc
000002c0: e189 0a3c a75f eaba bd1a 1cbc 195d 7abd
000002d0: da01 fdbc b8d3 89bb 3d7d c9ba 17ed 9bbc
000002e0: b8ea e7bc d609 263c 6d08 03bd 6488 71bc
000002f0: 3ed4 febc 650d a1bc 1cd0 6abc 99b7 e93b
00000300: c25f 7abc 0368 aebc d54f 59bd 7448 e2bc
00000310: c01a 20bd 407c 5bbc 7548 95bc dda3 32bc
00000320: 4106 dfbc b85e b8bc da8a 943c e3f0 9fbc
00000330: 510c 65bc 2ddd 1f3c de49 bb3b 5954 8bbb
00000340: ae6f 0ebd b96b 0cbc fc05 603c e435 c3ba
00000350: 93cf 3dbd 4cfd 073c 5372 ddbb 0dad d5bc
00000360: 5e22 38bc 492c 85bc ed67 c53b 96f7 bebc
00000370: 76fd 78bc 7b7f a4ba 05ea c1bc fa14 64bd
00000380: f49e bdbc 6ab8 fc3b 72bb dfbb 747e ccbc
00000390: df05 653c 6027 0abd 6cc4 e9bc 9c3e 073c
000003a0: 95df e9bc be9e febc bf3b f4bc 369c b53c
000003b0: 9f92 edbc 07c9 60bb 11cb 36bb 0fd5 d4bc
000003c0: fcd8 f0bb fc84 93bc 5127 54bd bde3 3bbd
000003d0: 019e 67bc 24fb 083c 0c80 8d3c 9409 08bd
000003e0: 49d5 8ebc 46c0 af3c 0500 09bc f350 49bd
000003f0: 3b70 22bd 4d0d 03bd 6334 ddbc 52d4 08bb

gnn_layers.1.W2.weight f4 [128, 128]
-0.016826982 0.010300302 0.03322517 0.013284137 0.0018672307 -0.019563371 -0.0029450501 -0.019404734
0.013735973 -0.025271593 -0.013600479 0.0083793495 -0.019963047 -0.054456178 -0.04107234 0.0019358123
-0.005592349 -0.026572142 -0.012625701 -0.00044445763 0.0018869732 -0.014500191 -0.013331016 0.019585503
-0.026961127 -0.035978973 -0.04368402 -0.021119315 -0.004913616 0.011090615 0.020358406 -0.011596909
4.50014e-05 -0.03208115 -0.06992126 -0.014754105 0.01637032 -0.0049200673 -0.00045345788 0.005403477
0.0020577589 -0.003731743 0.024577357 0.0018629077 0.016315242 -0.052322898 -0.0068168854 -0.02896388
0.0041263252 -0.007397069 0.01117627 -0.03712925 0.004859912 -0.03569342 -0.030544551 -0.013778184
0.003844388 -0.036605544 0.0237387 -0.007048946 -0.02182558 0.0073774196 0.008749905 0.018510683
-0.026457708 0.0026031723 0.006650517 0.014251313 0.011359105 -0.0077543594 0.0054997676 -0.026991313
-0.021938695 -0.025083616 -0.014377794 -0.016421858 0.003904079 -0.022413798 -0.038330056 0.0130752
-0.0012406548 0.010851818 -0.02243156 -0.0043068067 -0.00082614936 -0.030462127 0.01600894 -0.0026098625
0.000763717 -0.01341967 0.0033766844 -0.0152082415 0.008450073 -0.004454352 -0.0063557373 0.027683012
-0.00983328 -0.0032884984 0.0057540373 -0.017434666 0.009384088 -0.011804501 -0.011876873 -0.022416942
-0.022396678 0.009169897 0.015659155 0.015866412 -0.00070567743 -0.02676662 0.019880546 0.014746938
-0.0043641655 -0.01431958 -0.02587027 0.011176689 0.016384033 -0.02382227 -0.020789813 0.0040655797
-0.006489619 0.028950052 -0.024672367 -0.01357314 0.00838317 -0.0048798793 -0.036331784 -0.008652414
0.00786314 -0.01458727 -0.017867329 -0.0439778 0.0034115915 -0.012407661 0.018458191 0.014667329
-0.022157732 0.03180825 -0.008081769 0.016815607 -0.020368412 -0.036014736 -0.0103809275 -0.011966147
-0.022042915 -0.009668562 0.019101458 0.0049848324 0.0150747765 0.026709756 -0.01709925 0.008169664
0.004742267 0.020029617 0.0005077452 -0.015118717 -0.022500964 0.0026271185 0.008830398 -0.038651496
-0.013996097 0.014183688 -0.018673481 -0.03552846 -0.00870276 -0.014565575 -0.03383266 0.00029110763
0.0028655808 -0.0040934663 -0.013768719 -0.0026543986 -0.021963982 0.00064014725 -0.0049154777 -0.0041648173
-0.02943339 -0.022560712 -3.316656e-05 -0.02231674 -0.0045366413 -0.014722476 0.009867414 0.0030882563
0.006081492 -0.021859458 -0.03787305 -0.013205132 0.00081633235 0.008195541 -0.026372446 0.008939972
0.0032267647 0.00013814933 -0.0012036087 -0.0017764409 -0.0142093515 -0.0010547449 -0.033852566 -0.024136728
-0.0020016595 -0.034836106 -0.01627831 -0.04738927 0.011165717 -0.001233727 -0.0032981508 -0.017106224
0.008579484 -0.012258231 -0.014587305 -0.0026016647 -0.026813844 0.015382792 0.01325226 0.006953914
0.007591967 0.017141953 -0.028006773 -0.008143923 0.0095660705 -0.02320037 0.017333224 0.0082222335
-0.03104981 -0.023391595 0.0022927679 -0.012935552 -0.02444886 -0.043797478 0.0019520707 -0.0100010885
-0.030057456 0.024727086 -0.012921709 0.017543126 0.005917318 -0.007188444 -0.010225293 0.00036633047
-0.0007323341 0.0012600444 0.016456127 -0.018493041 0.009544033 -0.01672735 5.1775667e-05 -0.0069159255
0.022324035 0.0011537938 -0.01238535 -0.003659449 -0.012148825 -0.01314484 -0.031553354 -0.02167477
00000000: bdd8 89bc 99c2 283c 1e17 083d b5a5 593c
00000010: debd f43a 5d43 a0bc be01 41bb adf6 9ebc
00000020: d90c 613c 5f06 cfbc 8bd4 5ebc 8a49 093c
00000030: 8b89 a3bc 710d 5fbd 783b 28bd 15bb fd3a
00000040: 0640 b7bb d2ad d9bc 07dc 4ebc 1806 e9b9
00000050: 5054 f73a 3692 6dbc 556a 5abc c771 a03c
00000060: 95dd dcbc b05e 13bd 04ee 32bd 6a02 adbc
00000070: 6602 a1bb 69b5 353c acc6 a63c f600 3ebc
00000080: e3bf 3c38 8667 03bd e132 8fbd 34bb 71bc
00000090: 0d1b 863c 8438 a1bb 16be edb9 a60f b13b
000000a0: 77db 063b 4290 74bb 7456 c93c cf2c f43a
000000b0: 8ba7 853c 8950 56bd 2e60 dfbb a945 edbc
000000c0: 2036 873b 1d63 f2bb ad1c 373c d714 18bd
000000d0: e63f 9f3b 4333 12bd 9138 fabc e4bd 61bc
000000e0: 21f2 7b3b b2ef 15bd aa77 c23c d8fa e6bb
000000f0: 8fcb b2bc 48be f13b c35b 0f3c b7a3 973c
00000100: d6bd d8bc fc99 2a3b 95ec d93b 577e 693c
00000110: 8a1b 3a3c 4818 febb 6537 b43b e31c ddbc
00000120: c7b8 b3bc 287c cdbc d790 6bbc 2287 86bc
00000130: 94db 7f3b 249d b7bc faff 1cbd 5d39 563c
00000140: 789d a2ba d3cb 313c 64c2 b7bc 1d20 8dbb
00000150: f291 58ba b68b f9bc 2e25 833c 3a0a 2bbb
00000160: 2e34 483a 2dde 5bbc 5d4b 5d3b fd2b 79bc
00000170: 2d72 0a3c d0f5 91bb ca43 d0bb 7cc7 e23c
00000180: c41b 21bc d983 57bb 5d8c bc3b 25d3 8ebc
00000190: b8bf 193c aa67 41bc 3797 42bc bca3 b7bc
000001a0: 3d79 b7bc 563d 163c a147 803c 47fa 813c
000001b0: 36fd 38ba ac45 dbbc 87dc a23c 249d 713c
000001c0: 4601 8fbb ac9c 6abc e3ed d3bc 6e1e 373c
000001d0: cf37 863c ec26 c3bc 664f aabc 8e38 853b
000001e0: dfa6 d4bb a928 ed3c b41d cabc e061 5ebc
000001f0: 9059 093c 65e7 9fbb a3d0 14bd dbc2 0dbc
00000200: 66d4 003c 72ff 6ebc 815e 92bc 1122 34bd
00000210: 0295 5f3b 8149 4bbc a235 973c 3d4f 703c
00000220: 2284 b5bc 5e49 023d 6569 04bc e2c0 893c
00000230: a8db a6bc 3084 13bd c414 2abc a90d 44bc
00000240: 5893 b4bc e368 1ebc a97a 9c3c ce57 a33b
00000250: 32fc 763c 6bce da3c ba13 8cbc 0eda 053c
00000260: 0565 9b3b 2715 a43c 341a 053a 7fb4 77bc
00000270: f153 b8bc bc2b 2c3b 60ad 103c 0851 1ebd
00000280: e34f 65bc b362 683c 21f9 98bc 4a86 11bd
00000290: 0596 0ebc 73a4 6ebc 1e94 0abd ce9f 9839
000002a0: 78cc 3b3b 7c22 86bb 3196 61bc 6bf5 2dbb
000002b0: cfed b3bc 8ecf 273a 0412 a1bb 0579 88bb
000002c0: 4b1e f1bc 3ed1 b8bc 531c 0bb8 99d1 b6bc
000002d0: 1ba8 94bb 8a36 71bc efaa 213c 5864 4a3b
000002e0: 4147 c73b 9b12 b3bc c520 1bbd 575a 58bc
000002f0: 23ff 553a 9746 063c 070b d8bc f678 123c
00000300: 2178 533b 2edc 1039 68c2 9dba 77d7 e8ba
00000310: 57ce 68bc 5e3f 8aba fda8 0abd 63ba c5bc
00000320: 462e 03bb 4eb0 0ebd 175a 85bc 401b 42bd
00000330: 69f0 363c 02b5 a1ba ca25 58bb 5a22 8cbc
00000340: f790 0c3c bfd6 48bc 97ff 6ebc b180 2abb
00000350: b5a8 dbbc 1b08 7c3c 0220 593c a9dd e33b
00000360: 09c6 f83b 486d 8c3c 766e e5bc 176e 05bc
00000370: 02bb 1c3c b40e bebc 68fe 8d3c 8cb6 063c
00000380: 2c5c febc bb9f bfbc 4342 163b a3ef 53bc
00000390: fa48 c8bc fc64 33bd a0dc ff3a 9bdb 23bc
000003a0: 0e3b f6bc 7590 ca3c 93b5 53bc 9ab6 8f3c
000003b0: 10e6 c13b 0a8d ebbb fd87 27bc 0b10 c039
000003c0: 1cfa 3fba 1328 a53a 00cf 863c b87e 97bc
000003d0: 935e 1c3c cc07 89bc b329 5938 fd9e e2bb
000003e0: e5e0 b63c e53a 973a eceb 4abc 5ed3 6fbb
000003f0: de0b 47bc 745d 57bc 173e 01bd 4a8f b1bc
