aca_backend_api/models/tca/gnn_fold4.pt (torch, 764673 bytes, 12 tensors)

node_emb.0.weight f4 [77, 128]
00000000: 3059 20be bc1f 24be e8c0 0ebd 162e 77bd
00000010: 38c1 f13d 2a1e c53d 2d08 34bd 26a1 96be
00000020: 3599 373d 0aee 33be c562 473d 738b 2f3d
00000030: aa8b 883c a545 303e 3e0e 1f3e 46df 0cbd
00000040: a9a6 40be d48a 71be f668 a13d b907 e23d
00000050: 7e94 aa3d e27b 5dbe dc78 42bd a4f4 833e
00000060: bfb0 d53d 2cc7 a6bd 8a91 c5bc f30d d13c
00000070: 5be1 453e d3ee 613e 36c6 063e 1152 f0bd
00000080: 24c7 aebd 08fc 8f3b bf56 8cbd 6985 0d3d
00000090: 5f7e 7a3d b714 803c 9687 b63d 8353 7b3d
000000a0: db24 69bc 17ba e13d fb05 25bd b64e ef3b
000000b0: 94ef 943d daf1 a33e 0435 51be c0fb 61be
000000c0: 94ba bfbd 37a0 f83d 0c4f 163e d6a2 ca3c
000000d0: be38 03bd 792e 5fbd 8ec1 9a3d d61e 61bd
000000e0: 8135 7ebd ffee d33d 00a0 583e 86de f23e
000000f0: 3c14 5abe 66c5 2fbe 3796 813e 721a 9dbd
00000100: 5026 a2bd e906 033e 3a35 1e3e 9cb5 373e
00000110: 3987 52be 94d1 b63e 16c4 86bd 6b29 3f3d
00000120: 3d0e 68be 3398 9cbd f8ad 88bd 0f55 8ebd
00000130: f7f6 17be 9ecb 1e3e 3648 a0bc af84 e53d
00000140: c9b8 54bc adb4 c33d 0bcb eebd a810 0239
00000150: 2dd0 ef3d 1ae6 63bd a30b 143e 370a 4c3d
00000160: 7825 0cbd 89f7 a33e ceff 85be afa2 e2bb
00000170: 81d4 14be 5f3a 08be dcd2 983b 8944 ca3d
00000180: 7f69 6a3e c7b8 41be 614c 443d a315 943d
00000190: d719 babe c09e 71be 4407 02bd 287d 1f3d
000001a0: 2cac 0c3d da35 2f3c ca8f 403d aa6f 813d
000001b0: 7828 823d 3780 f6bd 248e de3d 1bff 03be
000001c0: 7156 f9bc 1f68 adbe 4e28 26bc 63e5 9abb
000001d0: 1a16 093e 84eb 463d 1c3d 03be 690e 00bc
000001e0: 0960 b1bd 0a17 84bd c4da 883e 2154 65bd
000001f0: 632c 8d3c cae4 253e 9e82 033e ee95 453e
00000200: 2a9f 1abe c181 29be fc5c 6fbe 08ec a23b
00000210: a99d 5e3e 6f79 d63d c708 453e d7c5 d2be
00000220: c031 fb3e d5b3 a7bd 2b1f ec3d 4126 3abe
00000230: 9821 093d 4989 51be 8f7e eabd ab4d 1ebc
00000240: 6cae eebd 58d9 8a3d 72ff 263d 3d94 b83c
00000250: 2f43 20be 5b7f 073f 6cdd 8bbc b43a a13d
00000260: b088 163e 1639 a3be 02fc 10bf 25f6 ce3c
00000270: a036 72be 407a 963e 9fc7 e93d 2052 653e
00000280: eb67 9c3e 070c 77be a63e 783e 298e 253a
00000290: 41db c93d 37f1 31be 0f46 323e 1feb 763c
000002a0: add0 80bc a928 9c3e bab7 16be f0c6 833e
000002b0: 2672 47be d8e1 65bc 7f45 88be 890d 03bf
000002c0: 5d40 4d3e 5741 7abd abc2 babe fdb7 3fbe
000002d0: ce54 083e ee85 133e c88f 753d 2ce0 d03e
000002e0: e741 71be 590b 86be def4 713d f805 9e3c
000002f0: 6c2b 873e 595b 6abe 7475 5cbe bb99 bebd
00000300: 4b00 813e 31d3 8c3e 37c3 143e f1b3 d7bd
00000310: 4a5f 813e 57b5 903e a98e 9e3e 0687 903e
00000320: 1e97 1ebd 49a3 13be f57b c7bd a16c 333e
00000330: b9a3 babd 1475 93be 9f6f 713e 42a2 34be
00000340: 4022 773e c605 c5bc 030d 633e b91d 44be
00000350: e2df 64be 4fc4 833e bfd2 69be 852a f5be
00000360: be21 7c3e b88c 5f3e 4717 c3be a532 643d
00000370: ba3c 82bd fc18 4b3e b994 74be 0c8a bebe
00000380: 529f 3c3d a8db 743e f2f3 2e3e 2f35 fb3d
00000390: 380f 2ebe afa7 4d3e 211a 2c3e 65e8 90bd
000003a0: 4e05 3ebb 05c1 403e c168 e93d 2bfa 923e
000003b0: 5417 f8bd 7f44 5c3e b42e 993e 3e91 cfbd
000003c0: b50b 86be 9f09 50be a1a1 933b e7de 5dbe
000003d0: 0fe5 863e 6dcb 80bd 29b5 743d 7f4b 6bbd
000003e0: 4bdb 62be 2980 9a3e cce6 5a3e 4161 293e
000003f0: de05 bbbd fd12 b73d 5f6e e13e 1bb9 053d
-0.15659022 -0.1602773 -0.03485194 -0.060346685 0.11804432 0.09624894 -0.04395311 -0.29419822
0.044823844 -0.17571273 0.04867818 0.0428576 0.01666816 0.17214067 0.15532777 -0.034392618
-0.18813576 -0.23588115 0.07881348 0.11036629 0.08329104 -0.21629289 -0.04747854 0.25772583
0.10434102 -0.08143458 -0.02411725 0.025519347 0.19324248 0.2206376 0.13161549 -0.11734403
-0.08534077 0.004394058 -0.06852483 0.034551058 0.061155673 0.015634878 0.0891258 0.06135894
-0.014229978 0.11021822 -0.040288907 0.0073030842 0.072722584 0.32020456 -0.2043038 -0.22068691
-0.09361759 0.121399336 0.14678591 0.02473585 -0.032036535 -0.05448768 0.07556449 -0.054961048
-0.062062744 0.10348319 0.21154785 0.47435397 -0.21296781 -0.17165145 0.25309917 -0.0767106
-0.07917464 0.12795605 0.15449992 0.17940372 -0.20559396 0.3570677 -0.06580369 0.04667036
-0.22661681 -0.07646217 -0.06673807 -0.069498174 -0.14840303 0.15507361 -0.019565683 0.11206948
-0.012983509 0.095559455 -0.11659821 0.00012403971 0.11709628 -0.055639364 0.14457564 0.04981443
-0.03421542 0.32024792 -0.26171726 -0.006916366 -0.14534189 -0.13303517 0.0046638083 0.09876353
0.22891806 -0.18918143 0.047924403 0.072306894 -0.3634784 -0.23595715 -0.03174521 0.038937718
0.034343883 0.010693992 0.047012128 0.06320126 0.06355375 -0.12036174 0.10866955 -0.12890284
-0.030436726 -0.338685 -0.010141445 -0.004727052 0.13387337 0.04856445 -0.1281628 -0.007815936
-0.086608954 -0.06449707 0.26729405 -0.055988435 0.01723308 0.16200557 0.12842795 0.19295475
-0.15099779 -0.16553403 -0.23375314 0.004971985 0.2173983 0.1047238 0.1924163 -0.41166565
0.49061394 -0.08188597 0.11529382 -0.18178655 0.033479303 -0.20462526 -0.114499204 -0.009662072
-0.11654362 0.06779736 0.040770955 0.022531623 -0.15650629 0.52928704 -0.017073356 0.07872525
0.1470058 -0.3187949 -0.56634533 0.025263855 -0.2365365 0.29390144 0.11415028 0.2239461
0.30548033 -0.24125682 0.24242648 0.0006315434 0.098562725 -0.17377172 0.17409538 0.015070706
-0.015724504 0.3049977 -0.14718524 0.25737715 -0.19477138 -0.014030896 -0.2661552 -0.5119253
0.20044084 -0.06109747 -0.36476645 -0.1872253 0.133136 0.14406559 0.059951574 0.4079603
-0.23560296 -0.26180533 0.059071414 0.019289955 0.26400316 -0.22886409 -0.2152918 -0.093066655
0.25195536 0.27504876 0.14527594 -0.10532368 0.25268012 0.2826335 0.30968216 0.28228015
-0.038718335 -0.14417757 -0.0974044 0.17521907 -0.09113259 -0.2880026 0.23577736 -0.17640021
0.24134159 -0.024050605 0.22172932 -0.19151963 -0.2235103 0.2573571 -0.228343 -0.47884002
0.24622247 0.21831024 -0.38103697 0.05571236 -0.06359239 0.1983375 -0.23884858 -0.37214696
0.046050377 0.23911917 0.17085245 0.12266003 -0.16997993 0.20083497 0.16806842 -0.07075576
-0.002899486 0.18823631 0.11396933 0.28706488 -0.121138245 0.21510504 0.29918444 -0.101351246
-0.26180807 -0.2031617 0.0045053517 -0.21667062 0.26346633 -0.062888004 0.05974308 -0.057445046
-0.22153966 0.30175903 0.21377105 0.16541006 -0.091319785 0.089391686 0.4402952 0.032647233

gnn_layers.0.W0.weight f4 [128, 128]
00000000: c215 e7bd 254f 583c 7379 493d 5290 b53d
00000010: 513e cebd 7ff9 28be b7f6 093d 60a9 b23e
00000020: e577 f03e f82b 713c 103d 6fbe a6c2 f9be
00000030: 1c15 ccbc 7d15 a3be 2631 b7bd 8390 04bf
00000040: aa75 3cbe 10e8 2abd 1a6d b8be 7afe 17be
00000050: f7d8 25be 4012 313e 2bfe b6be 7684 343b
00000060: f107 fa3e bff8 1abf 9109 9cbe 708c 0b3f
00000070: eea3 f93c bef5 5abe fd1a 84be c890 a0bd
00000080: e0c2 90be c070 1fbe f8a0 9cbe 5ed1 9fbe
00000090: c4a4 543e 0906 aa3e 2384 bc3d 2a42 81be
000000a0: 6543 7cbe 0a8b c2be ed9f c1bd 62f1 96be
000000b0: 16b6 773e 3e84 0abe f945 f13b c04b d83d
000000c0: d156 20bf 8a15 f73d 7119 9d3e a7e3 c0bd
000000d0: 892d 5f3e 5904 663d f0d7 c7be 3d84 e9be
000000e0: 6f66 ac3d 343e 93be 836e 9b3d ad7f 093e
000000f0: 4d5e 3f3e 897e 843d b969 43bd 3b09 82be
00000100: 8947 433d 601c ab3e 5207 52bd ebcd ba3d
00000110: f10d cabe bfa2 8abe e5ec 8e3e 52e7 a0be
00000120: eabd 81bd 419b fb3d ebbe 323e fa6a e9ba
00000130: 3c5b 983e d0aa 4b3e f833 84be cd59 95be
00000140: 488b eabe 55a8 64be 82ff 38be dcaf f1be
00000150: b5c2 8e3d 8378 99be 0f6a c23e 1b48 0bbf
00000160: ffd3 8c3d c70b 77be fe15 493e eb23 c13d
00000170: d80f aebe 0937 a6be ca69 9f3c 59f5 4abe
00000180: a0aa 00bf 56c2 3abe 3ff6 88bd 4efb 673b
00000190: dd6d a2be b65c 80be c884 18bf ae1b 94be
000001a0: 25c5 bfbd 6248 ce3d c2ef 95be ba96 2e3e
000001b0: c495 0c3e 30ac 9cbe 5ee5 cdbe 1569 1c3e
000001c0: 6ca9 efbd 93b4 babe 4a85 473e 9bc9 6c3e
000001d0: 76f3 05bd e3f7 98be dddc 12bd a9b7 f3be
000001e0: eef6 88bd fb5e c13d 8141 95be f2b5 be3d
000001f0: 30bc a1be 3ac5 a73e 32aa 0bbe 1364 563e
00000200: a8bf 6ebc 6dce 11be a806 823e 6bed 7d3e
00000210: 3641 fbbd 5517 bb3d dee4 2d3c c6c3 f9be
00000220: d975 91be 5d39 033d a580 89be ad8b 283f
00000230: 458f 80bd 50e6 ebbe 3364 e7bd 76c4 29bc
00000240: 3be9 8bbe b256 55be d488 593e 1a9a a33e
00000250: 0117 21be b577 a53d 9387 bf3c 12bc 57bc
00000260: bf0a 0bbf 8d1a f43e 8a57 2f3e 7c0c c9be
00000270: cb0c bcbd 4618 f2bc a543 313e 6964 9c3e
00000280: 5692 adbd cbe9 9ebd 86c3 00be dc2b e23b
00000290: 83cf 2c3a ee42 5e3c b4f6 9cbd 678b e2bc
000002a0: 488f 3fbe f044 06bc 78c4 68bd 63b2 31be
000002b0: 56f5 1a3e 6ca4 0f3e 5f5c 3fbc e730 a23d
000002c0: 03eb 8d3d 6ede acbe 96ec cdbe 8160 a33e
000002d0: 616b 42be 298f ab3d ba4b aebd 2204 243e
000002e0: f597 61be 6adb 0fbd 3297 9d3e 6b95 a03d
000002f0: acfa 3bbd b75d 003d da83 bebd 5bbc 17bd
00000300: 7616 b93d c660 c5be 2752 de3d 45b0 04bf
00000310: 589f e33e bd46 52bd 8c99 53be f430 cbbd
00000320: 38a3 d5bd 15ef 45bd 9396 8fba 9468 a33c
00000330: e9fe a9be 9daa 3bbd 8c03 8abe 9074 ecbd
00000340: 39c9 823e 9490 5dbe d854 c83e 7cef b73e
00000350: e171 823d 67ce 7dbe 959e 8f3d 2d35 b0bd
00000360: 98eb 84be 7762 a13e 9187 a6be b9d4 76be
00000370: 8907 5d3c aef7 dbbd b4e2 373e ddb1 bcbd
00000380: 4863 0f3e c71c 3f3e e666 a3be fb7c 6eba
00000390: a605 9b3e c0c5 7d3d 55ba 3a3e 7bef 383e
000003a0: 9d9e 193e 41f1 a3bc 03e7 df3e 28bc 713e
000003b0: 2acf aabd aefd 7a3e 5fff 743d d595 aa3d
000003c0: 0168 7dbd fe1c d5bd be51 8239 c3ab 133e
000003d0: 86a4 c1be c952 613e 7a7d 9d3e 0155 09bf
000003e0: 7d69 99be 888c 98bc 9aa0 8d3e d975 26bd
000003f0: 6eba a03d a4ed 00bd df3d 793d 831f 78bd
-0.11283447 0.013202463 0.04918809 0.088654175 -0.1007048 -0.16501425 0.03368255 0.34894848
0.46966472 0.014719956 -0.23363137 -0.48781317 -0.02491241 -0.31852332 -0.08944921 -0.5178301
-0.1840426 -0.04172522 -0.36020738 -0.14843169 -0.16196047 0.17292118 -0.3574079 0.0027544773
0.48834184 -0.60535806 -0.3047605 0.54511166 0.030473676 -0.21382806 -0.2580184 -0.07840115
-0.28273678 -0.15570354 -0.3059156 -0.31214422 0.20765978 0.3320773 0.092048906 -0.25245792
-0.24635084 -0.37996703 -0.094543315 -0.29481035 0.24190554 -0.13527009 0.0073630777 0.10561323
-0.6263247 0.12064655 0.30683473 -0.09418421 0.21794714 0.05615649 -0.39031935 -0.45608702
0.08417975 -0.28758395 0.07589438 0.1342761 0.18688317 0.06469447 -0.047708247 -0.25397667
0.047675643 0.33420086 -0.051276512 0.09121307 -0.3946376 -0.2707729 0.2791511 -0.31426483
-0.06335051 0.12285472 0.17455642 -0.0017808371 0.29757106 0.19889379 -0.258209 -0.29170075
-0.45809388 -0.22329839 -0.18066218 -0.47204483 0.06970731 -0.29974756 0.3797154 -0.544069
0.068763725 -0.24125586 0.19637296 0.09430679 -0.33996463 -0.32463863 0.019459624 -0.19820155
-0.50260353 -0.18238196 -0.06687593 0.0035397592 -0.31724444 -0.25070733 -0.5957761 -0.28927368
-0.09363774 0.100724 -0.29284483 0.17049685 0.13729006 -0.3060012 -0.40214056 0.1527446
-0.117022365 -0.36465892 0.1948444 0.23123781 -0.032702886 -0.29876623 -0.035855163 -0.4760106
-0.06687723 0.09441944 -0.29151538 0.09312047 -0.31588888 0.3276766 -0.13639143 0.20936613
-0.014572062 -0.14238901 0.25395703 0.24797599 -0.122682974 0.091353096 0.010613648 -0.48782176
-0.28410223 0.032037128 -0.2685596 0.6583813 -0.062773265 -0.46074152 -0.11298408 -0.010361781
-0.27326378 -0.20833853 0.21243602 0.31953508 -0.15731432 0.08079473 0.023380077 -0.013167398
-0.5431327 0.47676507 0.17123237 -0.39267337 -0.091821276 -0.02955259 0.1731096 0.30545357
-0.08475177 -0.07759436 -0.12574586 0.006902201 0.0006592201 0.013565762 -0.076642424 -0.027654363
-0.18707001 -0.008195147 -0.056827992 -0.17353205 0.1513265 0.14027566 -0.011679738 0.07919484
0.069295906 -0.3376345 -0.40219563 0.31909564 -0.18986274 0.08376915 -0.085105374 0.16017202
-0.22030623 -0.03512136 0.30779415 0.07840999 -0.045893356 0.031339373 -0.093024924 -0.037044864
0.09037487 -0.38550395 0.10855513 -0.51831466 0.44457507 -0.051336993 -0.20664042 -0.099214464
-0.10431522 -0.04832371 -0.0010954909 0.019947328 -0.33202294 -0.045817006 -0.2695583 -0.1154567
0.25544146 -0.21637183 0.3912723 0.359249 0.06369377 -0.24785767 0.07012669 -0.086038925
-0.25960994 0.31520435 -0.32525304 -0.24104585 0.013490566 -0.107406005 0.17957574 -0.09213612
0.14002717 0.18663321 -0.31914443 -0.0009097603 0.30277747 0.061956167 0.18235143 0.18060105
0.15001912 -0.0200125 0.43730935 0.23606932 -0.08340295 0.24510834 0.059813853 0.083293594
-0.061866764 -0.104059204 0.00024856435 0.1442099 -0.37820834 0.22004236 0.30759794 -0.5364533
-0.29963294 -0.018621698 0.27661592 -0.040639732 0.07848059 -0.03147663 0.06085002 -0.060576927

gnn_layers.0.W1.weight f4 [128, 128]
00000000: e100 94bd c021 13bd 2122 d2bc 19ab 77bc
00000010: c067 89be 2d0a 11bd 3ba8 70be 9976 5ebd
00000020: 87d5 5c3c f681 d63d 53e9 b53d dea2 a5be
00000030: 9f85 8f3e 9ebc e3bd c3ab 8bbe a90e 4d3e
00000040: d968 933e 9893 eabd 343b 59be d6b1 193d
00000050: 9efc ca3c 9e90 bdbe f17b 8f3d 33a7 2cbd
00000060: c1cf 38be c3fc 283d 4c2b 2d3e 64a6 283e
00000070: 8d19 9d3d 4251 cebe 9213 c3bc af46 7ebe
00000080: 905a 153e 0bab b23d 4713 233e 45bc acbd
00000090: 6190 b23e d477 f9bc 64c1 bcbd d1f8 313e
000000a0: ba36 213e e7da 543e ac42 97be 47ed 853b
000000b0: ce10 833e 6d15 1bbe 1826 38be 5b60 4ebd
000000c0: 6c73 6fbc ab60 b4be 6573 243e 5f4a 79be
000000d0: 5d0d 3b3e 0204 7e3b 9eea 653c 3ace 9d3e
000000e0: 2b21 3abe 8d7b 6dbd 3d68 ac3d 7906 ab3e
000000f0: 6199 febd 666f 603e ba9a 203e c87f b2be
00000100: 6f3e 9bbd a2cb 3fbe e1b7 06be 4b09 a3be
00000110: e5cf a4bd f0e6 9ebd 6b0a 05bd 05da 7bbe
00000120: a215 9e3e 6604 9ebd 9b31 a63c f0f5 a2be
00000130: 1f0c dcbe e71d 6a3e dbce b0bd 486f 0fbd
00000140: b7bd a43d 8f13 89bc d4ad 643c c5d9 c23e
00000150: 7b79 343d 2fe3 f9bc ca71 f33c 5590 35be
00000160: a0ff 18be 1b94 22be 69bb f23c 4a9b 1c3d
00000170: 4e4c 22be d4e8 8a3e 0208 50be 9515 9d3d
00000180: aae1 053e 231b 00bd 9196 7f3d 562d 9fbe
00000190: 2a56 98bd a468 123d c536 cd3b f52d 0a3d
000001a0: 6cc7 31be 77d0 68be f8a0 6bbe e361 08bd
000001b0: c617 25be 00f8 8a3c 29ad 303e d42d b73b
000001c0: 249a 9c3e efff 49be b7b3 20bc c288 693e
000001d0: 1c58 a6be e6d3 9a3d 3ccb 3b3f 8d47 7e3d
000001e0: 6e46 42bd bfb3 793e 1315 f6bc fdaf e43d
000001f0: 238f a03e 0bba 94be cfda aabc 79ea 113e
00000200: 20bf 1f3e 240e 2b3e 3761 39bd bdcc 9cbe
00000210: 7a79 d53d 8d17 863e 0140 c3bc 3fc0 123c
00000220: 93fb 39be 6d45 24bc 37f8 21be 3068 45bd
00000230: e122 5cbd f33e 2a3e 5948 4ebe 98d0 123d
00000240: 8394 6bbe ace6 273e 3d17 f4be 5166 99bd
00000250: f92f 75be 267d c73e d682 ac3e 9914 bdbe
00000260: 4df9 aebd 13de 093e 1218 7b3b d3b4 b6be
00000270: 9320 3dbe 4834 ca3e 4860 983e c4ac 433e
00000280: d6d1 1cbd fb90 10bd 8b32 2c3e a143 553e
00000290: 0d1b b83e c931 623d 0f50 2abe e846 41bd
000002a0: ae16 e9bd 1b1a 5f3c 296a 233e 7c73 8e3e
000002b0: 5752 90be 1be5 cdbd d48e 363e 8b09 07be
000002c0: e540 363e 70ce 7cbe 2a8c b8bc 6771 7dbe
000002d0: ff87 d0be 1225 933e dfbf 84be 30e3 6ebb
000002e0: ea71 8f3e 4a6e a3bd f0a6 1abe 0300 d23d
000002f0: 781a 34be 518c 12bc 8b68 23be eca7 a23e
00000300: f969 d23b 8d03 71be da0d f9bc 88d9 87be
00000310: 9b9c 41be 3191 b93d 97fe 933e 0f75 723e
00000320: ed18 9abe a4b6 24be d886 a9be 5b19 6c3e
00000330: 3a7d f43c 9984 813e 7133 b53d 10f1 b2be
00000340: 8b3a c83d a629 bb3d b860 d73d 61a8 d3bd
00000350: a94f 72be 96a5 7a3e 6c57 60be 37c6 b4be
00000360: 3f10 3dbe 5f02 d03d 15de b03c edf1 413e
00000370: 5b03 c5bc 3c95 833e d04c 193e 624b cd3e
00000380: 9506 913e 7ef7 e83e 5ad6 f63c c947 70be
00000390: 79ee 4ebd 0c93 2a3e 9abf d33d 1f94 9ebe
000003a0: 5d6d 91be 932a cabe 05ae 9d3e 1dac 6f3e
000003b0: cb04 90bb 5b3d 863c c0e8 c83d 4196 f03d
000003c0: ba73 4abe 6804 3fbd af20 b7be 8fac 18bf
000003d0: b20a d33d fd22 913e cdab 9c3d 4ae7 8dba
000003e0: 0dc5 d1be a139 323e aac6 173e 62e9 5bbc
000003f0: 2019 1ebd ef3a 853e 4e41 4c3e db99 37bf
-0.0722673 -0.03592086 -0.02565104 -0.015116476 -0.26836967 -0.035410095 -0.23501675 -0.054312322
0.013478643 0.10474007 0.08882394 -0.3235082 0.28031632 -0.1111996 -0.2727948 0.20025124
0.2879093 -0.114539325 -0.2121399 0.037523113 0.02477866 -0.37024397 0.07006062 -0.04215164
-0.18048002 0.041256677 0.16911048 0.16469723 0.07670889 -0.4029637 -0.023813043 -0.24831651
0.14585328 0.0872403 0.15925322 -0.08434347 0.34875777 -0.030452646 -0.09216574 0.17380072
0.15743533 0.2078663 -0.29543054 0.0040871236 0.25598758 -0.15144892 -0.17983282 -0.05038486
-0.014614921 -0.35230002 0.16059645 -0.24344777 0.18266816 0.0038759713 0.014032988 0.308214
-0.18176715 -0.057979155 0.084183194 0.33403376 -0.124315985 0.21917495 0.15684023 -0.34863114
-0.07580268 -0.18730024 -0.13156082 -0.31843027 -0.08047465 -0.077588916 -0.03248064 -0.24594887
0.3087588 -0.07715683 0.020287326 -0.3182826 -0.42977998 0.2286297 -0.086332045 -0.035018235
0.08043998 -0.01673296 0.0139574595 0.3805677 0.044061165 -0.030503837 0.029717345 -0.1773084
-0.14941263 -0.1587681 0.02963038 0.038234033 -0.1584942 0.2713076 -0.20315555 0.07670132
0.13074365 -0.03127588 0.06239945 -0.31089276 -0.074383095 0.035744324 0.0062626326 0.033735234
-0.1736123 -0.22735773 -0.23010623 -0.033296477 -0.1612235 0.016963959 0.17253555 0.00559018
0.3058635 -0.19726537 -0.009808472 0.22806075 -0.32489097 0.07559948 0.73356986 0.062079955
-0.04743045 0.24384974 -0.030039346 0.111663796 0.31359205 -0.2904819 -0.02085629 0.142496
0.15600252 0.16704613 -0.045258727 -0.30624953 0.104235604 0.26189843 -0.02383423 0.008956968
-0.18162374 -0.010026318 -0.15817343 -0.048195064 -0.0537442 0.16625576 -0.20144786 0.03584346
-0.23005871 0.16396588 -0.4767398 -0.074902184 -0.23944081 0.38962668 0.3369357 -0.36929777
-0.08543644 0.13463621 0.0038313908 -0.35684833 -0.18469457 0.39493012 0.29760957 0.19108874
-0.038286053 -0.035294514 0.16816156 0.2082658 0.35958138 0.05522326 -0.16632102 -0.047186762
-0.11381279 0.013617064 0.15958466 0.27822483 -0.2818782 -0.10053464 0.17827922 -0.13187234
0.17798193 -0.24688125 -0.022527773 -0.24750291 -0.40728757 0.2873922 -0.25927636 -0.0036451332
0.28016597 -0.0798002 -0.15102744 0.102539085 -0.17588222 -0.008944587 -0.15957849 0.3176874
0.0064213243 -0.23536511 -0.030402113 -0.2653315 -0.18907396 0.09060896 0.28905174 0.23677467
-0.30097142 -0.16085297 -0.3311069 0.23056547 0.029844869 0.25296476 0.08847702 -0.3494954
0.09776791 0.09138803 0.105164945 -0.1033485 -0.236632 0.24477229 -0.21908349 -0.35307476
-0.18463229 0.10156702 0.021590272 0.18939944 -0.024049452 0.25699794 0.14970708 0.40096575
0.28325334 0.45501322 0.030131508 -0.23464884 -0.050520394 0.16657656 0.103392795 -0.30972382
-0.2840375 -0.39485607 0.3079683 0.234055 -0.0043951026 0.016386678 0.098100185 0.11747409
-0.19770709 -0.04663506 -0.35767123 -0.59638304 0.10304774 0.28347006 0.07649956 -0.0010826376
-0.4097065 0.17404796 0.14821878 -0.013422342 -0.03859818 0.26021525 0.19946787 -0.7171914

gnn_layers.0.W2.weight f4 [128, 128]
00000000: 967c 473d a4dd 533e 3795 873d 9d8f e43d
00000010: 89f4 6dbd 5df0 1fbe 6ce9 26be df05 3b3e
00000020: 498c c6be c2ff 203d 9c9d c73d 968e 99bd
00000030: 74c9 8f3e 875c 3abe fa26 34be 1107 3c3d
00000040: e051 723d b80f 2cbe 3d80 1e3e fbb2 213d
00000050: b3f6 553e 7153 b2be 60bb 16be 6642 8f3c
00000060: d6c2 413d 6543 a8bd 17cc 863e 9608 4fbe
00000070: 8a0a b3ba fe46 f23d cec4 b43b 7232 90bd
00000080: 957e babc 13e7 f83d 2550 e43d 1cda 813c
00000090: 96cc 5cbd 4e6a aebe 4a18 4e3e 03cb 6a3e
000000a0: 1cd9 0fbe c366 66be 5383 cf3d 540d 2fbe
000000b0: 525f a43e ed6d 9d3e 8a22 203d c410 f53d
000000c0: af6a 023e 80c4 b63d ee25 9e3c 424f 0f3e
000000d0: 4675 d33e 63a9 783d d1cd 5e3e d8f9 2fbd
000000e0: d537 1a3e a247 023e f072 333e c0d1 d4be
000000f0: 8c9b 653e 1510 18bd d121 8d3e d0fa e0bd
00000100: 3905 6bbc 258c 0f3e eccc 6fbe e72f 6f3e
00000110: 77ca 803d 951a ce3d e84d 123d 49ac 01be
00000120: d943 09bc 6dcc 893e b160 903e 3638 6abd
00000130: 3ed1 553e 7f74 e83d dccd a33e 0451 213e
00000140: 66d1 bbbd c895 22be 0477 e8bc 5a85 b93d
00000150: 27e2 7f3e 9a3e 84be 842d e2bd c2b9 4cbd
00000160: 4866 e03c 08dc b4be 88f0 073d 8283 593d
00000170: f341 0abd a31d 7cbe b4a5 043f 83a6 94bc
00000180: 653a 883c 0950 cebd c222 42be e524 e33d
00000190: abea 48be 3539 91bd 5f31 923e f826 0bbc
000001a0: c12f 8e3e ea44 58be 8ab5 bf3d 4720 7d3d
000001b0: a6b3 cbbd fa85 acbe 13e6 0dbd 4920 7fbd
000001c0: 6f84 a2bd 85a3 e7bd c207 6f3e 62d3 fc3d
000001d0: 3453 b1ba 5c51 8cbd 6639 863e 5dae 8c3c
000001e0: a4a2 233e a76d a2be f6ba acbd 09ea 13be
000001f0: 30f2 e33e e3a4 123e 6325 14be be9e 0e3e
00000200: 0f20 9dbc d895 a43e 9bed b8be 24bf 823d
00000210: ed1d 4c3e df2b 673d 4ed1 66be 901f 44be
00000220: b13f 173d a973 d8bd 725b a7bd 4aa2 71be
00000230: f50a 7cbe be1a 44bd 6941 67bd ff50 0bbe
00000240: b15a 59be db56 093f 723e b3be 81dd 4b3e
00000250: 373e f3bb af46 95be 9bbd a63d 6c6e 0abf
00000260: cb54 283e ff3e ff3d 3cbd 02be bf59 f13d
00000270: 216a 8abe 65ab a0be 6eeb 173f ec7d 273d
00000280: 29f4 b6bc 2ba2 96be 5593 d6be 5c7d 97bd
00000290: 0ef1 20be 7990 593e 5faf 1e3e a20d 583e
000002a0: 01ae 4cbd 260e 2ebd 57c8 1f3d 4434 913c
000002b0: bc0a 863e 8738 983c 6373 52bc 3986 02be
000002c0: 34fc a8be e01f 0fbc 16c9 3bbc e12f 853c
000002d0: 2cef 203c 6b33 9dbd 671c bdbb 3dc4 143d
000002e0: 9e8d 3dbc dce0 3fbe 7653 0b3d 2b57 96be
000002f0: 8e1c 263e 1177 893e f038 843d 03b9 bb3e
00000300: 69e3 79be 223e 58be 3abf 3dbe 52c2 cb3d
00000310: 4353 00bf 1d9c 24be b8eb e53d 43c7 023f
00000320: 05ff 87bd 7354 1bbe 3cc9 76be eec3 bf3d
00000330: cd68 db3d 2ca6 7d3a 6b53 3f3e 6117 503e
00000340: c6ec cebd 2e30 c93d d6ab 9abe 36b8 903e
00000350: ef18 783e 9e55 703c 1b89 9a3d 289d 64be
00000360: 6bc7 113e 4e12 043e 7b66 c5be 9a0a a93d
00000370: bac8 b83d 8d4f 7a3d 54eb 90be 7505 3d3e
00000380: 3d4b 0b3e aa21 963e fb9b 8b3d 3b75 d3bd
00000390: 135e 343d 8356 b23d 581a b2bd 8a9c d2bd
000003a0: aeb8 afbd 0a9c 9bbe 44d4 20be 24ee 01be
000003b0: 7e1c 60be 2cfa 283e 29aa 38be 29a7 09be
000003c0: e2ef 0bbd 8b82 533c b0b3 993c 2d52 203e
000003d0: a83b 703c bd0e 2abe 2573 143e ee82 3dbe
000003e0: 6569 62be 03ab 54bd a089 cabe ca39 07be
000003f0: 57b4 cd3e 7cf6 c23d 41f4 c63e ef1a acbd
0.0487028 0.20690018 0.06620257 0.111602046 -0.058094535 -0.15619035 -0.16299981 0.18263958
-0.38778904 0.03930641 0.097468585 -0.07497899 0.28083384 -0.18199359 -0.17592993 0.045905177
0.059160113 -0.16802871 0.15478607 0.03947733 0.2089489 -0.34829286 -0.14719915 0.017487716
0.04730495 -0.082159795 0.26327583 -0.20218119 -0.0013659757 0.11829947 0.005516625 -0.07040872
-0.022765437 0.12153449 0.11148099 0.015851073 -0.053906046 -0.3406548 0.20126453 0.22929005
-0.14047664 -0.22500138 0.1013247 -0.17094928 0.32103974 0.3074793 0.03909544 0.119660884
0.12736009 0.08924198 0.019305196 0.13995078 0.4130041 0.060708415 0.217582 -0.04296288
0.1506036 0.12722638 0.17524314 -0.41566277 0.22422618 -0.037124712 0.27564862 -0.10985339
-0.014344507 0.14018305 -0.23418015 0.23358117 0.06288617 0.10063664 0.03571883 -0.12663378
-0.008377993 0.26913777 0.2819877 -0.057182513 0.20880601 0.11350345 0.31992996 0.15753561
-0.09170799 -0.1587745 -0.028377064 0.09058638 0.24988614 -0.2582901 -0.11043838 -0.04998184
0.027392522 -0.3532412 0.033188373 0.05310393 -0.0337543 -0.2462068 0.5181534 -0.018145805
0.016629407 -0.10073859 -0.18958572 0.110910214 -0.19620769 -0.070909895 0.28553292 -0.008493178
0.27770808 -0.21120039 0.09360798 0.06179836 -0.099463746 -0.33695966 -0.034643244 -0.06228665
-0.07935416 -0.11310486 0.23342803 0.123450056 -0.0013528825 -0.068514556 0.26215667 0.017172987
0.15980011 -0.31724283 -0.084340975 -0.14444746 0.44520712 0.14320712 -0.14467387 0.13927743
-0.019180326 0.32145572 -0.3611878 0.063841134 0.19933291 0.056438323 -0.22540781 -0.19152665
0.036925975 -0.105689354 -0.08171739 -0.23597065 -0.24613555 -0.047877066 -0.056458864 -0.13605116
-0.21226002 0.53648156 -0.3500858 0.19908716 -0.007423188 -0.2915549 0.08141633 -0.5407474
0.16438596 0.124631874 -0.127675 0.11784696 -0.27034095 -0.31380764 0.5934361 0.040891573
-0.022333222 -0.294206 -0.4190928 -0.07396957 -0.15716955 0.21246518 0.15496586 0.2109895
-0.04997063 -0.04249396 0.03900942 0.017725118 0.26180065 0.018581642 -0.012844893 -0.12746514
-0.33004916 -0.008735627 -0.011461517 0.016258182 0.009822648 -0.07675823 -0.005771208 0.03631996
-0.011569409 -0.18738121 0.03401514 -0.2936338 0.1622183 0.26848653 0.064561725 0.3666459
-0.24403156 -0.21117452 -0.18529978 0.09949173 -0.5012705 -0.16075177 0.112266004 0.510853
-0.06640438 -0.15168934 -0.24100202 0.093635425 0.107133485 0.00096759456 0.18684165 0.20321418
-0.10103755 0.09823643 -0.30209225 0.28265542 0.24228261 0.01466885 0.07545682 -0.22325575
0.14236228 0.12897608 -0.3855475 0.08253975 0.090226606 0.06111102 -0.2830454 0.18459113
0.1360292 0.2932256 0.0681686 -0.10325094 0.04403503 0.08707907 -0.08696431 -0.10283764
-0.08580147 -0.30392486 -0.15705973 -0.126885 -0.21885869 0.16501683 -0.18033661 -0.13442673
-0.034164317 0.012909542 0.01876244 0.15656348 0.014662661 -0.16607185 0.14497049 -0.18506977
-0.22110517 -0.051920902 -0.39558125 -0.13205639 0.4017665 0.095196694 0.38858226 -0.08403575

gnn_layers.1.W0.weight f4 [128, 128]
00000000: 0a37 1f3c 1ac8 3fbe 3f45 683c 782a 5b3e
00000010: 9f5c 833e a6bb d1bd 2402 ccbd 7daf abbd
00000020: a80c 173d f968 663e cf57 b3bd ec77 62be
00000030: af6d 3f3d 18b4 30be 829f a83e 6b79 82be
00000040: eb5a dc3d 3b55 b8bd b524 cf3d efd3 8d3e
00000050: cc2b 433e 3d87 d7bd 3c2d 913d 6112 9ebe
00000060: 7195 9bbe 52ae d1bd f547 2f3e 3d0a 2b3e
00000070: 5715 5d3f fe86 e33d c101 e23d 8fb8 8fbe
00000080: a986 2d3e 56fb e6bd 1f75 17bb a5ce d7be
00000090: 61c1 11be b808 74be c5f6 53be bbd4 c3bd
000000a0: 7fc1 e0be 67f9 41bd 6d5b d53d 5cb0 cdbe
000000b0: 2daf 81bd 6f29 fcbd d242 18bf 70ad d03c
000000c0: 21ed 6a3e a3e5 91be 3590 0f3f 1279 ed3e
000000d0: bc30 053e 981e ce3d 4755 573e a12c 03bd
000000e0: be15 76bd b799 ed3d b07a 033e 277f 02bf
000000f0: e38c c9be 1bf7 72be 2a5d 71bd 95be 01be
00000100: e134 833e 6e60 d1bd 14e8 d33d bfd0 b43d
00000110: aedc 503e 2d54 92be acc9 093f 950a 443d
00000120: 6410 503d a8ac dd3d b1dc a1bd 9516 c13e
00000130: 4e18 de3e e411 8d3c 75ef 623d 56de d13d
00000140: 093c c2bd 9e73 d3be 0152 0cbf 0717 d13e
00000150: e338 613c 19f5 64bc b5b9 1fbb cd4c 213e
00000160: da5a 57be 1e2d 563e a627 9cbe 1759 b2be
00000170: 53bc 79bd 622f 94be 43c9 edbd f14e 2b3c
00000180: df65 a83e a360 d13e 75d2 253e 5ef7 b4be
00000190: 0f24 8d3e b619 7b3d 5f4c 9f3e 9307 323e
000001a0: b159 31be a1dd 0dbe 1f5a 43be 0208 6bbe
000001b0: 9c29 0c3b a239 91bd ef67 76be 4d0b 8fbd
000001c0: 9142 8e3d e3a0 15bd 4224 2c3e b7c8 a2be
000001d0: d6fc 573d 2de9 103e 57a4 15be 5d46 5dbe
000001e0: 9a50 9d3e a06a 7c3e 428a 0c3f bc38 3f3e
000001f0: e1fd 1b3d 9c35 ce3e 698e 7dbc c03e f4bd
00000200: a62e d73d bcc2 723e 7d10 053e e5da db3d
00000210: 2859 473d 5493 9abe 85d4 86be f2a4 52be
00000220: 8b40 133e d843 21bd 1065 f8be 97b4 c5be
00000230: 521c 783e 41c9 41be 91bc 13be 9ced 713d
00000240: 3825 1e3c 4c78 bd3e 6b45 b23e 85bb 7dbe
00000250: 2002 d4bd 0b6f 523e 26cd 903e c06d 34bf
00000260: 9276 a03e d774 febd 2f0b 1bbe 6fa5 80bd
00000270: 119f 21be 3f24 353e 7f9a a83e e320 843d
00000280: abbf 963d f731 6e3e 5fb5 14bf b8eb 2fbe
00000290: 51e3 533d 55bd cfbd e7d8 74bd 370f 653e
000002a0: 76b6 2f3d 824f 0b3f 3062 0c3d 923c 4d3e
000002b0: de10 653e a0b4 21be 6055 85bd 6ac8 87bd
000002c0: 1fae 74be 3985 93bd 8072 1b3e b809 71bd
000002d0: 8b96 7d3e 7269 513d 493c 54be a6c7 60bb
000002e0: 40d9 5c3e a5a0 34be 80da cebd b867 2ebe
000002f0: e2a7 e4be cdac a7bd 9201 0bbe eaef 723d
00000300: 6d1d 9cbc 0a53 b8be c607 11be 83bb c0be
00000310: 1225 073e c8f2 a83d 9516 2abc 86d9 113e
00000320: fea4 033e 4685 68bd 8714 3bbe 98ba afbe
00000330: 0b9b 4a3d e7c5 cabd 4781 7dbc 018f f33d
00000340: 1160 80be c090 4b3e 9131 1c3e ffc0 293d
00000350: 71cf adbe ba18 c4be 4336 ac3e 74dd eebd
00000360: b316 b9be cb74 84be 9986 81be 750f 023d
00000370: 90fa 363e 182d fc3b c155 f7bd aece 87be
00000380: 0ff4 aebd fd54 223e 3294 eabc 9b8e b8bc
00000390: 3cea c2bd e95e 283e 0ef1 253e 3943 69be
000003a0: 7ab8 af3c 5ed8 f33d 138f f73d 6040 cbbe
000003b0: 06dd 4f3d bf8e 14be bed6 623e 4228 7ebd
000003c0: 5f30 e1be 76f3 bd3e 16ad 23bd 4a89 a4be
000003d0: c855 913e 53eb c13e c4b6 1bbf 7b2c b43e
000003e0: ea9f 1fbd 49ba e33e 2f23 613c a775 56be
000003f0: 1903 31be 829f cc3c e83a 2fbe f7f3 52be
0.009717712 -0.18728676 0.014176666 0.2140292 0.25656602 -0.10240869 -0.09961346 -0.08383081
0.036877304 0.22500981 -0.087569825 -0.22116059 0.04673546 -0.172562 0.32934195 -0.2548326
0.10759529 -0.090006314 0.10114423 0.27700755 0.19059676 -0.105238415 0.07088706 -0.30873397
-0.30387452 -0.10238327 0.17117293 0.16703124 0.86360687 0.11109732 0.11035491 -0.28070495
0.169459 -0.11278407 -0.002311058 -0.42149845 -0.14233924 -0.23831451 -0.20699604 -0.095620595
-0.43897626 -0.04735699 0.10417829 -0.40173614 -0.0633224 -0.1231259 -0.5947696 0.025473326
0.2294202 -0.2849551 0.5607942 0.46381432 0.13006872 0.10064429 0.21028624 -0.032024983
-0.06007933 0.116015844 0.1283977 -0.5097527 -0.393653 -0.23727076 -0.05892674 -0.12670358
0.2562628 -0.10223471 0.10347 0.08828878 0.20396683 -0.28579846 0.5382335 0.047861654
0.05079688 0.10823947 -0.07903422 0.3771254 0.43377918 0.017220445 0.055404145 0.10247485
-0.09484107 -0.41299146 -0.5481263 0.4083788 0.013746473 -0.013974451 -0.0024372165 0.15751953
-0.21030751 0.20915648 -0.30499 -0.34833595 -0.060970616 -0.289424 -0.11610653 0.010455833
0.3289022 0.4089404 0.16193564 -0.35344976 0.27566573 0.061303817 0.31112954 0.17385702
-0.17319371 -0.13854076 -0.19077347 -0.22952273 0.0021387106 -0.07091071 -0.24063085 -0.06984577
0.0694629 -0.036530387 0.16810706 -0.31793758 0.052731358 0.1415145 -0.14613472 -0.21608873
0.30725557 0.24650049 0.54898465 0.18673986 0.038083915 0.40275276 -0.015475848 -0.11926031
0.10506944 0.23707098 0.12994571 0.1073511 0.04866901 -0.30190527 -0.26334015 -0.20570734
0.1438009 -0.03937134 -0.48514605 -0.38614342 0.24229553 -0.18924429 -0.14427401 0.059064493
0.009652428 0.37005842 0.34818587 -0.24778564 -0.10351968 0.20550172 0.28281516 -0.70479965
0.31340462 -0.12424629 -0.15140985 -0.06281554 -0.15783335 0.17689608 0.3293037 0.06451585
0.073607765 0.23261248 -0.5808925 -0.17179763 0.051730458 -0.10143534 -0.059777167 0.22369085
0.042898618 0.54418194 0.034273326 0.20042637 0.22369716 -0.15791559 -0.065104246 -0.06630023
-0.23894547 -0.072031446 0.15180397 -0.05884716 0.24764459 0.05112595 -0.20726122 -0.0034298687
0.2156725 -0.17639406 -0.10100269 -0.17031753 -0.44659334 -0.08187256 -0.13574818 0.05931083
-0.019057 -0.36000854 -0.14163122 -0.3764306 0.13197735 0.08249432 -0.010381361 0.14243135
0.12855908 -0.056767724 -0.1826955 -0.34322047 0.049464267 -0.09901028 -0.015472717 0.1189251
-0.25073293 0.19879436 0.15253283 0.04144382 -0.33947328 -0.38300115 0.33635148 -0.116633326
-0.3615013 -0.25870356 -0.25298002 0.031753022 0.1786902 0.0076958053 -0.12076903 -0.26524872
-0.08542644 0.15852733 -0.028635118 -0.022528937 -0.09517333 0.16442455 0.16205236 -0.2277955
0.02145027 0.11906503 0.12087836 -0.39697552 0.050747894 -0.14507578 0.2215223 -0.06205011
-0.43982217 0.37099808 -0.03995999 -0.32135993 0.28385758 0.3787485 -0.60825753 0.35190186
-0.038970865 0.44478062 0.013741299 -0.20943318 -0.17286338 0.024978403 -0.17112315 -0.20600878

gnn_layers.1.W1.weight f4 [128, 128]
00000000: b13d a1be c2d1 973e 38eb 7f3d 7642 9cbe
00000010: 8a1d 12be bcb7 be3e 791a c03e 360a 34be
00000020: 558b dabd eb74 5bbd 75a3 bebd c86a a83c
00000030: 91ca 8b3e b284 9f3e 3f70 02bd 90d9 f03c
00000040: 436d fc3d 7114 613d 9be1 27bd ab82 0cbe
00000050: 2573 54bd d62b 043e 09b7 fe3e 17c4 393e
00000060: dfd2 91be 90e4 1abe 72a6 f23b 88c3 0dbe
00000070: 0417 4d3d 9daa c0bc 3de2 6ebe ba5e df3d
00000080: 73e3 683e b95e ae3e c28d 9dbe e59a 05be
00000090: aa9e 113e 30bd 0f3e 5ce0 243e b394 dbbd
000000a0: 30b8 86bd 3746 93be 0f46 a3bc e179 db3e
000000b0: 292d 053d 8581 be3c 6497 3a3d b530 f5bc
000000c0: 184b cabd dbd5 513d d01f 023d 08d9 56be
000000d0: b49e 0dbe 3646 f4bd 471a 3a3e 4d24 343e
000000e0: a5f4 85bd 69f7 10bd e7ef 7cbd cf5a e53d
000000f0: 3d99 973d 066d 9fbc 9891 2f3e 5ec3 5abe
00000100: 8a5f 283d 7538 8a3e e63b 4a3d cdf0 8cbe
00000110: 43b9 073e f64d 263e 16ce cfbd 2da1 343e
00000120: 0bee 343e f687 c93c 8391 133e 6dc8 17be
00000130: 3169 18be a895 88be 4b4a 213e 1b68 51be
00000140: 68a1 1a3e ce68 a83e 0fd6 393e 3287 a5be
00000150: 2126 24be a4b8 17bf 6484 eb3d 5972 0cbf
00000160: 2c02 26be a075 863e a3be 90bc 36ad 3d3d
00000170: 48bd 2bbd 6bd9 793e 9af1 b13e 8c71 afbd
00000180: 9100 d13d bc1a bbbe c6f7 94be 2782 bc3e
00000190: b3ec 633e f8c7 8e3d ba3a 823b e2f1 88bd
000001a0: 11b7 cf3e f356 68bd ffbf 1dbd 48dc 373d
000001b0: dba1 91bd 5e82 fdbe aa29 16bc 06dd 5f3e
000001c0: a1cb d53d 2d13 263e 087a 103e 8284 8fbc
000001d0: 944a 3cbd 1214 bcbe 7426 5cbe 6500 0cbe
000001e0: 170d 00be 66ad 1ebe b69d 9fbd 1c21 453c
000001f0: 44d0 b5be d4f8 09bf 3327 d0be 5deb 7d3d
00000200: 01ef e1b9 42dd 1b3d 7ba5 74bd 9d4a 86be
00000210: db67 8ebe 4667 6a3e cb3e 34bd 5bcf a3be
00000220: d8e5 a13e 74a8 46be 7a85 06be 4cff b3bd
00000230: 2039 3fbd 4308 6b3e 2d8f 983d 68d5 fbbd
00000240: e568 78be 4cf7 38bd 3984 0abf 00d0 2c3e
00000250: b632 4ebd 99e5 80bb 5f2f cabd 3fb5 2d3e
00000260: 786c 90be f37e 0b3e f84e 3b3d 6da4 2ebe
00000270: 4c91 123c dd26 c73e 0225 fd3d 1bec b0be
00000280: 5ad4 733e 3364 23bd d9e4 133d eab5 873e
00000290: 4046 953d 0872 69bd eaf1 91bd 3063 5dbe
000002a0: 2e81 68be d174 193e 4c35 2a3e af94 ae3d
000002b0: 5d1c c7be 9760 cabd ab10 2c3e a70f 863b
000002c0: 85c7 9dbe f03a 45be 4dff ce3d 4b31 85bd
000002d0: ceb1 5dbd f9e8 e83d 3323 623d 7fd6 53bc
000002e0: 4a40 4dbe 0ed0 883e 6577 ccbd 4321 253e
000002f0: e890 86bd 28ad 18be 1d18 d8be 9e3e 8f3e
00000300: 9ea5 713e 6b01 963e 9fe1 71be 156b 40bd
00000310: efde 3cbe 812a ffbd c827 d4bd b72f 84be
00000320: f44f a53e 1e99 9ebd 4f67 933e a89e c7bd
00000330: 36c8 7fbd 03f8 7d3e 1870 29be 15eb 3e3e
00000340: d009 143e 0fe4 24be 6b76 8f3e 013f 823e
00000350: 7470 38bd 3ac0 72bd 996a 1fbe e100 613c
00000360: b5d1 3f3e cdb5 503d ad14 963c 697f 39be
00000370: 5be2 f1bd 1c07 73be 9beb 8a3d 0a1c 55bc
00000380: 2986 373d 5d9d 8b3d b0d6 ad3e 1828 993e
00000390: b392 8dbc eaba bbbe 773d 44be afc8 83be
000003a0: 55b8 4b3e b920 19be 3d21 2e3e 7f07 a03e
000003b0: 7f21 56be fb9a a4bd 7840 893e 1be5 a1bd
000003c0: 56a9 a53c c5bc 0d3e 0205 71bd fd42 8a3d
000003d0: 3fa8 93be 7f4d 043f 614a 453e c504 de3e
000003e0: 61e4 ffbd 9532 b8be 1e9d b93e ce81 49be
000003f0: 9036 9f3d bb26 423e a805 bebd bbb6 6c3e
-0.3149238 0.2965222 0.06248018 -0.30519456 -0.14269081 0.37249553 0.37520197 -0.1758202
-0.10671107 -0.0535783 -0.09308521 0.02055873 0.27302983 0.31155926 -0.031845327 0.029400617
0.123255275 0.054951135 -0.04098664 -0.13721721 -0.051867623 0.12907347 0.4974902 0.18141209
-0.28481194 -0.15126252 0.0074050957 -0.1384412 0.050070778 -0.023518855 -0.2332849 0.109067395
0.22743015 0.34056643 -0.30772215 -0.13047369 0.14220682 0.14037013 0.16101211 -0.107217215
-0.065781 -0.28764507 -0.019930867 0.42866424 0.03251377 0.02325512 0.045554534 -0.029930452
-0.09877604 0.05122934 0.03176862 -0.20981228 -0.13830072 -0.11927454 0.18174087 0.17591973
-0.06540803 -0.0353922 -0.061752226 0.11198961 0.07402275 -0.019461166 0.17145383 -0.21363589
0.04110674 0.26996198 0.04937353 -0.27527466 0.13254265 0.16240677 -0.1014673 0.17639609
0.17668931 0.024600964 0.14410977 -0.1482255 -0.14883877 -0.2667668 0.15750997 -0.2044987
0.15100634 0.3289246 0.18148063 -0.32329708 -0.1603017 -0.59266114 0.11499861 -0.5486198
-0.16211766 0.26261616 -0.017669028 0.046307765 -0.04192856 0.24399345 0.3475464 -0.08566579
0.10205186 -0.36543834 -0.29095286 0.36818048 0.22258262 0.06971735 0.003974286 -0.066867605
0.40569356 -0.056723546 -0.03851318 0.04488781 -0.071109496 -0.49513525 -0.009165207 0.21861658
0.1043923 0.16218252 0.14109051 -0.01751924 -0.04596956 -0.36734062 -0.21499044 -0.13672026
-0.12504993 -0.15495834 -0.07793753 0.01203182 -0.35510457 -0.53895307 -0.40654907 0.061992038
-0.00043093416 0.038052805 -0.059728127 -0.262288 -0.2781361 0.22890958 -0.044005197 -0.31994137
0.3162067 -0.19400197 -0.13136855 -0.087889284 -0.046685338 0.2295237 0.074491836 -0.122965634
-0.24258764 -0.045157716 -0.54108006 0.1687622 -0.05034133 -0.00393362 -0.098723166 0.16963671
-0.28207755 0.13622646 0.045729607 -0.17054911 0.008945774 0.38896838 0.12360574 -0.34555134
0.23811474 -0.03989048 0.036106918 0.26505977 0.0728879 -0.056993514 -0.071262196 -0.21619868
-0.22705528 0.14985968 0.16621894 0.08524453 -0.38888827 -0.09881704 0.16803233 0.0040912214
-0.30816284 -0.19260764 0.101072885 -0.065035425 -0.054124646 0.11372561 0.05520935 -0.012929558
-0.20044056 0.26721233 -0.0998371 0.1612597 -0.065706074 -0.14909804 -0.42205897 0.2797746
0.23598334 0.29297957 -0.23621224 -0.04697712 -0.18444417 -0.12459279 -0.1035915 -0.25817654
0.32287562 -0.077440485 0.28789756 -0.09747058 -0.062446795 0.2480164 -0.16546667 0.18644364
0.14456868 -0.16102622 0.28020033 0.25438693 -0.04502912 -0.059265353 -0.15568008 0.01373312
0.1873234 0.05095463 0.018320406 -0.1811501 -0.11810752 -0.23733181 0.067832194 -0.013007173
0.04480568 0.06817124 0.33952856 0.29913402 -0.017281866 -0.36666042 -0.19164072 -0.25739047
0.19894536 -0.14953889 0.17004867 0.3125572 -0.20911215 -0.08037373 0.26806998 -0.079050265
0.020222347 0.13841541 -0.058842666 0.06751058 -0.288393 0.5168075 0.19266655 0.43363014
-0.12494732 -0.3597609 0.36252683 -0.19678423 0.07774079 0.18960087 -0.092784226 0.23116581

gnn_layers.1.W2.weight f4 [128, 128]
00000000: 1e2b 6d3e 3203 4b3e cf3a ccbd 2cfc 9cbd
00000010: 3a1a 1c3e aaeb 433d 6b4b 963d fad9 bebd
00000020: ac8b 7a3e 9643 773d b9d7 1e3e 1a9d 1c3e
00000030: e4af 99be f456 c93e 896d 0cbe e804 043e
00000040: a579 87bd 4182 a4bd 5c13 8e3e 6252 e53d
00000050: f3ed 263d 503d 8bbd b920 ac3c c5f5 b73e
00000060: 5c34 83be 0286 0ebd c7c5 bbbd 8a99 5fbe
00000070: 4ce4 e3bd 8a78 903e 4757 f93c fd7b c43b
00000080: 48d8 debd a87a dbbd 46e9 a63e 1b5f 0ebe
00000090: ab79 9b3d 0ec6 40be 720a 7bbe 2c1f 1dbc
000000a0: 35cc 003d ddb7 343d 196b 94bd 4f91 07bd
000000b0: 2a17 17bd 8dc2 00bd 8ca4 d13e 5ee4 ca3d
000000c0: 1888 133e d196 9f3e 4983 85bd 44fe 993d
000000d0: 7543 aabe ab0f 8c3d 5058 953e 0b92 0eba
000000e0: 48c4 933e afb9 9fbe 527d 02be 97e1 11be
000000f0: 76b1 d83d b848 e03c b6ed 183d f1a8 bbbd
00000100: 5cf7 3dbe f758 a23d 01f1 283e 2f9a b0bd
00000110: 1965 c0bd 9d45 293e d4ac 733e 8341 043e
00000120: 872d 98bd fc4c d2bc 9f27 0cbc 449d 6abe
00000130: 72ad d73d 0503 66bc 5ce8 b6be 94d0 883c
00000140: 78a1 92be c5a8 433e 0b35 d23e 58b7 443e
00000150: 111a ec3c 411c 803b ef8e 913d 3d58 533d
00000160: 71d6 6c3e 81af 3fbe 1893 4fbc 953e cf3e
00000170: dde9 6bbc b87a a83e f6bc 583d 391e 96bd
00000180: ec0c 46bc 176c 393e 14f3 43be 25b0 79bd
00000190: b3df e23d 9972 a7be d1cf 93be 0f0b 24be
000001a0: 5cfb b73e e1cd 6abe 738a 69be 40e6 133d
000001b0: 7771 b93b 4824 36be a981 0fbe 82a9 493d
000001c0: 5843 483e 5558 acbc cf4e 25be 30cb f73d
000001d0: 0cb8 88be b879 b9bb 625e d13d c557 e7be
000001e0: 79c8 d43c 2cec 6fbd 8107 763e 039e 953d
000001f0: 2ac9 9f3d c673 fbbd a264 36be 9196 58be
00000200: 7a20 77be 723f 833e 8792 bc3c 55a3 8abe
00000210: 8954 943e 03b1 653e 5a24 523e 035c 0fbf
00000220: 1143 bdbc 3f35 553d c5e5 51be d5e1 e23d
00000230: a18e cf3c 041c 953d 44b4 38be e3a7 8a3e
00000240: e7cb da3e c774 9a3d d363 2fbe 0c16 4abe
00000250: 3a34 4ebd ecda 7c3e 7ff7 433c 42ea babe
00000260: 212a 1fbe 1ec1 2d3e d315 043d bf32 93be
00000270: d96b 883e d187 84be 2d8a afbd a6ff 8abe
00000280: b538 3f3e 1cc0 bb3e e6ec c4be c24c 763e
00000290: 517a 9fbd 2854 e3bd 26ee 91bd 61b7 183d
000002a0: 78b4 47be 99b7 0d3e df1c 09bd 898f 7bbd
000002b0: 84f1 b53e f6eb f13e 4142 bf3a 104d 4a3d
000002c0: 881f ecbd 405d 05bf ced7 043f 3554 75bd
000002d0: c7f2 9dbe b50e debd 4e68 babc 12e4 0bbb
000002e0: 4c21 6a3e fafc 9bbe 7c4a d63d 84be 4cbc
000002f0: 20ef 893d c48d a43d 3789 0a3e 966c 323e
00000300: 6a53 db3e 75b4 4dbe 269d a3bd ef85 a1be
00000310: 1922 173d e01a acbd 6392 1bbd 810c aebd
00000320: 3b4d 8b3e e2a4 3b3e afaf f83c ec0d 1b3f
00000330: ed5e 0c3e cb0f e7be 715f 81be f2f4 9ebe
00000340: 24fd 6fbe 7281 193e dec2 763e 5ed6 1dbe
00000350: 2391 23bd 3ca8 c43d ee2b 86be 2c9e 7b3d
00000360: e588 073e 7afd b8bd 7655 8f3d 34f4 51bd
00000370: 6844 d3bc a469 813e fbec 173e 48b2 21be
00000380: 0dca 133e f499 27be 590e 27bb 99eb 9c3c
00000390: 49b2 9fbe 84f0 0f3d 26be 37be b7f7 9ebe
000003a0: 1deb 0bbd bbb3 c93d c8d2 dc3e 29d1 17be
000003b0: 53b2 0c3e 2025 83be d52a 29be 5b92 a23e
000003c0: 69f9 e8be 5be1 67be e30d 60be 4340 f7be
000003d0: 889f 273e 8e3f 8cbc 048c 163d ed4f 49bd
000003e0: 5e2c 2a3d 30d7 45be 6c03 da3d b0f3 17be
000003f0: b861 95bd ae51 4dbe 8235 e3bd aa25 d5bd
0.23160979 0.19825438 -0.09972154 -0.076652855 0.1524438 0.04783217 0.073386036 -0.093189195
0.24467343 0.06036719 0.15511979 0.15294304 -0.30017006 0.39324152 -0.1371366 0.12892497
-0.06614999 -0.080326565 0.27749145 0.11197354 0.04075427 -0.06798804 0.021011697 0.35929695
-0.25625885 -0.03479577 -0.091685824 -0.21835914 -0.111275285 0.28216964 0.030437125 0.005996226
-0.10881096 -0.10716754 0.32599849 -0.13903467 0.07591566 -0.18825552 -0.24515703 -0.0095899515
0.031444747 0.04412066 -0.0724699 -0.03309756 -0.036887325 -0.031435538 0.40945852 0.09906839
0.14407384 0.3116975 -0.06519181 0.075192004 -0.3325459 0.06838926 0.2916894 -0.0005438632
0.28860688 -0.31196353 -0.12743118 -0.14246212 0.10580723 0.027378425 0.037336074 -0.091630824
-0.18551391 0.07927125 0.16498186 -0.08623158 -0.09394283 0.16530462 0.23796397 0.12915616
-0.07430559 -0.025671475 -0.008554368 -0.22911555 0.10531129 -0.014038806 -0.3572415 0.01670102
-0.28638816 0.19107349 0.41056094 0.19210565 0.028821023 0.003909618 0.071073405 0.051597822
0.23128678 -0.18719293 -0.012669347 0.40477434 -0.014399019 0.32906127 0.052914582 -0.07329983
-0.012088042 0.18107639 -0.19135696 -0.060959 0.110778235 -0.3270462 -0.2886949 -0.16019844
0.3593396 -0.22930099 -0.2280672 0.036108255 0.005659278 -0.17787278 -0.14014305 0.04923392
0.1955694 -0.021038214 -0.16143344 0.12099302 -0.26702917 -0.005660262 0.1022308 -0.4518415
0.025974499 -0.05857484 0.240263 0.07305529 0.07802041 -0.122779414 -0.17811826 -0.21151187
-0.24133483 0.25634342 0.023019088 -0.27077737 0.28970745 0.22430806 0.2052168 -0.55999774
-0.023103269 0.052052733 -0.20497806 0.1107823 0.025336565 0.07280734 -0.18037516 0.27081212
0.4273369 0.07541805 -0.17127924 -0.19734973 -0.050342776 0.24692887 0.011960863 -0.3650685
-0.15543415 0.169682 0.032247376 -0.28749654 0.2664478 -0.2588487 -0.08571277 -0.2714817
0.18673976 0.36670005 -0.3846199 0.24052718 -0.07787002 -0.11100036 -0.07125501 0.03728426
-0.19502437 0.13839568 -0.0334748 -0.061416183 0.35535824 0.47250336 0.0014591889 0.0493899
-0.115294516 -0.52095413 0.5189179 -0.05989476 -0.30849287 -0.10842649 -0.022754814 -0.0021345657
0.22864264 -0.30466443 0.104634255 -0.012496594 0.067350626 0.08034852 0.13528906 0.17424235
0.42837077 -0.2008837 -0.07988958 -0.31547496 0.036897752 -0.084035635 -0.037981402 -0.08498479
0.2720736 0.18324617 0.03035721 0.6056812 0.13708086 -0.45129237 -0.2526813 -0.31046253
-0.23436409 0.14990786 0.24097773 -0.15413806 -0.039933335 0.09602401 -0.2620539 0.06143014
0.13235815 -0.09032722 0.06998722 -0.05125828 -0.025789455 0.2527591 0.14836495 -0.15790665
0.14432545 -0.16367322 -0.002549073 0.01915531 -0.31190708 0.035141483 -0.1794363 -0.31048366
-0.03415977 0.09848734 0.43129563 -0.14825882 0.137399 -0.25614262 -0.16520245 0.31752285
-0.45502785 -0.2264456 -0.21880297 -0.48291215 0.1636945 -0.017120149 0.036754623 -0.04914849
0.041546218 -0.19320369 0.10645184 -0.14839053 -0.07294029 -0.2005069 -0.1109419 -0.104075745

gnn_layers.2.W0.weight f4 [128, 128]
00000000: 61d0 263e e45b 7bbe ac2f f63d 91ea 0abc
00000010: a5b5 453e ec42 9fbc c338 8a3c 2e4b acbb
00000020: 7613 b93b 171a 1fbe ed56 01bf 5852 a4bc
00000030: 6ed7 05bd 5e30 1b3e 42a2 8e3e 42f5 32bf
00000040: b019 8dbb a681 97be 3d48 66be 5920 9ebb
00000050: 4d53 9bbd 73b9 a8be 8f4e 1a3e c082 583e
00000060: cdff c63d a79c f2ba 0ac8 42bb dccd 993e
00000070: e6b0 2e3e a16c d7bc 32e6 8abc 60e0 21bc
00000080: 4a6a c5bc fcd3 aabc a992 8e3d 4974 193c
00000090: 52d8 a93d 7fe7 313c af54 10bf 4043 9cbe
000000a0: 2b98 f43d 2e24 253d 45f6 573e 62b0 34bc
000000b0: 8ae7 e0bc 9bd2 41bc e0ae 44bd 4e78 f83d
000000c0: 0990 bdbb ce64 533d 5bc3 233c ef0e b03b
000000d0: f29a d6bc 09ac 37be d1d4 efbb b171 283e
000000e0: 7481 883c b347 8c3e 9607 7ebc 21f8 3ebe
000000f0: c9f1 36be 08da 06bc 4b58 353e 5d42 02be
00000100: 67c1 8f3d 961b 273e 45ee 18be 910e 1dbe
00000110: f590 8c3e 0549 a4ba 447a 98be 8aa4 f3bd
00000120: 667e bdbc dadb d3bc 6627 d4bc d8b0 5f3b
00000130: ad75 00bc 565c ce3d 6819 6f3e f3bb 0abd
00000140: 7f59 8fbe 37e8 15bd e9b2 1cbe 7a74 22be
00000150: ff92 033e c0cf 97bd 96d8 93bd daa5 5ebe
00000160: 810a d5bd 1521 ad3b c3b0 92be bace 853e
00000170: ef70 f03d 5fbb be3e 2d33 19be 822f 75bd
00000180: ee7e bd3d 5c4a 8f3e 2004 c63e b9c4 953b
00000190: 98ca 483e 0c31 8f3d 9352 dd3c 13b5 9abe
000001a0: cbac 46be 9e62 ddbe f23c 183c fa19 95be
000001b0: 3bb3 84be c6db 893c 8d82 b2bd 383c d9ba
000001c0: 2ca7 3fbe a559 9c3d b07a 8abe e221 c3bc
000001d0: d271 a53e fa27 7d3c c031 07be 938c b8be
000001e0: eb99 d8be 01c7 e23b 17f6 4e3b d201 6bbe
000001f0: c38a 08bc 882a a4be 9e79 533a 8e61 12bd
00000200: 4a1c 2b3d 4241 07bf 53fc f4bc 9738 153c
00000210: 16e2 35be c40c 233c f984 93bb 206c 05bc
00000220: e932 cb3b 78db febd f1f2 ce3d df8b 1abd
00000230: 548e 69bd dba7 acbd f3e9 a43e 391e b1be
00000240: 08f3 603c 2f96 333d 1137 033e 76b4 ffba
00000250: 0280 2b3e a650 353e 4f7d 06be b9db 52be
00000260: a082 b7bd 1e27 b4bc fd07 203e 3119 99be
00000270: cc50 49bc 396c 6ebe 47a9 a13c 19cf 51bb
00000280: 48e1 f83d d481 0abb 669a 3a3e a061 0d3d
00000290: 0168 1bbe d5f7 a8ba 8305 3c3e 70ee 1e3c
000002a0: 9da4 fbbe 0915 b1be 3ed1 8fbe 2a34 433c
000002b0: cf7c 19be 80d4 02bb 4ec0 dbbd 82c4 09bf
000002c0: 8e27 2b3c 182a 493e e0ca 203d c589 dd3b
000002d0: 8109 25be fe03 8b3d ecd6 7f3c f7a3 f93d
000002e0: 6f2c b63e 2e95 a0be 8ad1 6ebc c9c9 8f3e
000002f0: a4e8 2b3e 7004 ad3a e426 b0be e026 983c
00000300: dd2f 10be 9ae7 da3d 41cb 843d 4c64 70be
00000310: be78 553e c8d3 063c 931d 033d fee2 c9bd
00000320: bd1a 823e 68f9 623b 2394 a8bd 4f75 163c
00000330: e224 0cbb 0b26 ef3d 06ce 8cba c240 1ebe
00000340: bc3e 3abd 1b2d cd3c 7e21 f43d 9623 ebbe
00000350: df34 1d3e 04ac 91be b795 72be eece 2cbe
00000360: de2c b93e 08c6 43bc 0504 e43d 50e2 8a3e
00000370: fa78 1fbe ed9a 68be 84c8 bc3b 1b66 693d
00000380: cc90 1dbc 7b71 883c 86b2 58bc cc2b 173b
00000390: f214 d5be fb24 7abd f68e b33e ffb8 62bd
000003a0: 3b00 183b 4742 3bbf c924 a23c f91b 2ebe
000003b0: f623 e83d d387 3f3c b087 1b3f 7585 ab3b
000003c0: 573c ad3e 4b1b d23d 9e07 62be a270 b0be
000003d0: 896c b6bd 9059 6b3c dbae 7a3d 0f2e 473e
000003e0: 02cd b0be 52ee 5ebc bc98 7cbc 2bea c4bd
000003f0: 4594 d43c 2b7e 03be 3c96 27ba c1b1 20bc
0.16290428 -0.24546772 0.120208114 -0.008478777 0.19307573 -0.01944109 0.01687277 -0.0052579856
0.005648072 -0.15537296 -0.50523263 -0.020058796 -0.032676153 0.1515517 0.27858168 -0.69905484
-0.0043060407 -0.295911 -0.22488494 -0.0048256335 -0.07584248 -0.32953987 0.1506903 0.21143627
0.09716759 -0.0018509821 -0.0029721283 0.3003987 0.17059669 -0.026296915 -0.016955469 -0.009880155
-0.024098534 -0.020853035 0.06961567 0.009366103 0.08293213 0.010858416 -0.56379217 -0.30520058
0.11943086 0.040317707 0.21090038 -0.011028381 -0.027454156 -0.011829997 -0.048018336 0.12132321
-0.0057849926 0.051609807 0.009995307 0.005372874 -0.02619693 -0.1793672 -0.007319071 0.1644962
0.01666329 0.27398452 -0.015504738 -0.18649341 -0.17865671 -0.008230694 0.17709462 -0.12720628
0.070193104 0.16319117 -0.14934643 -0.15337588 0.27454343 -0.0012533969 -0.2978078 -0.11896618
-0.02313156 -0.02586167 -0.025897693 0.0034132507 -0.007840556 0.100762054 0.23349535 -0.03387065
-0.27997968 -0.03659841 -0.15302624 -0.15864745 0.12849043 -0.07412672 -0.07219045 -0.21742955
-0.10402394 0.0052834847 -0.28650483 0.26134282 0.117402904 0.37252328 -0.14960928 -0.05985976
0.092527255 0.2798642 0.38675022 0.0045705703 0.19608533 0.06991777 0.027016914 -0.30216274
-0.19401853 -0.432393 0.009291874 -0.2912138 -0.25917992 0.016828429 -0.08716307 -0.0016573733
-0.18716115 0.07634286 -0.27046728 -0.023819868 0.323134 0.015451426 -0.13202572 -0.3604475
-0.4230493 0.006920696 0.0031579786 -0.22949913 -0.008333865 -0.320637 0.00080671336 -0.035737567
0.041775025 -0.5283395 -0.029905474 0.00910773 -0.17762026 0.009951774 -0.0045019356 -0.008143455
0.0062011373 -0.12444204 0.10104931 -0.037731048 -0.0570205 -0.084304534 0.3220974 -0.3459337
0.013729818 0.043844398 0.12813975 -0.0019508738 0.1674805 0.17706546 -0.13133739 -0.2059163
-0.089604616 -0.021991309 0.15628047 -0.29902032 -0.01228733 -0.23283471 0.019734038 -0.003201431
0.12152344 -0.0021134512 0.18222961 0.03451693 -0.15176393 -0.0012891243 0.18361478 0.009700403
-0.49149027 -0.3458636 -0.28089327 0.011914292 -0.14989017 -0.0019963086 -0.107300386 -0.5381547
0.010446442 0.19644964 0.039255977 0.006760808 -0.16116907 0.06787871 0.015615206 0.12189477
0.35580775 -0.31363815 -0.014576325 0.28083637 0.16787964 0.0013200175 -0.3440467 0.018573225
-0.14080758 0.10688706 0.0648408 -0.2347576 0.2084684 0.0082292035 0.032010626 -0.098577484
0.25411025 0.003463352 -0.0823138 0.009183242 -0.0021384289 0.11677178 -0.0010742552 -0.1545439
-0.045469984 0.025045922 0.11920451 -0.45925587 0.153522 -0.2845155 -0.23689924 -0.16875812
0.36167043 -0.01194907 0.11133579 0.27125788 -0.15573493 -0.2271535 0.005761208 0.05698214
-0.009617042 0.016655674 -0.013226157 0.0023066876 -0.41617543 -0.061070424 0.35070008 -0.055352207
0.0023193497 -0.73148006 0.019792931 -0.17002858 0.11334984 0.011690098 0.6075392 0.005234415
0.33835098 0.10259112 -0.22073218 -0.34460932 -0.0890742 0.014364615 0.06120191 0.19451164
-0.3453141 -0.013606625 -0.015417274 -0.096149765 0.025949607 -0.12841098 -0.0006392931 -0.009808005
