aca_backend_api/models/tca/gnn_fold3.pt (torch, 764673 bytes, 12 tensors)

node_emb.0.weight f4 [77, 128]
00000000: 2388 a6be 2474 aabe 3d42 94bd 0f5b 00be
00000010: fd13 7b3e 31b8 4c3e 64f9 babd 0570 1cbf
00000020: 1aae be3d 28de babe 2e13 cf3d 5550 b63d
00000030: 05d0 0d3d ff11 b73e 7730 a53e 6c4e 92bd
00000040: b714 c8be 8fdb fabe 76a2 273e 4fbf 6a3e
00000050: 6728 313e 9d06 e6be aaf8 c9bd b20b 093f
00000060: 46ee 5d3e d735 2dbe 0030 4dbd 851d 593d
00000070: e482 cd3e 6aa5 ea3e 22f9 8b3e a496 79be
00000080: ba84 35be f889 153c f7bf 11be 25fa 923d
00000090: 7213 023e f804 053d 6591 3d3e 0c82 023e
000000a0: 8522 f2bc 876e 6a3e e762 abbd 3989 783c
000000b0: 93ad 1a3e 8c44 2a3f 4046 d9be ddb2 eabe
000000c0: 461f 47be 351b 813e d21a 9c3e 4f73 523d
000000d0: cd47 88bd 10ca e7bd 4fb9 203e 29cd e9bd
000000e0: 4201 04be 021b 5c3e 76fa e03e 243c 7c3f
000000f0: 047d e2be cd8c b6be 4c95 063f 6b29 23be
00000100: fe66 28be 3d14 883e 1c4f a43e 7dcb be3e
00000110: 55a5 dabe 29de 3d3f ecf6 0bbe d588 c63d
00000120: 4101 f1be 1fa2 22be 73f3 0dbe 8fd2 13be
00000130: 04d3 9dbe 47eb a43e 8476 26bd 865e 6e3e
00000140: 13ed dcbc d240 4b3e 8300 78be b514 8739
00000150: a40f 793e 1db0 ecbd 34c1 993e 92e8 d33d
00000160: 8a8c 91bd 734a 2a3f 752a 0bbf ed5f 6bbc
00000170: a591 9abe 8b7b 8dbe b3b7 1e3c 7611 523e
00000180: a873 f33e 4531 c9be 48de cb3d 9dcb 193e
00000190: 1047 41bf 3df0 fabe de0a 87bd b9a3 a53d
000001a0: 1819 923d 4cf7 b53c f3fc c73d 636d 063e
000001b0: a22d 073e e800 80be 2523 673e 8616 89be
000001c0: 117a 81bd 0d18 34bf 8f90 acbc 73de 20bc
000001d0: 0e5f 8e3e 6297 ce3d 524c 88be 6ffe 84bc
000001e0: 6237 38be 4a2f 09be c221 0e3f 5a2c eebd
000001f0: 419e 123d 8d4a ac3e d494 883e 9234 cd3e
00000200: 62ef 0bbe 07df 09be 663c 0abe 8ec6 9d3d
00000210: 3f62 0f3e c9a4 633e 9d9e 293f 5399 a5be
00000220: 023e 163e 3bec 26be ad42 9bba 0298 08bf
00000230: c108 c7bd 1995 88be 5d8a d3bb e4e1 c23d
00000240: a5d5 05bd 0bde ccba 789f 9a3d 1688 e53e
00000250: 7ce5 023f 7df5 3e3e 2af8 573e 7349 b4be
00000260: 9faf 623e 9a7f 28bf 3401 29bf 881c ed3d
00000270: 9c5f 4cbe 8ac5 813e 8a63 cdbe 8003 613d
00000280: e701 b03d e78f 8bbe 860e 713e 731d fbbe
00000290: a0eb e63e c05e 2fbe 7e17 593e c786 b0ba
000002a0: 85aa c53e 3059 8bbd 0f50 b9bd b2a4 66bc
000002b0: 0f33 e1bd 8742 8dbe 5954 03be cb49 7abe
000002c0: 21bf 853d 7d11 e0be ea00 eabe cbfd bc3c
000002d0: b560 4d3e 2443 e63c ee06 183f 2cfc a03e
000002e0: da06 89be 601a 8ebd df80 5a3e abac 78bd
000002f0: c2da 853e cff9 04bf 8338 b6be e8a3 d4be
00000300: 0127 a53e 1ca6 d43e a8d1 f03d fcfb 5abe
00000310: e1d6 f8bd 913a f63c a393 94bc 5d78 283e
00000320: f2f7 59be 79ef 93be fec0 583d 0a0a 653e
00000330: 91eb 7d3e 9715 34bd 87a0 703e d401 c5bd
00000340: a719 c33e 5490 5cbb 48de c73e 6b5e 1b3f
00000350: 35bc 80be 281e 8a3e 857b e5be 26eb 5dbe
00000360: 5d7f b03e 4077 a73e ac84 37be efaf 0e3e
00000370: 6e4a f13d 73c3 e73d ec0a 2abf 6d97 c6be
00000380: 1a0f 8fbe 7e75 cf3e 893d 753e 382e aa3e
00000390: fba5 00be 4c70 653e 95d5 863a 36b8 f8be
000003a0: 611b c6bd 0c49 8ebd 5246 8dbd a892 073e
000003b0: 7b35 99be 6205 d33e e52c f83e 2c01 c6be
000003c0: 5415 9fbe 9465 c8be 167b adbd 9c22 9cbe
000003d0: b102 043f 3eec 64bd 53e5 803e ee54 30be
000003e0: 5d33 93bc 2eb6 d13e 70e1 eb3e 46ba 09be
000003f0: c5a0 e1be 6989 0cbe 736f 343f 14b4 963e
-0.3252574 -0.33291733 -0.072391964 -0.12534736 0.24519344 0.19992138 -0.09129599 -0.6110843
0.09310551 -0.36497617 0.1011108 0.08902041 0.03462221 0.35755917 0.32263538 -0.07143864
-0.39078304 -0.48995635 0.16370568 0.22924541 0.17300569 -0.4492692 -0.09861882 0.5353347
0.21672925 -0.1691507 -0.050094604 0.053006668 0.40138924 0.45829326 0.2733851 -0.24373871
-0.17726412 0.009127133 -0.14233385 0.071766175 0.1270273 0.03247544 0.18512495 0.12744921
-0.029557476 0.22893725 -0.083684735 0.015169435 0.15105276 0.66510844 -0.4243641 -0.45839587
-0.19445524 0.2521607 0.30489212 0.051379498 -0.0665432 -0.11317837 0.1569569 -0.11416084
-0.12891105 0.21494678 0.43941087 0.9852927 -0.44236004 -0.35654297 0.5257156 -0.15933768
-0.16445538 0.2657794 0.32091606 0.37264624 -0.42704263 0.74167114 -0.13668412 0.096940674
-0.4707127 -0.15882157 -0.138624 -0.1443579 -0.30825055 0.32210752 -0.04064037 0.23278245
-0.026968515 0.19848946 -0.24218945 0.00025764634 0.24322373 -0.115570284 0.30030215 0.10347094
-0.07106884 0.6651985 -0.5436166 -0.014366132 -0.30189243 -0.27633318 0.009687352 0.20514473
0.47549176 -0.39295402 0.09954506 0.15019079 -0.7549906 -0.49011412 -0.065938696 0.08087868
0.071336925 0.022212647 0.09765043 0.13127665 0.13201001 -0.2500069 0.22572 -0.26774997
-0.063221104 -0.703492 -0.021065025 -0.009818661 0.27806896 0.10087468 -0.26620728 -0.016234605
-0.17989877 -0.13396946 0.5552026 -0.11629553 0.035795454 0.33650628 0.26676047 0.4007917
-0.13665536 -0.13463984 -0.13499603 0.07703887 0.14002322 0.2223083 0.6625765 -0.3234354
0.14672092 -0.16301052 -0.0011845432 -0.53356946 -0.097184666 -0.26676252 -0.006455703 0.095157415
-0.03267445 -0.0015630139 0.075499475 0.44830388 0.51131415 0.18648334 0.21090761 -0.35212287
0.22137307 -0.65819705 -0.6601746 0.115777075 -0.19958347 0.25346023 -0.40115005 0.05493498
0.08594113 -0.27258226 0.23540697 -0.49045905 0.45101643 -0.17125988 0.21200368 -0.0013467901
0.3860666 -0.068041205 -0.09048473 -0.014077352 -0.10996067 -0.2758982 -0.12825145 -0.24442212
0.065305956 -0.43763342 -0.45703822 0.023070237 0.20056422 0.028108187 0.59385574 0.31442392
-0.2676304 -0.069386244 0.21338223 -0.060711544 0.2614346 -0.5194368 -0.3558999 -0.415313
0.3225632 0.4153298 0.11758739 -0.21385187 -0.1215036 0.030057224 -0.018136805 0.16452165
-0.2128599 -0.2889364 0.052918427 0.22367111 0.24796893 -0.043965902 0.23498736 -0.09619489
0.3810551 -0.0033655362 0.39036775 0.60690945 -0.2514359 0.26976132 -0.448208 -0.21671733
0.3447217 0.32708168 -0.17921704 0.13934301 0.117817745 0.11316576 -0.66422915 -0.38787404
-0.2794121 0.40519327 0.23949255 0.33238387 -0.12563317 0.22406119 0.0010287041 -0.48578042
-0.09673191 -0.06947526 -0.06898178 0.13239539 -0.29923615 0.41215044 0.48471752 -0.3867277
-0.3107096 -0.39139998 -0.084707424 -0.30495155 0.51566607 -0.05588936 0.2517496 -0.17219898
-0.017968828 0.40959305 0.46070433 -0.13449964 -0.4406797 -0.13724293 0.7048256 0.29434264

gnn_layers.0.W0.weight f4 [128, 128]
00000000: bd8d 00be a4d7 3c3f 9cef 50bd 24a2 d53e
00000010: 47f0 94be 7699 84be 6299 a7bb 007e 973e
00000020: e372 85be b48e db3c b8c2 2abe f1e7 0bbf
00000030: e225 c9bd 855e 4e3d 5b61 b13d db43 bcbd
00000040: 66ae 01be b5b1 74bd 77a2 96bd 5254 5a3e
00000050: 4d39 723e fe67 f8bd efda 39be d305 78be
00000060: cb87 8f3e d94e 7d3d c1fe 00bd c4cc 553e
00000070: 27ab 3f3e bd0f 3dbe 5f8e 823e 5229 cfbd
00000080: d5b5 1fbe f468 05be be87 0ebe 9faa 8b3e
00000090: 5501 b8bd f7b1 9ebe 1508 d73d 4453 293e
000000a0: 5932 5f3e dc2b 953d ff63 03be 0192 bebe
000000b0: 1088 97be 3037 50be e4fc c6be 5ff9 243d
000000c0: 2cb3 083e 725e 393e ffbc 55be 5ff5 1a3f
000000d0: 8f0b 203f 40aa 903d f886 143e a17c b73c
000000e0: 6e89 703e 17e7 1cbe 4cde b63e c99f b13e
000000f0: cb0e 1abf 4583 bc3e 091f 47be 1945 3dbe
00000100: 21e6 1abe 6fa1 f7bd 1b4e e73d 8919 a73e
00000110: 7dc6 053e cbad d83e 03bf fabe 4228 0ebd
00000120: 3f85 57bd 943b 0b3e 5047 2b3e 40a8 853e
00000130: af5c 0d3e c517 263d c5a9 67be ced6 8f3e
00000140: 1b1c b8bd 98d2 aabe 1274 02bb beea 833d
00000150: e452 c43e 3458 693e 34a8 60bd d628 41bd
00000160: f665 91bb e4b6 ca3b a992 663e 5370 15be
00000170: fac4 cbbd 9c81 463e 830d cfbd d016 dc3c
00000180: cd5f 733c fada b03d d81b 073d dfce d8be
00000190: 267b 60bd eb97 9abc a4c8 a83d fd21 2fbe
000001a0: 8558 583e 670c 61be 67bd a7be f14b 723e
000001b0: dc51 633e 8930 7abd 35e4 aebe ddb8 c0be
000001c0: 70bb 173e 9d26 55bd 4612 8c3e 80f0 76be
000001d0: e6fa 63be 9f82 7ebe 77f0 84bd b9dd 173d
000001e0: 3be4 fdbc 2ce8 12be ba1b 82bd 0de4 39be
000001f0: 4c1a aabb 4365 06be b958 ee3d 462c bbbd
00000200: 60e7 53be fa04 153e f244 53be 19fc cdbd
00000210: d6a1 58be d60d 96be a0b0 243d 2d7b acbc
00000220: 20ce 8e3d 4797 793d da04 ae3e 286f 843e
00000230: a3e2 c6bd d447 6bbe a23f e4bc d0f1 863d
00000240: 6ea3 c83c 4b32 08be 990e 91bd be98 6fbe
00000250: 44cb b23c 7efe 81be 0836 efbe 9868 1c3f
00000260: dc3e 49be 8742 f93e 9812 b5be 1cee 143e
00000270: d091 adbe c879 2b3e ec8e 2c3e 7bdc 07be
00000280: 1912 b3bd 2383 5abe 580f a4be fdcf 6a3e
00000290: b53e e73d 3a6d 443e 098b 943e cd98 bc3e
000002a0: 5362 a1be 3331 ef3d 97bd 06be e270 acbd
000002b0: 79ed c23e ef78 6a3c cd1e 02bc 64a4 51be
000002c0: ffc1 48be e6fd cfbd 3a76 2b3e 588c 733c
000002d0: 6267 01be 0171 8bbc 0683 383e 6f09 5b3c
000002e0: 4b4b e63e a401 46be 4286 b73e 7e69 e7bd
000002f0: 81b0 683e da0d 2f3e 375c 123c 418f 6abe
00000300: 8140 6bbe 1161 41be 4fa8 73be afae 36be
00000310: 0267 13bd c480 a0bd 4baf 24be 9693 f9bd
00000320: 717a 63bd 7a04 463e f715 d9be 4388 3d3e
00000330: 26a2 07bf b9a1 a2bd 3cb8 ac3e ea56 11be
00000340: a601 8ebe 8612 cbbe 7916 58be 2c28 5b3e
00000350: c207 9ebc 6521 e1be 8b55 a53d e3a4 ff3e
00000360: a5c9 46be 3315 9c3d a2bd 9bbe bc15 e8bd
00000370: cd8c 753e 8458 793d 4bc4 4ebe f294 c03e
00000380: b6f9 c93d e72d 8a3e a332 be3d 8832 8fbe
00000390: d2fe 813e 7f2e 15be fae2 95be 3ea5 13bd
000003a0: 84b6 c93d 04f6 a13e 11c6 20be 5e93 ae3e
000003b0: 21de 2a3e ea6e 0b3f 173f d0be 23fd d6bd
000003c0: 6a65 43bd 308b 1f3e 66ee 3bbd 619d 72bd
000003d0: 4e7e fcbd 21cf b8bd 4a3a cb3d d8c7 01bf
000003e0: 2c0f 98be 1be9 15be b175 1b3e d93e 9fbc
000003f0: 9037 503e 0140 163e b1fe 983e c089 323e
-0.12554069 0.7376654 -0.05100976 0.41725266 -0.29089567 -0.2589833 -0.00511472 0.29588318
-0.26064214 0.026801445 -0.16675842 -0.5465079 -0.09821679 0.05038311 0.08661147 -0.0919263
-0.12664184 -0.059739787 -0.073552065 0.21321228 0.23654671 -0.1212921 -0.18149923 -0.24220972
0.2803329 0.061842773 -0.031492952 0.20878893 0.18717633 -0.18463035 0.25499246 -0.10115303
-0.15596707 -0.13028318 -0.13918969 0.2727861 -0.08984629 -0.3099515 0.104995884 0.1653567
0.2179655 0.07283756 -0.12831114 -0.37220767 -0.29595995 -0.20333552 -0.38864815 0.04027688
0.13349599 0.18102434 -0.20872878 0.60530657 0.62517637 0.070637226 0.14504611 0.022398295
0.23489925 -0.15322529 0.35716474 0.3469222 -0.6017882 0.368189 -0.19445433 -0.1848339
-0.1512685 -0.12091338 0.11294194 0.3263667 0.13063999 0.42320094 -0.48973855 -0.03470636
-0.052617308 0.13596946 0.16726422 0.26104927 0.13804887 0.040550012 -0.22623356 0.2809357
-0.08989736 -0.33363795 -0.001990561 0.06441258 0.3834449 0.22787553 -0.05484791 -0.047158085
-0.0044372035 0.006186353 0.22516884 -0.1459363 -0.0994968 0.1938538 -0.10109999 0.026866347
0.014854384 0.086355165 0.03298554 -0.4234533 -0.054804944 -0.018871268 0.08241394 -0.17102809
0.21127518 -0.21977387 -0.3276169 0.23661782 0.22199196 -0.061081443 -0.34158483 -0.3764104
0.14817595 -0.052038778 0.27357692 -0.24115181 -0.22263679 -0.24854515 -0.064911775 0.037076686
-0.030992618 -0.14346379 -0.06352945 -0.181534 -0.005191123 -0.13124566 0.11638016 -0.09139304
-0.20693731 0.1455268 -0.2063177 -0.100578494 -0.21155486 -0.2930743 0.040207505 -0.021054829
0.06972909 0.060935285 0.33988076 0.25866055 -0.09711196 -0.22976619 -0.027862374 0.06589091
0.024491992 -0.13300435 -0.070828624 -0.2339811 0.02182544 -0.25389475 -0.4672091 0.610971
-0.19652885 0.4868357 -0.35365748 0.14543957 -0.3390031 0.16745675 0.16851395 -0.132677
-0.08743686 -0.21339087 -0.32042956 0.22930904 0.11291257 0.19182292 0.29012325 0.36835328
-0.31520328 0.11679306 -0.1315826 -0.08419968 0.38071802 0.014311059 -0.007941914 -0.20472866
-0.19605254 -0.10155849 0.16744319 0.0148650035 -0.12637094 -0.017021658 0.18018731 0.013368948
0.4497932 -0.19336563 0.35844618 -0.11299418 0.22723581 0.17095128 0.008933119 -0.2290621
-0.22973825 -0.18884684 -0.23794673 -0.17840074 -0.035986908 -0.0783706 -0.16082494 -0.12186353
-0.05553669 0.19337645 -0.4239957 0.18509011 -0.52981794 -0.079410024 0.3373431 -0.14193311
-0.27735633 -0.3966257 -0.21102323 0.21402043 -0.019290809 -0.4397079 0.08072957 0.49930486
-0.19412859 0.07621231 -0.30418116 -0.113322705 0.23979492 0.06087543 -0.20192067 0.37613636
0.09862082 0.26988146 0.09287002 -0.2796824 0.25389725 -0.14568518 -0.29274732 -0.03604626
0.09849265 0.31633008 -0.15700556 0.34096807 0.16686298 0.54466116 -0.40673134 -0.10497501
-0.047704138 0.1558044 -0.04588165 -0.05923212 -0.12328778 -0.09023882 0.09923227 -0.5069556
-0.29699075 -0.14639704 0.15181614 -0.019439148 0.20333695 0.14672853 0.29881814 0.1743536

gnn_layers.0.W1.weight f4 [128, 128]
00000000: b087 df3d 55b7 14be 037a eebc bb8f 823e
00000010: 5edf 8abe e747 4fbd f327 623e 3b3a 853e
00000020: 0235 4ebe 7104 03be 25e5 093e 36af 03bf
00000030: c0a4 38be 2e6e 4bbe cfa1 eb3c 43c8 c1bc
00000040: 903d ac3b d27b 05be f77f 213e b521 903c
00000050: b399 b2be a9ee 1abd a9dd fcbd 1291 32be
00000060: 7d41 2f3e a36b a2be a39d d9be 01cd 643e
00000070: 9aed b63c d586 afbe b00a 533e 3a5d a8be
00000080: f1d8 9cbd a654 563e 8826 c4bd 8f6d aa3e
00000090: 7f52 2ebc 50ee 4bbd 28fd 23be 2899 a2bb
000000a0: c6b8 013e 1a3f 35be d828 28bd 109e 323e
000000b0: f4c6 a83a 55cb b3be 4aa0 1ebc f305 343e
000000c0: 62d2 cabd c09e f3bd 9dfa c3be 38a9 833e
000000d0: 8855 773e a8c6 ccbe 31ec a5be 3103 593e
000000e0: fc8d b1be ede9 043e 34ee 063d 282c 13be
000000f0: f35d bfbb f7a1 87be f1dc 02be 26e9 82bc
00000100: 4199 933e b359 593e e91d e93d d0d2 463d
00000110: d3cc 1cbe cbc1 88be 6eec 053f 16d5 133e
00000120: f4f8 dfbd 0d7f e53d 504e 0c3f fc2a da3e
00000130: aca7 743e f576 41be e2e7 01bf 6f8f bf3d
00000140: d68e 0a3f a05f 6abc 719a fd3d 374e 213e
00000150: fd61 58be 9c32 83bb ea9f 433d 99b4 0dbe
00000160: 8be9 973e 0a1e a9be 0152 02bf 81c1 59be
00000170: 1256 c93e d741 80be ce1d 113d 5390 0cbe
00000180: 47dc d3bd 0319 903e 4f81 79bd 0037 18bd
00000190: af1a 2ebd a49a 973d 37a5 0abe b049 793d
000001a0: a9d3 aa3e d782 b63d 6159 d43b 0793 58be
000001b0: c94d dfbe ec0a eb3d 19a3 4e3e 2dfb e1bc
000001c0: 997d 023f b955 493e 0a89 f9bd f529 8dbd
000001d0: 81f0 f93d dd41 06bd 5250 80bc 010c 28be
000001e0: e91c 3b3e 62f8 a03e b50c af3d 62c1 4abc
000001f0: 7196 fcbd 02bf a9bd ae47 0d3e c6be 963e
00000200: 906a 573e 6565 88be a88e 8fbe 62b9 0abe
00000210: bf04 64be d63b 13be d9aa 183e 1a7c a43d
00000220: 8d70 82be 0fda 1ebe 80ab 4cbd c56c 813d
00000230: 53f7 fabc d9be d83e b6e8 b6bd 2259 483e
00000240: 662d 9b3e c859 05be ca68 0f3e 1028 8dbe
00000250: b58e ae3d ab17 92bc c78e bdbd 1fbd 09be
00000260: b32c 163e 2398 223e 2278 983c cdd3 ab3d
00000270: fc03 1f3e 98f6 a73d 1de2 c03c 4a4e 94be
00000280: 4b46 a5bd eeb7 b0bd c3dd 003e 2691 08bd
00000290: b346 943d b36e 2abe 8ed6 53bd 6743 88be
000002a0: 196b 193e 9507 fabd 8e95 18be f4c0 84be
000002b0: 8682 11bb 5bb8 5abb e60d b4be 9abf 41bb
000002c0: 1ba0 003e 13fd 5fbd 8f6d 173e 1e14 1f3f
000002d0: ab43 fa3c 9104 1d3f 700f afbd 1357 a0bd
000002e0: f5b0 05bd 89ee 15be 5904 e93d 3d22 49bc
000002f0: e754 8ebe 4989 e83e 5309 803d c2b0 8bbd
00000300: 4bdf b83d 7bf3 a73e f2cf 5abe 5714 983e
00000310: 5739 863d ef55 863c 6618 433d 6d36 443e
00000320: 30aa 7bbe 7b09 963e 48f6 833c 6834 98be
00000330: bbf7 99be 757e 5dbd 7735 223e 54ca e0bd
00000340: 9094 bfbe ca4d e4be 5b34 8dbd d090 edbd
00000350: 3126 48be db32 0a3e 8d43 833e 51b6 333d
00000360: e231 923e 3608 ad3d 9b0d 4d3e 3527 a43d
00000370: 23ff 8f3c 1603 0b3e 1506 53be 7f97 c13e
00000380: 68b1 be3d dd40 53be 9e3c 6f3e ff62 173e
00000390: 8e41 72be d205 85bd 1e7b 95bd 3a7b 343e
000003a0: 718a 4b3e dbf1 87be 0806 683d afca f53d
000003b0: edbd ae3e 7d39 94be 1a09 25be 03be 3c3e
000003c0: 4665 1dbe dba7 733b 4553 83bc 2f27 a0be
000003d0: 776a a03e 8700 1dbe ebad 7e3e cd99 30be
000003e0: 5e02 dbba a9b5 ad3d 8107 8f3e 6285 c53e
000003f0: f1e9 a4be bb59 82be 884a 843e aac1 3b3d
0.10914552 -0.1452306 -0.029110914 0.25500283 -0.2712354 -0.05060568 0.22085552 0.2602099
-0.20137408 -0.12794663 0.13466318 -0.51439226 -0.18031597 -0.19866249 0.02876368 -0.023655063
0.0052563623 -0.13035515 0.15771471 0.017594198 -0.34882888 -0.03782526 -0.12346966 -0.17438152
0.17114826 -0.31722745 -0.4250308 0.22343828 0.022330094 -0.34282556 0.20609546 -0.32883626
-0.07658566 0.20930728 -0.09577662 0.33286712 -0.010639786 -0.04978782 -0.1601454 -0.0049621053
0.12668142 -0.17699853 -0.041054577 0.17443109 0.0012876675 -0.35116068 -0.009681771 0.17580394
-0.099034086 -0.118955135 -0.3827714 0.2571504 0.24153721 -0.39995313 -0.32406762 0.21192624
-0.34678638 0.1297986 0.032942012 -0.14372313 -0.005840057 -0.26490757 -0.12779595 -0.015980314
0.2882786 0.21225624 0.11382658 0.04854089 -0.15312509 -0.26710352 0.5231389 0.14436755
-0.10936156 0.11205874 0.54806995 0.4261092 0.23892087 -0.18893035 -0.5074445 0.0935353
0.541242 -0.014305025 0.12382973 0.15752493 -0.2113113 -0.004003836 0.047759928 -0.13838424
0.29670367 -0.3303073 -0.5090638 -0.21265222 0.3932348 -0.25050232 0.035428815 -0.1372693
-0.10344749 0.28144082 -0.060914334 -0.037161827 -0.042505916 0.07402542 -0.13539587 0.06086129
0.3336461 0.089116745 0.0064803814 -0.21149836 -0.43614033 0.114766926 0.20179404 -0.02758559
0.50972897 0.19661607 -0.12184341 -0.06892768 0.122040756 -0.032777656 -0.0156633 -0.16410829
0.18272747 0.314395 0.085473455 -0.012375208 -0.12333382 -0.08288385 0.13796875 0.29442424
0.21036744 -0.26639858 -0.28038526 -0.1354728 -0.22267435 -0.14378294 0.14908923 0.08031483
-0.25476494 -0.1551287 -0.049968243 0.06319574 -0.030635512 0.42333105 -0.08931105 0.19565251
0.30308074 -0.1302253 0.14004818 -0.27569628 0.08523313 -0.017833551 -0.09255748 -0.1345105
0.14665489 0.15878348 0.018611971 0.08390007 0.15528864 0.08201331 0.02354532 -0.2896598
-0.08070048 -0.08628832 0.12584595 -0.03334155 0.07240047 -0.16643791 -0.051718287 -0.26613924
0.14982261 -0.122084774 -0.149008 -0.25928462 -0.0022203042 -0.0033374045 -0.35166854 -0.0029563666
0.12561075 -0.05468471 0.14787887 0.6214007 0.030549845 0.6133509 -0.08547866 -0.07829108
-0.032639463 -0.14641775 0.113777824 -0.012276229 -0.2779915 0.4541724 0.062517785 -0.06820823
0.09026965 0.32802948 -0.21368387 0.29703018 0.065539055 0.016398398 0.04763069 0.19161387
-0.2457664 0.29304108 0.016108647 -0.29727483 -0.30071816 -0.054075677 0.15840708 -0.10976091
-0.37418032 -0.44590598 -0.06894752 -0.115998864 -0.19545819 0.13495962 0.25637475 0.043875042
0.28553683 0.08448832 0.20024721 0.08015291 0.017577713 0.13575396 -0.20607789 0.37810895
0.09311181 -0.20630212 0.23362967 0.14783858 -0.2365782 -0.06495251 -0.07298873 0.17625132
0.1987703 -0.2655171 0.056646377 0.120015495 0.34129277 -0.2895011 -0.16116753 0.18431859
-0.15370664 0.0037178907 -0.016030917 -0.31279895 0.31331226 -0.15332232 0.24871032 -0.1724617
-0.001670908 0.084819146 0.27935413 0.38578326 -0.32209733 -0.25459084 0.25838113 0.04583899

gnn_layers.0.W2.weight f4 [128, 128]
00000000: 8ad5 093d 64f6 b2bd 49d5 333e 26b5 96be
00000010: d302 183e 64fc 23be dcba 5f3e 08a7 1d3e
00000020: 1070 b73d cf29 d03c f427 9d3c 3981 11be
00000030: 0664 38bd 82b5 8a3d 3b5d 17be 4820 723d
00000040: 6bf4 0c3f 5645 06be 8136 173e 09ba 9abe
00000050: 0d5e 8ebd 12f5 7d3d 4762 4e3e f074 433e
00000060: 0415 1fbc 44f8 26bc e986 6b3d 7d5a 98bd
00000070: ce51 2fbe 246f 13be df46 803e 93f9 05bd
00000080: 51c3 4d3e 1ee4 453d 21c2 8f3e 2745 b03e
00000090: 0185 10be 2958 323e 8c2e 4bbe 9190 82bd
000000a0: 8ea4 7d3e 0b49 9fbe dce2 ae3d d09d 053e
000000b0: 785e 223e aa65 5e3e 90ce 1fbd b250 9e3e
000000c0: ea57 1f3e d952 933d 33d7 a23e 62f6 a53d
000000d0: 94c1 823e c727 803e aa18 0c3e 1244 07bf
000000e0: ee9d 0abe afd6 5cbe 70da 23bd e7f6 12be
000000f0: 6b18 14be b463 c3bd b25a c13c 28a7 523d
00000100: 33ee a83d ae20 6d3e 01b6 083e 9b9e ebbc
00000110: 6cbb babd eff2 86bc d534 e63e 8733 98be
00000120: f260 dabd 34e7 e63c 15e3 ce3d 2f62 ebbd
00000130: b490 453e 62a0 a1be 1177 dabd 33ea 1c3d
00000140: a1ca 6cbe 89ad 5f3e 20eb a53e 08d2 a4be
00000150: f48d 51bd d19e 8c3d d075 0fbd b8ec d73d
00000160: bc50 b83e f1f0 3dbe 7950 4e3e 33a2 503e
00000170: 3490 a73c fe5c c2be 3407 ebbd 4b6a fcbb
00000180: 34a3 64be 10bb 2f3e 050f 22be fe24 30ba
00000190: 29b5 983b 4c1c 06be d46a 6ebe 4b43 93bd
000001a0: bad5 e03e 83a9 9fbc 9394 72bd 23e2 1fbe
000001b0: 0795 16be 2ed8 d9be e45b 643c 8c95 3dbe
000001c0: 7ccf 8bbe b8b5 73be 561c 8a3e 4da7 de3e
000001d0: bfdf ed3d d8fa e8bd 306f e7bc d5dd d93e
000001e0: b6b6 bdbd 843c be3d 03d4 7b3c 0006 e5bb
000001f0: bafa 87be 5fef 263e 32e4 033e f45d bf3d
00000200: 4987 43bd 2c0a 63be 1078 e339 dde9 bd3e
00000210: 7ad3 833c 5e7e babd b347 eabc 1ac1 a4be
00000220: 2abe 04bf 9721 543d 0454 1e3d 5d0c 2fbc
00000230: 0c7c bd3e d3e5 823e a9b8 a6bd 6c7c 3e3e
00000240: 818b 0dbd ea2a d5be 98ab d1be 7f85 133e
00000250: b76c 133e 38b5 a1be 6a37 75bd 01f9 d7be
00000260: 05f2 cdbd bf67 7abe 76a5 863d c0e4 0fbe
00000270: 4f48 cbbd def1 5d3e 759e 91be e910 8fbe
00000280: 9c99 eabd 5121 953b 63c3 73be fde1 8abe
00000290: 110c 3a3e f7e6 5a3e 866f 483c 1215 683e
000002a0: d0ff c73e fb78 9bbd 47c2 7fbe 9c3d 333e
000002b0: 1075 12be 86f8 083e 29f6 abbe eb5b b4bd
000002c0: bd6d 98be 87b5 1dbe 7c9b eabb ad2a 83bd
000002d0: c8c2 d3be 94b9 073f 26db 86bd 8424 58bd
000002e0: 1f5b 23ba 59fe c0bd 3a36 3f3e 5b0e ce3d
000002f0: be6c b3bc ef46 3e3c 16b4 84bd 3917 013e
00000300: b2d0 893d 3bf3 2bbd db02 8a3c ec31 6abe
00000310: 0c2d 01be 3f85 9c3d 0353 673d 47d2 d03c
00000320: 2c7d 5a3e 08c0 8cbe 7672 c1bd 8bdb a8be
00000330: e95c aabd a1ff 1e3e 2e9a 68bd 1135 833d
00000340: a071 7f3e 004c 88be ca6c bebc 785f b0bd
00000350: 5154 5fbe 6136 583e da23 abbd 182c 3d3b
00000360: 56f0 33bc 3514 a03e 686a 193e a754 0abd
00000370: 6a49 4b3e b066 62bd b1f2 adbe b0b8 fd3e
00000380: ba80 9a3e c26d b83d f997 a73e f8ee b53e
00000390: 17d0 77bd 8142 b1be 1630 94bc 5823 bcbd
000003a0: 5d13 2bbe d499 ddbe bfa6 a3be 0034 65bc
000003b0: f037 093e 0c7d dbbe 021d a33d f40a 15be
000003c0: f7d6 ae3b 04f4 463e ece8 b4be 1681 a1be
000003d0: 6b19 713e f6a4 19bd db87 10be d826 823d
000003e0: f37a 15be 64b5 373d 4407 95bd 1889 003f
000003f0: b66a f0bd 4d64 a4be 8501 02be 992f 073d
0.033650912 -0.087384015 0.1756183 -0.2943508 0.14844827 -0.16014248 0.21848625 0.15395749
0.08956921 0.02541056 0.01918409 -0.14209451 -0.045017265 0.06772901 -0.14781658 0.059112817
0.5506045 -0.13112387 0.14766885 -0.3022006 -0.069515325 0.062001295 0.20154677 0.19087577
-0.0097096 -0.010191027 0.057501707 -0.07439134 -0.1712105 -0.14397866 0.2505407 -0.032708716
0.20094039 0.048313253 0.28077796 0.3442776 -0.14113237 0.17416443 -0.19841975 -0.0637523
0.24769804 -0.31110415 0.08539364 0.13048482 0.1585635 0.2171847 -0.039015353 0.3092094
0.1556088 0.07193536 0.3180481 0.081036344 0.25538313 0.25030348 0.13681284 -0.5283824
-0.13536808 -0.2156627 -0.04000324 -0.14351998 -0.1446244 -0.09540501 0.023602817 0.051428944
0.08248558 0.23156998 0.13350679 -0.028762152 -0.09117779 -0.016473262 0.44962183 -0.29726812
-0.10663022 0.028186418 0.10101906 -0.114933364 0.19293481 -0.31567675 -0.10667241 0.038309287
-0.23124172 0.21843542 0.3240595 -0.3219149 -0.051160768 0.06866229 -0.035024464 0.105431974
0.35999095 -0.18548943 0.20147885 0.20374374 0.020454504 -0.37961572 -0.11475983 -0.007703101
-0.22327882 0.17161202 -0.15826042 -0.00067193795 0.004660268 -0.13096732 -0.23282939 -0.071905695
0.4391306 -0.01949001 -0.059223723 -0.15613608 -0.14705287 -0.42547745 0.013937924 -0.18514079
-0.27306736 -0.23799789 0.26974744 0.43487015 0.11614942 -0.1137597 -0.02825126 0.42552057
-0.09263365 0.09288886 0.015370372 -0.0069892406 -0.26558477 0.1630225 0.12880018 0.09344092
-0.04773644 -0.22171849 0.00043386267 0.37092486 0.01609205 -0.09106134 -0.028598642 -0.32178575
-0.5185267 0.051789846 0.038654342 -0.0106841 0.37008703 0.25565967 -0.0814069 0.1860215
-0.03455687 -0.41634303 -0.40951228 0.14406393 0.1439694 -0.3158357 -0.0598673 -0.42182162
-0.10055927 -0.24453638 0.06574528 -0.14052105 -0.09925901 0.21674296 -0.28441206 -0.2794259
-0.1145508 0.0045510908 -0.23805003 -0.2712554 0.18168665 0.21377169 0.0122336205 0.22664288
0.39062357 -0.075914346 -0.24976455 0.17503971 -0.14302468 0.13376054 -0.33586243 -0.088065945
-0.29771224 -0.15401278 -0.0071596485 -0.06404624 -0.41359544 0.53017545 -0.06584768 -0.0527692
-0.00062315346 -0.09423513 0.1867303 0.10061332 -0.021902438 0.011613592 -0.06479661 0.12606515
0.067292586 -0.04198001 0.016847065 -0.22870606 -0.1261484 0.07642602 0.05647565 0.025490893
0.21336812 -0.27490258 -0.0944566 -0.32979998 -0.083185025 0.15527202 -0.056787662 0.06406606
0.24945688 -0.26620483 -0.023245234 -0.08611959 -0.21809508 0.21114494 -0.083564475 0.0028865393
-0.0109825935 0.31265417 0.14981997 -0.033772137 0.19852224 -0.05527371 -0.3397422 0.49554968
0.30176336 0.0900531 0.32733133 0.3553388 -0.060501184 -0.3462105 -0.018089335 -0.09186429
-0.16706605 -0.43281424 -0.31963155 -0.013989449 0.13400245 -0.4286884 0.07964517 -0.1455496
0.0053356844 0.19429022 -0.35333955 -0.31543797 0.23544852 -0.037510835 -0.14114325 0.06355065
-0.14597683 0.044850722 -0.072767764 0.5020919 -0.117391035 -0.32107773 -0.12695892 0.033004377

gnn_layers.1.W0.weight f4 [128, 128]
00000000: d60b a1be 1f8f 983d f743 acbc 71f0 8bbe
00000010: e8e2 0c3d b886 903d 310d 0abf dfe8 733e
00000020: 7ad0 923c 3555 0dbd 43fc 20bd f123 bbbc
00000030: 763a e93b 5e36 f73d d823 bc3d 21c6 89be
00000040: 6c64 7dbd 2af4 0ebe 3087 beba 1520 653e
00000050: 4dcb f53c 0f7b 15be 6906 13be 107e ff3c
00000060: 899b 7a3d 2290 c7be 53ed 553d f9f9 b03d
00000070: f4bf 47be 6060 943e d3dd b4be 56a8 2a3e
00000080: b9da 2b3e 662c 943e f634 24bc 0eeb 1dbe
00000090: 038d 82be d766 24be d750 433e 2307 963e
000000a0: e6f0 cf3e c29d ff3c b619 a4be 1692 a4bd
000000b0: 15dd ad3e 6ee8 e0be 5486 3fbd ca89 59be
000000c0: c6b4 33be a988 95be b638 433e 937c 003e
000000d0: b5d8 3bbd d7be 4abd 29d1 38bd 55dd 41be
000000e0: 1ccb bdbe 20e1 25bc e495 92be 6c2c fbbc
000000f0: 4855 093e 24a8 33be dccc 30be 9415 a13d
00000100: 8588 dfbe 62fa 85be 2a82 c33e 372c 393d
00000110: 1c5d 9d3d 810e 753e 3d0c 593e a197 1a3e
00000120: 70ee ba3d 6c16 d4bd a154 28be 7ef9 92bd
00000130: e4e8 853e 5651 603d 9aaa b7be 425e 923e
00000140: 6797 8fbe c117 96bd c436 1dbe 40c6 c33c
00000150: e6b8 a43e 8ce8 65be 6776 6c3e 0a09 bb3e
00000160: 7162 36be c3c7 273e cfe1 c5be 5266 07be
00000170: feaf 45be 70dd 99be 7e95 843c a96d a8bd
00000180: 2b7e 26bd c78a 2fbe ad56 c8bd 0e08 0ebd
00000190: e007 c4be 1a11 cebd 03d3 a3be a90b 81bd
000001a0: 9a4d 00bf f53e 9fbc 9c77 33be ee88 8bbe
000001b0: 9a40 5f3e 7c61 133e 6f83 9ebd a647 abbe
000001c0: 1a20 593e c2ad 163e 19a5 f0bd 452d 563d
000001d0: f757 91be 7b27 b2bd 43b1 27be 2e4f 46be
000001e0: 1229 963c 6970 3b3e 7397 48bc 1359 95be
000001f0: 5ffc 823e cc0b bfbd fe35 b63e 6a09 afbd
00000200: 3377 b53e 751c 343d 3e65 a23b 69c3 653d
00000210: 2028 23bd 8e41 6ebe bdef a6be 4659 84be
00000220: edd6 013e aeec 92bd 43a9 7e3e 7d3c 31be
00000230: b554 293e 0dac 963d 9531 f9bd a76b 4e3c
00000240: 8f62 d4bd 6d04 9bbe ab6f eb3d 1276 13bf
00000250: 6301 dfbd 003f 5dbd a78c 12be 88db 1bbe
00000260: 65cb 6bbd d2c4 483c 20ef 763e 4984 593d
00000270: 5deb b1be 349f 6c3c 52dd 283e f52e a5be
00000280: 2d7d 03bc 7a54 5cbe b71c 8b3d 20ed 58be
00000290: fffa d23e 09ee 853d 72f0 6d3e b9c1 333e
000002a0: 52a9 8c3e 52ab fc3c 4357 d53d b5b1 8dbe
000002b0: 3af9 6a3e d144 8d3c 5c15 09be 6118 9e3d
000002c0: 8806 893e 5626 5b3d 5c9a 763e 3c4e 063f
000002d0: df26 2ebe ba94 3e3d 5a45 78bd e7b1 593d
000002e0: 83aa 1c3e 5f51 cd3d 111c 0f3e 99af 3f3e
000002f0: 609c 51be f3d8 153d 5f68 733e c165 813e
00000300: a00c 713e c755 87be 257d 08bd dd6f 05be
00000310: d0d3 903e f691 573e 543a 50be e0b2 123e
00000320: 3192 2a3e 5cce 623e 44d9 4c3d 4dfd 81be
00000330: 4546 95be f246 febd 9237 d4be 9dfc b7bd
00000340: 0cdc 3b3d 506f 743d 2800 87be 12a6 aa3b
00000350: 9262 943e 85cf 95be f9d0 1f3e ac76 373e
00000360: 22ff 62bd 7565 15bd 802d 473e b919 703e
00000370: 4a3d cc3d c43b 81be 9d1f 80bd 3864 88be
00000380: 6296 b8bd 65f1 c43d 8ae6 a83d 94d7 803d
00000390: cb8f 293e 6333 a33d 5de0 6abd 3d49 4fbe
000003a0: f27c ed3d 479a efbd d251 b0bd 44fb edbc
000003b0: 283d 543d 069f 083e 5014 90be f4c9 88bd
000003c0: 49eb e7bb 0afe 1ebd 0781 74be a45f c0bd
000003d0: 66bf ccbd 9691 cabd 3366 ccbd e315 873d
000003e0: 3ecd b4be 9e24 bdbe 2db0 01bd 1884 90be
000003f0: d394 243e 45d3 f3bd 851b 4c3e 6944 19be
-0.31454343 0.07449173 -0.021028502 -0.2733188 0.034396082 0.070569456 -0.5392638 0.23819302
0.017921675 -0.034505088 -0.039303076 -0.022844287 0.007117565 0.120709166 0.09186524 -0.26908973
-0.061863348 -0.13960329 -0.0014536139 0.2237552 0.030004168 -0.14597724 -0.14357914 0.031188041
0.061183486 -0.38977152 0.052228283 0.086414285 -0.19506818 0.28979778 -0.35325488 0.16665778
0.16782655 0.28940123 -0.0100223925 -0.15421697 -0.25498208 -0.16054855 0.19073807 0.2930232
0.40613478 0.031203154 -0.32050866 -0.08035676 0.33957735 -0.4392733 -0.046758965 -0.21243969
-0.17549428 -0.29205826 0.19064602 0.12547521 -0.045860965 -0.049498405 -0.045121346 -0.18932088
-0.37069023 -0.010124475 -0.28629982 -0.03066083 0.13411438 -0.1754461 -0.17265648 0.07865444
-0.43658844 -0.2616759 0.38185245 0.045208182 0.07683775 0.23931314 0.21196075 0.15096904
0.091275096 -0.10355839 -0.16438533 -0.07176493 0.26154244 0.054765068 -0.35872346 0.28587538
-0.28045198 -0.073287494 -0.15352923 0.023898244 0.32172316 -0.22451991 0.23092042 0.36530334
-0.1781099 0.16384797 -0.3864884 -0.13222626 -0.19305417 -0.30051756 0.016184565 -0.08224041
-0.040647667 -0.17142783 -0.09782157 -0.03467565 -0.38287258 -0.100618556 -0.31996927 -0.06301052
-0.5011841 -0.0194392 -0.17526096 -0.27252907 0.21801987 0.14392656 -0.07739913 -0.334531
0.21203652 0.14714721 -0.1175024 0.052289266 -0.28387424 -0.086989366 -0.16376214 -0.19366142
0.01833013 0.183046 -0.01224314 -0.2916952 0.2558317 -0.09328422 0.35588068 -0.085467175
0.35442504 0.04397245 0.0049559167 0.05609456 -0.039833188 -0.23267195 -0.3260478 -0.2584936
0.12679644 -0.07174049 0.24869256 -0.1730823 0.1653622 0.07357035 -0.1216766 0.0125989085
-0.10370361 -0.30276814 0.11495908 -0.57602036 -0.10888936 -0.05401516 -0.14311467 -0.15220463
-0.05756702 0.012253957 0.24114656 0.053104673 -0.3474988 0.014442254 0.16490677 -0.32262388
-0.00802545 -0.215166 0.06792586 -0.21184206 0.4120712 0.06539542 0.23236254 0.17554368
0.2747293 0.03084341 0.104170345 -0.27674642 0.22946635 0.017244728 -0.13387054 0.07719494
0.26762795 0.053503357 0.24082321 0.52463126 -0.17007016 0.046528555 -0.060613014 0.053148177
0.1529942 0.10025286 0.1397555 0.18719329 -0.20469809 0.036583852 0.23770283 0.25272945
0.23539972 -0.2643263 -0.033322472 -0.13030954 0.282866 0.21051773 -0.2033475 0.14326048
0.1665733 0.22149032 0.05001189 -0.25388566 -0.29155174 -0.124158755 -0.41448647 -0.08983729
0.04586415 0.05967647 -0.26367307 0.0052077854 0.28981453 -0.29259887 0.1560706 0.17916363
-0.055419095 -0.03647371 0.1945095 0.23447312 0.099726275 -0.2524091 -0.0625603 -0.2663896
-0.09013058 0.09616355 0.08247097 0.06291118 0.16558759 0.079687856 -0.057342876 -0.20242782
0.11596097 -0.11699348 -0.08609356 -0.029050477 0.051816136 0.13341913 -0.28140497 -0.066791445
-0.0070776087 -0.03881649 -0.23877345 -0.09393242 -0.09997444 -0.098910496 -0.099804305 0.065959714
-0.35312837 -0.36942 -0.031662155 -0.2822578 0.16072397 -0.11905531 0.19932373 -0.14967503

gnn_layers.1.W1.weight f4 [128, 128]
00000000: f709 0abd 89d3 e4bc b4f5 11bd 25e7 863e
00000010: 7450 0abd 8818 37bd 8e9b 033e 2046 43be
00000020: 1f1b cdbd e65d b1be 2227 7e3c e6c9 3bbe
00000030: fd41 e83d c2b9 953e 3cfd 7d3e cb50 02be
00000040: d157 293e 14e4 0c3e e39f 4d3e bc26 293e
00000050: 20ed ae3d dbab f5bd c83b 47be 9b13 05be
00000060: 5bb2 f03d 9b90 8c3d a4cc b73e bf85 243d
00000070: f924 2cbd 6226 ff3d fd75 00bd b2e1 2cbd
00000080: be0b 1cbd 9669 843a bd5b 7abd 2a2b 9c3d
00000090: 9017 79be 40ea 1ebe f1ab 833e 00b2 1f3e
000000a0: f84b 3dbe f6ca 933d a0f7 72be 689a 30be
000000b0: 7e73 013c 3428 71be acce 713d 07a3 493e
000000c0: b3c8 87be e8f9 76bd f2f9 193e a252 50be
000000d0: dc38 edbe cd5b 913d c629 8a3d cbfc 633d
000000e0: 7257 38be 5e9a 913b 50f9 47bd 350c e83c
000000f0: 4aa9 21be 5501 8b3d 7c74 413e d51e d63c
00000100: 8494 783d 7905 ee3e d2fc e8bd 7d2a 8e3d
00000110: 94b8 8dbe 1b24 473d e6e4 23bd f6fc c13e
00000120: 73e0 80be 5e02 8bbe 3d3b 003d 2493 ff3d
00000130: 6f40 73bd 8614 d23d 4304 5fbd b534 eabc
00000140: 4066 a03e 4c06 6b3d 85cb 033d 068c 7dbe
00000150: 2e18 fc3d 981f 16bf 21eb ac3e 92f4 9c3d
00000160: 00d6 b8bd 335f 833e b5d4 563e ff33 843e
00000170: 164c 3c3d ec1c 63be 8d50 88be 0875 0cbe
00000180: 57e2 073f 4f6f eb3c 11ec 863e f2ac c73e
00000190: 5029 64bd 4d04 dd3e 7789 013f ec38 12be
000001a0: e9e9 0cbe 8265 7fbe a574 013e 3e9d dcbe
000001b0: f786 e03e a4cd 373e 5b8b 123e b3a4 4ebe
000001c0: c7f1 9b3d cfe8 d9bd b754 a23e 211b 4dbe
000001d0: af49 f93b 6538 bfbb 2b83 003e de2d 8cbc
000001e0: 98d2 6c3e a70a a1bd 01c4 a23d 1c7a 6ebe
000001f0: d461 1fbe 49e5 57be 423f 49bd 27bd a3bd
00000200: 4c86 acbe 524b 9e3d e338 083f a1cd 8e3e
00000210: 8dca a4be f310 743d eeb1 623e 2ebd 013d
00000220: 50c0 c23d c120 d7be 9b16 59be aa92 3a3d
00000230: c93c d73e 43cf d2be 9aa9 e5bd 5925 a03e
00000240: cdb8 5bbe 6eef 58be 031d 2abe e21b 93be
00000250: b68d cbbc ef5b 373e 2b53 03be ffbe a03e
00000260: c786 a13c eae5 cebe 739c 42be 5ee7 b7bd
00000270: e3e7 6a3d 5029 72be 2acf b73e 196f 43bd
00000280: d935 f7bd f12e 00be efba e9bd 40b8 933c
00000290: 6127 88be 45c5 6a3c b21d eabd 2c1c 82be
000002a0: d489 25be 9ac9 5bbd e1cd b2be 9c06 8f3e
000002b0: f933 96be 07c9 96bd 3907 1dbe 92d0 a8be
000002c0: d7f5 973d 905b df3d 10dd f0bd 362c 8d3d
000002d0: 33ce 103d e93f 53be 8ba4 133e 7c16 5ebd
000002e0: a568 1b3e 5ef2 193d 0890 b2bd bb35 653a
000002f0: 671c 393e 1d9c 1a3d d5df a1be 0cad 6c3d
00000300: 34e5 20bf d3de 343e 53db a83e 2ab2 da3b
00000310: aa62 f7bd 11d6 10be f467 df3b bf8b 9d3e
00000320: e663 d1be d823 0cbf 9024 b93e 710c d6be
00000330: 48c9 b63e da1e 2bbe 5abd 8f3d 18b8 273e
00000340: 937c c03e 3dac 9fbe 078f 6d3e e0eb 8cbe
00000350: 220d 9cbe 3c24 403e 1ba1 03be 9385 8ebe
00000360: 6057 463e 90b0 1cbe 9550 863e 210c 47be
00000370: a099 a5bd 10d5 0bbe 3fb9 39bd d4ab e9bd
00000380: 22c8 943e 4878 883e d7a0 51be 5d62 99bc
00000390: b8a8 1abe 8b71 90be dad6 363e 55e2 373e
000003a0: 2350 353e a2ae 09be 681b 64be 279c 503e
000003b0: 6f3f acbd 7e85 e03d ba09 81bb 9f9d 3fbe
000003c0: 5131 8c3d f7fd 87bd 5946 6d3e bdc2 eabd
000003d0: c162 2abe 6b26 e33e b1fc c6be 53e8 4f3d
000003e0: 7f2b 26be 59ac d13e e85a 1f3d eaf7 273e
000003f0: c0e4 aabe 7b55 343c 0748 a4be 7db9 a8be
-0.03370091 -0.0279329 -0.03563471 0.26348224 -0.033768132 -0.04470113 0.12852308 -0.1906972
-0.100149386 -0.3464195 0.01551226 -0.18338737 0.11340711 0.29243284 0.24803632 -0.12726133
0.16537406 0.1375888 0.20080523 0.16518682 0.08541322 -0.119956695 -0.19456398 -0.1299576
0.117527686 0.06863519 0.35898316 0.040166613 -0.042027447 0.12458493 -0.031362522 -0.042207427
-0.038097136 0.0010102268 -0.061122645 0.076254204 -0.24325395 -0.15519047 0.25717118 0.15595245
-0.18486011 0.07216446 -0.23727274 -0.17246401 0.007901071 -0.23550493 0.05903499 0.19691096
-0.2652031 -0.060296923 0.15036753 -0.20344022 -0.46332443 0.07097588 0.06746249 0.055661004
-0.18002108 0.004443451 -0.048821747 0.028326133 -0.15787235 0.067873634 0.18892092 0.026137749
0.06068851 0.4648855 -0.11376347 0.06941698 -0.27679884 0.048618417 -0.040013216 0.37888306
-0.2517124 -0.27150244 0.031306494 0.12479237 -0.05938762 0.10257821 -0.054447424 -0.028589586
0.3132801 0.057379052 0.032176513 -0.24760446 0.123092994 -0.5864196 0.3377314 0.076638356
-0.09025192 0.2565857 0.20979579 0.2582092 0.045971 -0.22179002 -0.26623955 -0.13716519
0.5307974 0.0287396 0.2635198 0.38999134 -0.05570346 0.43167344 0.5060038 -0.14279526
-0.13761105 -0.24941066 0.12642153 -0.43088716 0.4385297 0.1794954 0.14310972 -0.20180015
0.07614475 -0.10640108 0.31705257 -0.2002988 0.0076076607 -0.00583558 0.12550037 -0.017111715
0.2312721 -0.0786336 0.07947541 -0.23288769 -0.15564662 -0.21083559 -0.049132593 -0.07995062
-0.3369621 0.0772921 0.532118 0.27891257 -0.32185784 0.059586477 0.22138187 0.031674556
0.09509337 -0.42017177 -0.2120003 0.045550026 0.42038563 -0.41173753 -0.112139896 0.31278494
-0.21457215 -0.21185085 -0.1661263 -0.2873221 -0.024847846 0.17906164 -0.12824695 0.31395718
0.019717587 -0.40409786 -0.19004993 -0.08979677 0.05735005 -0.23648572 0.3590024 -0.047713373
-0.120708175 -0.12517907 -0.11412608 0.018032193 -0.26592544 0.014329259 -0.11431445 -0.25412118
-0.16165859 -0.05365906 -0.34922698 0.2793473 -0.29336527 -0.07362562 -0.15334786 -0.32971627
0.07419937 0.10906136 -0.11760914 0.06893198 0.035352897 -0.20629849 0.14418237 -0.05422066
0.15176637 0.037584655 -0.08718878 0.0008743663 0.18077241 0.037746537 -0.31616083 0.057782218
-0.62849736 0.17663126 0.3297983 0.006674071 -0.120793656 -0.1414416 0.006817812 0.3077068
-0.4089653 -0.54742193 0.36160707 -0.41806367 0.3570044 -0.16710988 0.07018538 0.1637882
0.37595043 -0.31186095 0.23199092 -0.27523708 -0.3047877 0.18763822 -0.12854426 -0.27836284
0.19369268 -0.15301728 0.26233354 -0.1943822 -0.08085942 -0.13655496 -0.04534268 -0.11409727
0.2905894 0.26654267 -0.20471512 -0.018723661 -0.15103424 -0.28211626 0.17855397 0.17957433
0.17706351 -0.13445523 -0.2227608 0.20372067 -0.084105365 0.109629616 -0.003937927 -0.18712471
0.06845344 -0.06640237 0.23171367 -0.11462925 -0.16639234 0.44365248 -0.38864663 0.05075867
-0.1622753 0.40951803 0.038905054 0.16403165 -0.33377647 0.011006708 -0.32086203 -0.32954016

gnn_layers.1.W2.weight f4 [128, 128]
00000000: 5980 5c3e a11c a53d 2435 26be ed2e 0d3e
00000010: dea0 dbbd 1439 0b3e d41d 84bc b288 0dbe
00000020: 01f1 ea3d 6e10 9e3e d7e2 a93c ab0a 843e
00000030: e8b5 203e 752a 8f3d 672a a0be b4e6 90bc
00000040: 83f1 e03d 344a e4bd 6900 763e bcf1 15bd
00000050: 3584 943d 9a15 5b3e 3d90 60be a45f 68bb
00000060: cbb0 b23c 6ee2 df3c 9ea2 6ebd 0407 a43c
00000070: 6292 2c3e 1c68 893e 9403 05be 8795 7ebe
00000080: 2460 a73d 588c 833d 457a 793e 3199 25bf
00000090: 63ae 973e b504 9e3d 9a04 a3bd 2855 2abd
000000a0: 69a6 aabc f9d6 923e ffe5 8fbd 07ad b4be
000000b0: f1c0 a0be 5b7a 20be 1dd1 a6be 151d c73d
000000c0: 6d29 8fbd da4b 85be 0932 91be b50b 82be
000000d0: 6976 e73d 0bee 933d 2a75 203e 4d9b 84bd
000000e0: 3b25 c2be ef07 903e 57ae dd3d e438 95be
000000f0: e8ba 94bd 0675 2e3e 2a2e e53d 51e1 10bd
00000100: 0f4a cbbd 3857 6cbd 8b71 763d e63f f7bd
00000110: 2e08 aabd f96a bb3d 2b10 b73d 69fe 093f
00000120: df97 873d 0e4f 4bbe 4bb4 97bc c51e f8bd
00000130: 1e86 f1bd f860 173e c283 21be 64f1 e23e
00000140: 50eb 8dbe 7284 8a3e 8372 43bd c331 22bd
00000150: cbdc db3d f721 4b3e 52d1 983c 5d0e 803e
00000160: 69f0 3d3d 67d1 03be 209b 303e ed34 81bd
00000170: a87d 2e3e a607 443e e5fd 563e 9e83 abbe
00000180: 9632 4abd 3570 dabe 9150 833e ac4c d7bd
00000190: 35e2 7dbe f9e5 c53e cb97 1f3e 9750 debd
000001a0: b855 89bd 54ff 283e 822e 9e3d 5882 a1be
000001b0: 0369 403e 452b 593e 7786 79bd a750 a83e
000001c0: 7c44 f13d f70f 843e 4aa9 88be 00ed 8f3e
000001d0: 5f33 d33c 7b44 7f3e 1d56 1e3e 3276 c33e
000001e0: 4b8d c7be 1803 213e ffa0 df3c 7c1f 7b3e
000001f0: 0bd5 b23c 9dfd c2bc 1dc2 0f3d c424 313e
00000200: eac4 4bbe ed68 9c3e 912e 9a3e f310 fbbd
00000210: 8cc6 c13e 649d 773e ee99 7dbd f407 2e3e
00000220: eb93 d9bd d968 0ebe c1c4 9fbe 6197 8a3d
00000230: 792b 6fbe 9ae6 903e 9e45 123f 9c83 17be
00000240: 1235 473d d8f7 433e 7fdb 873d f43b 1d3e
00000250: 01ef 973e af82 80be 169e 3fbb 1a27 09be
00000260: 88a4 873e 7df7 623e befa 2dbd 6bf2 533e
00000270: b2ef 7f3e 0aa2 67be 83a9 183d 4072 b8bd
00000280: 34d4 e7bc c13f 03bd 60c0 e0be 8ab5 35be
00000290: 21bc 063e f884 17be 12f5 1bbe 831d 8b3c
000002a0: deee 073e b12d ea3e a3c3 073d 97a2 0abe
000002b0: 3d04 6bbd d3eb bc3d 87f9 423b c24c 72be
000002c0: 5a38 e33e ee5c 83bc bfa4 413e 290b 47be
000002d0: a340 f13c eefe a2bc 9276 0fbe f5fd 9a3c
000002e0: 39a5 5d3e 7452 b53e 7e97 4f3d 6318 fbbc
000002f0: 5e6a 8f3d ba18 c5be 23ed 53be 3a1e 42be
00000300: d6d4 a3bd f331 e1bd ff7b 20be 1c38 38be
00000310: e88f 8c3d 9710 2ebe 7197 e6bd 1fd6 53be
00000320: 3564 0bbe 07bb 89be 2dfd 8e3d c096 88be
00000330: 8afc 963e 0c27 e83c 176b 1cbd 78c2 6cbc
00000340: 2e54 cabd d933 973e 5543 493e c559 8e3e
00000350: e9b5 2fbe fe07 3d3e 6c04 a1be 6b5f 0f3e
00000360: 762f f2bd 1b69 6bbe 0e5b 4bbd d953 9a3e
00000370: 1684 08be 791a 67bb f20d f6bd 176f 963e
00000380: f8da 6e3e e012 f6bd 7f31 b73e 9de6 d63e
00000390: d1a6 673e 925e e1be 97c6 b6bd a6b2 c63e
000003a0: 80c2 af3e e987 aabd cf3a 723d bfc6 1cbe
000003b0: e044 0fbe 2865 923e 19c0 8f3e daf7 b73a
000003c0: b94b dc3d e838 8e3e 3cb0 623d ca25 12be
000003d0: 9959 55bc 1b2b c13d b615 aebd 949e 553e
000003e0: 91d2 143e f5b6 633e 1aca a6be cdad b2be
000003f0: bbfb c03d f247 373e f38f fabd ef5a f9bd
0.21533336 0.08062101 -0.16231209 0.13787432 -0.10724042 0.13595992 -0.016127504 -0.13821676
0.11471749 0.3087191 0.020738048 0.2578939 0.15694392 0.0699052 -0.3128235 -0.017688133
0.10983565 -0.111469656 0.24023594 -0.03660749 0.07251779 0.21394959 -0.21930023 -0.0035457397
0.021812817 0.02732965 -0.058260553 0.020022877 0.16852716 0.26837242 -0.12989646 -0.24861728
0.08172634 0.06423253 0.24363048 -0.64686877 0.29625234 0.077157415 -0.07959862 -0.041585118
-0.020831304 0.28679636 -0.0702629 -0.3528826 -0.31397203 -0.15671675 -0.32581416 0.09722344
-0.06990323 -0.26034433 -0.28358486 -0.25399557 0.11301882 0.072231375 0.15669695 -0.06474934
-0.3791903 0.28131053 0.10824268 -0.29144967 -0.07262212 0.17036828 0.11190446 -0.03537113
-0.09926235 -0.057700366 0.060166877 -0.120727345 -0.083023414 0.09151263 0.08938631 0.53903824
0.06620764 -0.19854376 -0.018518588 -0.12115244 -0.11793159 0.14783084 -0.15772918 0.4432479
-0.27718592 0.27054173 -0.04771663 -0.039598238 0.10735472 0.19837175 0.0186545 0.25010958
0.04637185 -0.1287285 0.17246675 -0.06308923 0.17040122 0.19143543 0.2099529 -0.33498853
-0.04936465 -0.42663732 0.25647405 -0.10512671 -0.24793322 0.38652018 0.15585248 -0.10855215
-0.06705803 0.1650365 0.077237144 -0.31544757 0.18790059 0.21207912 -0.06091925 0.32874033
0.117806405 0.2579343 -0.26691657 0.28110504 0.025781332 0.24928467 0.15462537 0.38176113
-0.38974985 0.15723836 0.027298449 0.24523729 0.021830102 -0.023802573 0.03509723 0.17299181
-0.19899336 0.30548802 0.30113652 -0.12259092 0.37846792 0.24181134 -0.061914377 0.16995221
-0.10623916 -0.13907184 -0.312048 0.067671545 -0.23356427 0.28300935 0.5713748 -0.14796299
0.048634596 0.19137514 0.066336624 0.15354902 0.29674533 -0.25099704 -0.0029238514 -0.13393822
0.26492715 0.22164722 -0.042475455 0.20697944 0.2499378 -0.22620407 0.037271034 -0.090061665
-0.028299429 -0.032043222 -0.4389677 -0.17745033 0.13157703 -0.14796817 -0.15230206 0.016981846
0.13274714 0.45737985 0.033145558 -0.13538586 -0.05737709 0.092246674 0.002975078 -0.23662093
0.4437893 -0.016035523 0.18910502 -0.19437851 0.029449767 -0.01989695 -0.14010075 0.018919924
0.21645059 0.3541447 0.050681584 -0.030651277 0.0700271 -0.38495427 -0.20695929 -0.18956843
-0.079995796 -0.10995855 -0.15672301 -0.17990154 0.068633854 -0.16998516 -0.11259354 -0.2068715
-0.13612445 -0.26900503 0.06981883 -0.26677513 0.29489547 0.028338932 -0.038188066 -0.014450662
-0.09879337 0.29531744 0.19654591 0.27802864 -0.17159237 0.1846008 -0.31448686 0.14001243
-0.11825459 -0.22989313 -0.049647383 0.30142096 -0.13331637 -0.0035263582 -0.120143786 0.2938163
0.23325717 -0.12015319 0.3577995 0.4197282 0.22622229 -0.44017464 -0.08924597 0.38808173
0.3432808 -0.08326704 0.059138115 -0.1531019 -0.13991117 0.285928 0.28076246 0.0014035658
0.107566305 0.2777779 0.05534385 -0.14272228 -0.01302185 0.0943205 -0.08500235 0.20861274
0.1453345 0.22237761 -0.32576066 -0.34898224 0.09423014 0.17898539 -0.122344874 -0.12175547

gnn_layers.2.W0.weight f4 [128, 128]
00000000: 215e 3ebc 4b17 73be b9c2 74be ca51 ca3d
00000010: 2545 453b d6f0 1bbd 41d1 40be eaa8 b13d
00000020: b123 803e 7ad0 42be 58bc 893e 3711 9bbc
00000030: 4af9 bf3d b83a 883c 3c71 66be 7752 443d
00000040: 9f73 42be 9a15 70bc 5e76 2fbe d421 b13b
00000050: ba4d c33d 0440 e8bd aa61 0bbe b6be 8d3d
00000060: 9f89 3e3d edb7 4f3e 49c5 8bbe c7f2 5fbd
00000070: 2d5c eebd f828 b7be fa81 49be 23bd 14bd
00000080: 00ee a9bd d4b2 043d f8de f6be 58ed a13c
00000090: f7f4 97bd 01f1 46bd d1fb ea3d 5a0d 7abc
000000a0: 3516 14bf 90d3 8dbe e9bb e63d 5735 55be
000000b0: 4a97 ec3a 2c95 f0bc b9c8 1bbe e922 4c3e
000000c0: c866 943d ff87 c53c 0330 1d3c e370 193e
000000d0: a59c 8cbe 528e 9b3e ce5c 7b3a 9a70 0139
000000e0: 645a 06be 9d1d 3e3e 9837 55bd f909 2fbe
000000f0: a79c c7bb 0d72 29be 7277 e4bd e11a 7ebe
00000100: 66f9 44be 7918 333c a35c a13c 296c f2bc
00000110: eeb6 ec3b 4452 813d 5502 963c ba37 88be
00000120: 8e6a 923d 6961 bdbd 00ed d33e 5a33 9ebe
00000130: 2497 99be 7eed a43e e5ee fd3d 50ff 67bc
00000140: 569e 96ba 9a89 d439 a569 a7bd 2eb9 323c
00000150: 3e42 023c 035f a7bc 39bd fdbd d147 f43d
00000160: a467 a43d 6833 123e 9218 653e 5805 c7be
00000170: c6b7 adbc 61bc 2abd c489 883e 2fbf 07be
00000180: 7b80 093e 3afe 1cbe fd45 dfbe a417 133d
00000190: 68a4 11bd 07eb 003d 9ec6 4bbe ad19 e33d
000001a0: 0923 6ebe 53e0 e7bd ad0a f73d a0a5 acbe
000001b0: 7132 d03d fac3 34be 7313 a9bd 13f5 42bf
000001c0: c6bd 02be 0017 c03e d123 abbe 132f cfbd
000001d0: 855f c43c 4bcf aa3d 22ba 7b3e 8c7f b43d
000001e0: 80fa a83e 8a39 9fbc 5e70 0d3d e37c 0abe
000001f0: 9639 d83d ab1a 1c3c 208d a93c f886 443d
00000200: a64a 45bf 38ca 4dbe c126 10bf 9ce0 c93d
00000210: 918f 0cbc ada4 b33c df5d 68be ecff 03be
00000220: d77f dabe 1e40 043e b96f a2be 4da2 2bbd
00000230: b0e3 27be 6660 9e3c 5dd2 833e c904 7ebd
00000240: 8f66 d6bc e649 963c 64c4 12be 7cf2 2d3c
00000250: 2222 d2bd 9e22 94be 42b0 9b3e 4405 67be
00000260: ff30 4a3c e310 2f3d 4dca 20bd d5c8 a9bd
00000270: f543 9dbe 8209 9fbe 7d54 d13d e0d5 60bc
00000280: 822d 86be 7828 033e 974a a83d 5ce1 5bbb
00000290: 171d 94bd 0897 773e 3b0a f83d 7606 4f3e
000002a0: 435d 02be b3ce 1ebf 4e2f 343e a65d c53e
000002b0: af78 ddbc 7949 953a 1a15 44bd ea05 1fbe
000002c0: a863 f5bd ed7d f7bd 98d4 d0bc 5575 4c3e
000002d0: 9ba4 77be 054a 91be cff4 25be d7d1 02bb
000002e0: 738f 98bd e665 30be b5f1 f6be e244 6d3d
000002f0: 20a1 01bc 4358 b13d 32ab dfbd 57ff cf3d
00000300: 86b0 3f3e c865 07be 66e9 0ebc 13a5 36be
00000310: 0b34 183d 5e67 73bb 879b 86bd b129 96be
00000320: 8965 5c3e ccad f6be 4276 bebd 6c56 e93b
00000330: fd00 e0be 3884 18bd 61fd 8c3b f675 8bbb
00000340: 1068 583b 6a53 143d bb98 c5bd e36a 07bd
00000350: c883 28bc b249 423c 0f9c 31be 8667 123e
00000360: 4908 f1be 8001 00bf 09c7 713e 3a99 9dbe
00000370: ef18 863c 826a 373e 71f4 edbe 18f5 5abd
00000380: 5720 a3bd c69d 60bd 4202 12bc 62fb 953e
00000390: 21c5 8f3c 0b6f 8a3c 84c7 e4bd 8a47 2bbe
000003a0: b082 11be 423a 05bf 91c3 1bbe da13 a9bd
000003b0: 1e70 473e e6cd a7bd 0978 06be 4514 a0bc
000003c0: 5de3 433e 72a4 8fbe 1379 493e 766c 293e
000003d0: 29ef b2bd 2363 4e3e 9c7d c2be 0b4d 75bc
000003e0: f4ba 83be 8b67 4bbc abef b0bb c397 75be
000003f0: 8432 933d 7713 013d 4326 073e 55ea f03d
-0.011619122 -0.23739354 -0.23902406 0.09878881 0.0030101028 -0.038071476 -0.18829824 0.08674796
0.2502723 -0.1902484 0.26901507 -0.018929107 0.0937372 0.016629562 -0.22504133 0.047930207
-0.18989418 -0.014653588 -0.17134997 0.005405644 0.095363095 -0.11340335 -0.13611475 0.06921141
0.046517964 0.20285006 -0.27298954 -0.05467489 -0.11638675 -0.35773444 -0.19678488 -0.036313187
-0.08297348 0.032397106 -0.48216987 0.019766495 -0.0741977 -0.048569683 0.114738114 -0.015261972
-0.57846385 -0.27700472 0.1126631 -0.20821129 0.0018050459 -0.029368006 -0.15213288 0.19935192
0.072461665 0.0241127 0.009593966 0.14984469 -0.2746326 0.3038202 0.0009588719 0.00012344346
-0.13120419 0.18565984 -0.05205497 -0.17093648 -0.0060916725 -0.16547413 -0.11155595 -0.24814941
-0.19235763 0.010931128 0.019697493 -0.02959259 0.0072239554 0.06314519 0.018311659 -0.26605016
0.0714923 -0.09247095 0.41391754 -0.30898553 -0.29998124 0.32212442 0.12399081 -0.014159992
-0.001149128 0.00040538312 -0.08174447 0.010908408 0.007950364 -0.020431047 -0.12389607 0.119277604
0.080275804 0.14277422 0.22372654 -0.38871264 -0.021205794 -0.04168356 0.26667607 -0.13256525
0.13427918 -0.15331355 -0.43608084 0.035911217 -0.03555718 0.03147414 -0.19899985 0.11088882
-0.23255552 -0.11322083 0.12062583 -0.33720112 0.10165871 -0.17652884 -0.08255663 -0.76155204
-0.12767705 0.37517548 -0.33425763 -0.101164006 0.023971329 0.08340319 0.24582723 0.0881339
0.33003616 -0.019436616 0.03453099 -0.13524203 0.10557859 0.0095278425 0.020697176 0.04798028
-0.7706703 -0.20096672 -0.56309134 0.09857294 -0.008579151 0.02192911 -0.22692059 -0.12890595
-0.4267566 0.12915084 -0.31725863 -0.04190283 -0.1639545 0.019333076 0.25746432 -0.062016282
-0.02617195 0.018345784 -0.1433273 0.010616895 -0.102604166 -0.2893266 0.30407912 -0.22560602
0.012340783 0.042740714 -0.03925543 -0.08290259 -0.3071591 -0.3106194 0.10221193 -0.013722867
-0.26206595 0.12808406 0.08217352 -0.0033551073 -0.07232111 0.24178708 0.12111326 0.20217308
-0.12730889 -0.6203415 0.1759617 0.3854801 -0.027035085 0.0011389694 -0.047871687 -0.155296
-0.119818985 -0.12084565 -0.025491998 0.19966634 -0.24183886 -0.28376785 -0.16206668 -0.00199615
-0.07449236 -0.17226371 -0.48231283 0.05792702 -0.00791195 0.08659413 -0.10921325 0.10156124
0.18719682 -0.1322242 -0.008722639 -0.17836408 0.037159007 -0.003714047 -0.06572633 -0.29328683
0.21523108 -0.48179471 -0.092999 0.007120898 -0.43750754 -0.03723547 0.004302666 -0.0042560054
0.003302101 0.036212362 -0.09648272 -0.03306092 -0.010285325 0.011858391 -0.17344688 0.14297304
-0.47076634 -0.5000229 0.23611082 -0.30780965 0.016369311 0.17911723 -0.46475556 -0.053456396
-0.07965153 -0.054837964 -0.008911671 0.29293352 0.017550053 0.016898653 -0.11170867 -0.16726509
-0.1421001 -0.5204202 -0.15211321 -0.082557395 0.19476363 -0.08193569 -0.13131727 -0.019540915
0.19129701 -0.2805515 0.19675092 0.16545281 -0.087370224 0.20155005 -0.37986457 -0.014971982
-0.2572857 -0.012414823 -0.0053996644 -0.23983674 0.071873695 0.031512704 0.1319819 0.11763445
