aca_backend_api/models/tca/gnn_fold1.pt (torch, 764673 bytes, 12 tensors)

node_emb.0.weight f4 [77, 128]
00000000: de2e 74be f1ee 79be a463 59bd 5234 bcbd
00000010: 3a13 383e 2e16 163e 2814 89bd b061 e5be
00000020: 76cb 8b3d 3c00 89be 5ad0 973d 5fa9 853d
00000030: 8cef cf3c 6237 863e 3a37 723e 9d86 56bd
00000040: ecaf 92be d4e9 b7be 90cc f53d 3a1a 2c3e
00000050: a9e1 013e e6a3 a8be ee12 94bd 7ef2 c83e
00000060: d3b4 223e c7f9 fdbd 596e 16bd db2c 1f3d
00000070: 23ab 963e 3807 ac3e 533d 4d3e b1fb 36be
00000080: e713 05be 2244 db3b 12b6 d5bd d882 573d
00000090: a4ba be3d 680b c33c f5fa 0a3e 925c bf3d
000000a0: 5a84 b1bc f5de 2b3e 8c4d 7bbd db35 363c
000000b0: d1cd e23d 3ea9 f93e a54a 9fbe 1911 acbe
000000c0: 0ffc 11be 6c4e 3d3e 38e5 643e 054a 1a3d
000000d0: d6d3 47bd adee a9bd 11ab eb3d 7a68 abbd
000000e0: c78e c1bd 655e 213e ccf0 a43e 55ec 383f
000000f0: 4d0c a6be b7d5 85be 1b56 c53e bc3d efbd
00000100: 7aed f6bd ed87 473e 6bec 703e 19e1 8b3e
00000110: 704c a0be 1033 0b3f 123a cdbd 578d 913d
00000120: b3b0 b0be 3c77 eebd a123 d0bd b7bf d8bd
00000130: a86a 67be 5ed1 713e ff14 f4bc 02c2 2e3e
00000140: 12f8 a1bc 6a03 153e cfd1 35be 5b11 4639
00000150: d198 363e 8986 adbd 9b72 613e ca5b 9b3d
00000160: 166b 55bd e3b1 f93e aa0e ccbe 1590 2cbc
00000170: a7a4 62be 0774 4fbe 7ab9 e83b 6a02 1a3e
00000180: f07b b23e 7f80 93be d376 953d da81 e13d
00000190: 20b3 0dbf fef8 b7be fc02 46bd d9df 723d
000001a0: 4d38 563d db67 853c 839e 923d 961b c53d
000001b0: c435 c63d 46b0 3bbe b874 293e 5f02 49be
000001c0: 16d9 3dbd 8608 04bf 7007 7dbc 83e1 ebbb
000001d0: 24c2 503e bb75 973d 7dda 47be ce01 43bc
000001e0: 2b0e 07be ad26 c9bd d767 d03e 069d aebd
000001f0: e0fb d63c 9ca0 7c3e 5f44 483e b571 963e
00000200: 6a53 59be a833 ecbe 9a50 38be bda4 063f
00000210: 8334 babd f530 bbbb fcae 953e af45 a3be
00000220: 11cc c7bd 636e 46be 746f 123d 8f72 b5be
00000230: cb0f c7bb 3bdb febe e833 a4bd fa43 083e
00000240: efc0 66be 5904 1ebd 3cfa 933e bf6a 343e
00000250: f9f4 ae3e 5691 bdbc 4c74 6a3d d1f9 cc3a
00000260: f291 503e dc36 8abe d5e1 44be 4f16 543d
00000270: 13f2 3cbd 3015 013c 353f a7bd 1334 02be
00000280: 76ba b03e 3c88 a43e 3a04 b03d d9dd e1bd
00000290: 6b05 f93e 72a6 9a3d 801e 893e 1ee6 383e
000002a0: bb2b bdbd a8b1 483d f82f 82be 76ee 01be
000002b0: 3d34 79be 9197 edbc 2c79 23be 3d36 08be
000002c0: a896 c8bd 8ad6 d9bd 28c8 7bbe 5e05 473d
000002d0: 3bd4 363e d139 b33d caf8 a13e a3e8 be3e
000002e0: 0cd1 8cbe 6a3a 2cbe 8ef5 a43e aeda 633e
000002f0: 1f77 6e3e 9b94 31be bca7 a8be 714b b3be
00000300: f915 92bd 5507 023f 5a5f 953d 6b1c 5e3b
00000310: 903a 993d 9665 8a3e f59c 77bd 6aac bb3e
00000320: a04a f6be 0b9f b3bd 62c1 6d3e 376b 133e
00000330: 4bf2 c93e b3cd fabe eb3b 923e 6157 1bbe
00000340: 0084 6e3d 8f99 01be 614e 313e d94a f23e
00000350: 5d74 10bf 3aab 1b3e f706 f7bd 231b 3cbe
00000360: 70af 1f3e d3b3 a33e 8744 ebbe 30c6 8d3d
00000370: 91ba 95be 6a6c abbc e567 f6be a109 adbe
00000380: 1567 0ebe 502a 2a3f 116f 883d 919b 8a3e
00000390: 7e44 7f3e 6a1a e23d 6613 ac3e fc90 aebe
000003a0: 70b0 93bd 340e aa3d c018 ae3d 8b42 0f3e
000003b0: 51e9 6dbe b59f 753e 8f16 043f 3074 d7be
000003c0: 64a0 26bf 8698 9bbe 2e8b 1a3e d997 3cbd
000003d0: 4ab7 d03e 9087 01be b72d e3bd 6893 95bd
000003e0: cf6f 593e bc69 313e 8e8d 243e 8390 9bbd
000003f0: 6bca 7cbe 173e 183d 2458 993e ad2a 123e
-0.23846003 -0.24407555 -0.05307354 -0.09189667 0.17976084 0.14656898 -0.066932976 -0.44801092
0.068259165 -0.2675799 0.07412787 0.065264456 0.02538278 0.2621413 0.2365388 -0.05237447
-0.28649843 -0.35920584 0.12001908 0.1680688 0.12683739 -0.32937545 -0.07230173 0.39247507
0.15889291 -0.12401157 -0.03672633 0.038861137 0.29427442 0.33599257 0.20042925 -0.1786945
-0.12995873 0.0066914717 -0.10435118 0.052615017 0.093129426 0.02380915 0.13572295 0.09343828
-0.021669555 0.1678427 -0.06135325 0.011121239 0.110744126 0.48761934 -0.31111637 -0.33606794
-0.14256309 0.18486947 0.22353065 0.037668247 -0.048786007 -0.08297477 0.11507238 -0.08369537
-0.09451061 0.15758665 0.32214963 0.72235614 -0.3243126 -0.26139614 0.38542256 -0.11681697
-0.12057014 0.19485445 0.23527686 0.27320173 -0.31308317 0.5437479 -0.10020842 0.071070366
-0.3450981 -0.11643836 -0.10163046 -0.10583442 -0.2259928 0.23615023 -0.029795168 0.17066196
-0.01977161 0.14552084 -0.17755817 0.00018889217 0.17831732 -0.08472926 0.22016375 0.07585867
-0.05210408 0.4876853 -0.39854938 -0.010532399 -0.22133122 -0.20259105 0.0071021887 0.15039983
0.34860182 -0.28808972 0.072980545 0.11011095 -0.5535145 -0.35932153 -0.04834269 0.05929551
0.052299786 0.016284874 0.0715914 0.09624402 0.09678224 -0.18328962 0.16548431 -0.19629811
-0.046349607 -0.51575506 -0.015443668 -0.007198514 0.20386559 0.07395502 -0.1951694 -0.011902286
-0.13188998 -0.0982183 0.40704224 -0.085260436 0.02624315 0.24670643 0.19557332 0.29383627
-0.21223226 -0.4613316 -0.17999497 0.5259512 -0.09092047 -0.0057126232 0.29235065 -0.31889102
-0.097557195 -0.19378047 0.03575082 -0.35438964 -0.0060748807 -0.49776635 -0.08017713 0.13307181
-0.22534536 -0.038578365 0.2890185 0.17618845 0.34171274 -0.02314059 0.057239816 0.0015638416
0.20368174 -0.2699498 -0.19226773 0.051779088 -0.046129297 0.007878587 -0.08166353 -0.12715177
0.34517258 0.3213519 0.08594556 -0.11028642 0.48636946 0.07551278 0.26781082 0.18056533
-0.092368565 0.04899755 -0.25427222 -0.12688622 -0.24336334 -0.029002937 -0.15964192 -0.1330194
-0.097943604 -0.10636623 -0.24588072 0.048589103 0.17854397 0.08751262 0.31635123 0.37286863
-0.2750324 -0.16819158 0.32218593 0.22251388 0.23287629 -0.17341845 -0.3294047 -0.35018495
-0.07133097 0.5079244 0.072935775 0.003389145 0.07481873 0.2703063 -0.06045242 0.3665498
-0.4810381 -0.087705694 0.23218301 0.14396368 0.39442667 -0.4898506 0.2856134 -0.15170051
0.058231354 -0.12656234 0.17315055 0.4732273 -0.56427556 0.15202036 -0.12061875 -0.18369727
0.15594268 0.31973132 -0.4595072 0.06922567 -0.292439 -0.02092572 -0.4812614 -0.3379641
-0.1390651 0.66470814 0.06661809 0.27071813 0.24928471 0.11040194 0.3360855 -0.3409499
-0.07211387 0.0830349 0.085008144 0.13990228 -0.23233534 0.23986705 0.5159692 -0.42080832
-0.65088487 -0.30389804 0.15092155 -0.04604325 0.40764838 -0.12649369 -0.11092704 -0.07303506
0.21234058 0.1732549 0.16069624 -0.07595923 -0.24686591 0.03716859 0.29950058 0.14274092

gnn_layers.0.W0.weight f4 [128, 128]
00000000: e41d e2bd 98ad e73d 6d49 3d3c 8eae 3c3e
00000010: 8d3e 48be 313b c5be 1cf1 873e a831 863e
00000020: 917d 433d 5a97 913e dba2 3cbe 62b3 e53c
00000030: c75d 71bc 8596 d13d a802 94be 3ace bdbd
00000040: b616 203e 7fa1 083e 8b51 08be 85f0 a03d
00000050: 99c6 cc3a 9026 603e 7407 b7be 9238 99be
00000060: 4f59 11be 00d5 45be b55b 853e 0f40 0abe
00000070: 69b4 12be 18e9 8a3e 2c68 313e 44bd 843d
00000080: 64b8 3dbd e3d6 8f3d 7f69 f8bd be18 853d
00000090: ea4d 31bc 1085 0a3e 415e 05bf 9e73 07be
000000a0: 6734 0abe dd94 28be ae32 d4bd b1d6 fc3d
000000b0: 8c53 8b3e 65bd 0abd 7733 6fbd 561f 843e
000000c0: a6a7 0abe c777 3abe 8d4f 55bd c0ed eb3e
000000d0: 3625 343d 7c38 2e3e 9910 66be 9acc 83bd
000000e0: 3f25 b23e 3f27 51bb a176 14be 4163 53bc
000000f0: 3903 0abe 1616 753e e38d 683e b062 51be
00000100: 00fd 043e 0971 46be ba44 123d 173a dd3d
00000110: 935b 43be 5ae5 443e 325d 97be 2af7 233e
00000120: 6947 d1bc 2344 e93d b599 5dbd e151 9cbd
00000130: 2a2f 323e 8405 e33c 275f 74bd 5651 37be
00000140: 5671 f3bd 5585 5f3c 3746 c73e 8c9b 45be
00000150: 9a52 ba3e 3cb0 93bd caaa 6abe f09f d03d
00000160: 5720 6e3e 25b2 53bd 21ce 333d 196e 8ebe
00000170: 2e4f 5a3e 8fbb 2c3e 208b 40be 5d4d 0cbe
00000180: 55ca 9ebe 65ea df3d 5742 44be e6e8 cd3d
00000190: 9537 1b3e ae1e 373d 7fe8 babe 53bd 333f
000001a0: 8e64 643e 59c2 8f3e e00e 82be 74b1 e13c
000001b0: 48af 243c f949 ddbd a32b 62be 796d 503e
000001c0: 1f05 6fbc a4a9 2cbd 1af8 793d 930b 363e
000001d0: f600 3ebd a85d 853c 8eb8 f43d 80f9 49b9
000001e0: fc90 e03d d466 3b3e 80f2 a23e 2829 653e
000001f0: 05af 09be 3e5e cfbd 28fa 02bd 9679 e83c
00000200: 6c17 b7be 1758 843e 18d7 f9bd 39a1 303e
00000210: 9dea 53be 59ba f8be 839f 8abd 427a d4bd
00000220: 288e 9c3c a229 4cbe 3690 a4be 2b89 783d
00000230: 4467 a13d 39c6 32be 53c6 603e cb8d 313e
00000240: 354b a13e 2871 813e 5f21 4fbe be56 a2bc
00000250: 4274 7abc 0302 023c 796d 0a3c da5f 533e
00000260: e88f aabe a11a 2cbe fcc5 a9bd 0859 40be
00000270: 5d55 dcbd eb59 37bd 528e 943c 5e55 dcbd
00000280: ba55 773d 7f9d 833e 0a96 f1be 861d 47bd
00000290: 9165 813e 6e05 233e faa5 a73d e40a 6bbe
000002a0: 5f2e 9c3c d2e8 c8bd 7baa 82be 323f b6bd
000002b0: 4d3a 3c3e ba0c 873e 6aca c43d c644 86be
000002c0: 78e5 e3bd 3ae4 903d 5eba 01be 93ff 553e
000002d0: 851c d43d 5cbc a2bd d59a fabd b589 06bd
000002e0: 1fd8 9b3e edc6 053d 5340 e63c 4c26 033d
000002f0: ea96 18be 973c 45bd db5f 10be b322 1cbd
00000300: 25ff 403e c353 b3be 3926 57bd 1164 66be
00000310: a68d 4c3e 652d c83e 5b6c 183e ad17 a3be
00000320: aa0f 23be 6d65 8ebe f54c 983d 938b efb8
00000330: c0a6 883c 5ee7 7d3c 6fc9 763e 8fca bf3e
00000340: 901c 243c 582a 7f3e 28a8 23bb a1ac 7c3e
00000350: 75b1 a63e 4d3e 64be 2867 34be fb1d 133d
00000360: 4c08 2b3c 6f9b 05be e950 0b3d b722 19be
00000370: a129 ae3c 6b1e 853d 0214 04be d81f ac3e
00000380: 51cd 10bd b739 6bbc 2563 53be 1bd4 a6bd
00000390: fff8 c73d 04d0 acbd 8a77 73be 034d 83bd
000003a0: febf 823e 1e43 8d3e 2318 043e 84f8 ae3d
000003b0: 581f 0fbe 1496 aebd 14b2 97be 2ae2 473e
000003c0: 7b20 e2bd f8e1 2dbe cb2e 7e3d 72a9 3fbe
000003d0: 2e7b c9bd 36a4 15be 4638 6d3e f733 883e
000003e0: 37c6 a33d cf4f bd3e b83e f73c 298e 2f3d
000003f0: a231 9dbe 41f7 503e eb78 523d 1ec7 b3be
-0.110408574 0.11312407 0.011553151 0.18425962 -0.19555111 -0.38521722 0.2655114 0.2620976
0.04772717 0.28435785 -0.184215 0.028039638 -0.014731831 0.102337874 -0.28908277 -0.0926785
0.15633664 0.13342856 -0.13312356 0.078583755 0.0015623152 0.2188971 -0.35747874 -0.29925972
-0.14194225 -0.19319534 0.2604653 -0.13500999 -0.14326634 0.2713096 0.17324895 0.06481412
-0.046318427 0.07023408 -0.12129497 0.0649886 -0.010821799 0.13527322 -0.52096945 -0.13227698
-0.13496552 -0.16463037 -0.10361229 0.12345637 0.2721218 -0.033872027 -0.05839869 0.25805157
-0.13540515 -0.18209754 -0.05207782 0.46079826 0.0439808 0.17013735 -0.22467269 -0.06435509
0.34794042 -0.0031914262 -0.14498378 -0.012902082 -0.13477792 0.23934206 0.22710375 -0.20447803
0.12987137 -0.19379057 0.035710074 0.108020954 -0.19077902 0.19228116 -0.2956329 0.16012254
-0.025546746 0.11389949 -0.054101665 -0.07632805 0.17400804 0.027712591 -0.059661057 -0.17902121
-0.118868515 0.013642629 0.38920757 -0.19297618 0.36391145 -0.072113484 -0.22916713 0.10186756
0.23254524 -0.051683564 0.04389775 -0.27818373 0.21319267 0.16868423 -0.18803072 -0.13701387
-0.31013742 0.10933379 -0.19165932 0.100541875 0.15157922 0.044706993 -0.36505505 0.7021076
0.22303984 0.28077963 -0.25401974 0.027550437 0.010051556 -0.10805125 -0.22086959 0.2035426
-0.014588623 -0.04215397 0.061027624 0.17777853 -0.046387635 0.01628001 0.119492635 -0.000192618
0.109651536 0.18300945 0.31825638 0.22378981 -0.13445671 -0.10125397 -0.03197685 0.02837829
-0.35760057 0.25848457 -0.12199229 0.17249002 -0.20694967 -0.48579672 -0.06768706 -0.10374881
0.019110754 -0.19937757 -0.32141274 0.06067769 0.078810245 -0.17458428 0.21950655 0.17339246
0.3150269 0.25281644 -0.20227574 -0.019816753 -0.015286507 0.00793505 0.008448952 0.20642033
-0.33312917 -0.16807033 -0.08289716 -0.18783963 -0.10758469 -0.044763487 0.01813427 -0.1075847
0.06038449 0.25706097 -0.47184783 -0.04861214 0.25272802 0.1592004 0.081859544 -0.22953373
0.01906508 -0.09810032 -0.2552069 -0.08898772 0.18381615 0.26376897 0.0960892 -0.26224345
-0.11127752 0.07074781 -0.1266875 0.20898275 0.10357002 -0.07946083 -0.12236563 -0.03284617
0.30438325 0.032660414 0.028106844 0.032018945 -0.14901319 -0.048153486 -0.14099066 -0.03811903
0.1884733 -0.35024843 -0.052526686 -0.2249911 0.1997591 0.39097133 0.14885084 -0.31854
-0.15923944 -0.27811757 0.074365534 -0.00011422406 0.016681075 0.015497057 0.24100278 0.37459227
0.010016575 0.24918497 -0.0024972055 0.24675228 0.32557264 -0.22289391 -0.17617476 0.035917263
0.01043899 -0.13047574 0.03401271 -0.14954649 0.021260085 0.064999424 -0.12898257 0.33618045
-0.035352055 -0.014357022 -0.2064329 -0.08145925 0.09764289 -0.08438113 -0.2377607 -0.06411173
0.25537103 0.2759027 0.12899832 0.08543494 -0.139768 -0.08524719 -0.2962805 0.19519868
-0.110413514 -0.16980731 0.062056344 -0.18716982 -0.09837948 -0.14613423 0.23165998 0.26602146
0.07996791 0.36974952 0.030181274 0.042860184 -0.3070193 0.2040682 0.051384848 -0.35112852

gnn_layers.0.W1.weight f4 [128, 128]
00000000: aa4c 543d 7aa5 48bd f4c7 c43d ec2e 1c3d
00000010: 8662 1dbd 7198 04be e55a 1bbd acad febc
00000020: 43b9 293e cd31 f53d ad9b 4d3d d220 99bd
00000030: 5a69 59be abd8 0bbe be8e 103e d16e b43e
00000040: 6db2 02be c14d 70be 9e08 ae3e d93d 9abd
00000050: f4ee 1f3e a4f9 59be ffb7 1239 a2b6 153e
00000060: d1bc 9d3e 8bde e3bd 949b 64bd fccd cc3d
00000070: 3262 c9be 2555 f23b 4f1e d73d 940e 73be
00000080: 026a 23be 5075 d83d 3b2f 4abc a27a 773e
00000090: 047b 82be 0768 a23b 49a9 163f e572 1dbe
000000a0: 7f90 3b3d fab6 37bd 0a4a ae3d 31d0 b73e
000000b0: ecb2 cd3c 6404 cb3d ee03 01be 15ab 1d3c
000000c0: 16d9 89bd 34f4 2abe c480 adbe 41ba 073f
000000d0: 855b 36be 04f7 9d3d ff31 e53e 004a aebd
000000e0: 53a5 12be 8b74 b7bd 7c7b 913e bf2b 82be
000000f0: f716 1bbe 2d16 be3d fa6b f03d 2cf8 f2be
00000100: 077a 5ebe a040 fcbe 52ef 5c3f cff0 fe3d
00000110: 50c2 eb3e 5999 b63e 4f4a cabd 0cb0 96be
00000120: 6529 fc3d 4952 83bc e408 4b3e fcb8 513e
00000130: 317e 14bd b812 983e 5597 f33d b07d b03d
00000140: d33b f33c 2dd3 1cbe e6dc 67be 8f20 51be
00000150: 3e8c a9bd cadf d53d e678 7a3e 0a78 893e
00000160: f0e0 433e 6a80 71bd ffe0 aebd a45b 143f
00000170: 403b c3bb 3314 c7be 4cd0 3a3f 83c3 babe
00000180: adae b2be dd33 033e 9f95 af3e 113f e93d
00000190: 3c06 08be e16d fabd 0dd0 5dbd 7ef8 e83d
000001a0: 4f29 013e bc2e 8fbd 12ec ae3e 65a6 a4bd
000001b0: 2d6f 19be 70af 1d3d 18c4 f6be 430a c7bd
000001c0: 1be5 063e 2587 7fbe e6a2 09be 5278 d0bd
000001d0: 9f7b 433e 8dab 2cbe 6abb 2a3e 3a24 05be
000001e0: eca5 443e 6aed 1e3e ada4 cc3e 7ed2 abbe
000001f0: e8bc 3a3d 7814 6abe 23ad 543d 17cf 26be
00000200: 8597 a43e a7d3 5e3e 597a b7bc bf67 a9be
00000210: 1b62 063d 5662 0cbc 0a6e be3e e2b6 a3bd
00000220: 3a37 ac3e 42c1 e8bd b8d5 7f3d f182 0b3f
00000230: 839b 87be 7d2a 653d fb93 aabd 9035 693c
00000240: 89fb 89be f3e6 953e dbf6 5bbe 87aa f5bd
00000250: 1eaa 903e 8dbc b1bd 8360 5cbe d409 c83e
00000260: b73a ebbc a536 fdbc e2fb aabd 864d acbb
00000270: 268f 24bf a2fa f83d d802 7d3e 9fd1 2f3e
00000280: 8cba 0cbe fbf5 cebc 978c 0ebe 84eb 1fbd
00000290: 0ce3 2e3e 8c5d c53e 61f3 b53e 44f8 ccbd
000002a0: a808 62bc fb39 ff3d 035c 68bd d66f 2fbe
000002b0: c46f b03e da19 b53b 0378 f83d 32c6 2fbe
000002c0: 1b29 843e 0353 e73d 0443 57be 46d1 8e3d
000002d0: 187b 52be 14ad 4abd cf10 003f 8449 0fbe
000002e0: 788e cfbe abbd 0cbd 5326 3c3e 7ae6 9c3c
000002f0: 9a48 243e b2c7 f0be a723 05bd e9f6 83be
00000300: 8a9f 09be 89b9 b3be 9e14 ac3e ea0c 8bbe
00000310: ef93 7a3e 3786 7abd aea0 8a3e 4558 b3be
00000320: efff 313c 7471 28be b2f4 1bbe 451d 3dbe
00000330: 9389 8b3d cd01 843e de0d 583e e634 7fbe
00000340: 076e 093f 0b40 2cbf 122b 6ebe 7977 a03e
00000350: c24f 9ebe cb85 97be 3926 6f3e 41d0 263e
00000360: f865 d3bd 581d b83e 39c0 d33c b843 6b3e
00000370: 9f3a f6bd b20f 2abe 6b92 583e 2f36 83be
00000380: eb7d 173e 6871 f23d b7e4 9d3e 8575 4cbd
00000390: 49fd 33be 442a bdbd 98d2 78be cadc bc3c
000003a0: d6da 62be f4c2 2a3d 3aea 52be a89e 1f3e
000003b0: 4b0f 1d3d 4426 a23e b68b a13d d9f6 f2bd
000003c0: ed11 543e 5310 d9be 718f b9bd 364c 4b3d
000003d0: 8692 203e 86d7 b1be 5134 9e3e cca6 d73d
000003e0: 3fb2 66be 8717 973e 7dc9 be3e e1fb fabd
000003f0: e4e5 0dbe 7888 ec3e 760e d43d a560 51be
0.051830925 -0.048985936 0.096084505 0.038130686 -0.038424037 -0.12948777 -0.03792848 -0.031088673
0.16574578 0.11972389 0.050197292 -0.07476963 -0.21231595 -0.13656871 0.14116952 0.35240796
-0.12763377 -0.23467161 0.3399095 -0.07531328 0.15618497 -0.21286637 0.00013992189 0.1462045
0.30808118 -0.11126431 -0.055812433 0.10000226 -0.3933273 0.007395404 0.10503828 -0.2373603
-0.15958408 0.105692506 -0.012340362 0.24167874 -0.25484478 0.0049562487 0.5885206 -0.1537586
0.0457921 -0.044852234 0.085102156 0.35901025 0.02510973 0.09912947 -0.12599155 0.009623309
-0.06730859 -0.16694719 -0.33887303 0.53018576 -0.1780835 0.0771313 0.44764706 -0.08510208
-0.14320879 -0.08957776 0.28414524 -0.25424 -0.15145479 0.092815734 0.11739345 -0.47454965
-0.21726237 -0.49268055 0.86302674 0.12448274 0.46046686 0.3566387 -0.098774545 -0.29431188
0.12312583 -0.016030448 0.1982761 0.20480722 -0.036253158 0.2970178 0.11894099 0.08617723
0.029691612 -0.15314932 -0.2264286 -0.20422576 -0.08278702 0.10443075 0.24460182 0.26849395
0.19128776 -0.058960356 -0.08539008 0.5795233 -0.005957991 -0.38882598 0.72974086 -0.3647729
-0.34898892 0.12812753 0.3429384 0.11388982 -0.13283628 -0.12227989 -0.05415349 0.11375521
0.12613414 -0.06991336 0.34164482 -0.0803955 -0.14983816 0.03849739 -0.48196483 -0.09718754
0.13173334 -0.24953897 -0.13441047 -0.10179199 0.19090126 -0.16862316 0.16673055 -0.130021
0.19203919 0.15520254 0.39969388 -0.3355903 0.04559031 -0.2285937 0.05192293 -0.16289936
0.3214685 0.21760426 -0.022397207 -0.33086964 0.032808404 -0.008568367 0.37193328 -0.079938665
0.33635885 -0.11364986 0.062459677 0.54496676 -0.26485834 0.055948723 -0.08329006 0.014233962
-0.2694972 0.29277763 -0.21480887 -0.11995416 0.2825479 -0.08678541 -0.21521191 0.39069998
-0.02871452 -0.030909846 -0.08348824 -0.005258265 -0.6428093 0.121571794 0.24708116 0.17169808
-0.13743037 -0.025263777 -0.13920818 -0.039042965 0.17078799 0.38547933 0.35537246 -0.100082904
-0.013796009 0.12462231 -0.056728374 -0.17132506 0.3446027 0.0055267634 0.121322654 -0.1716545
0.2581261 0.1129513 -0.21021658 0.069735095 -0.20554769 -0.049481466 0.5002565 -0.13992888
-0.40538383 -0.03436057 0.18373995 0.019152869 0.1604332 -0.47027355 -0.032504704 -0.25774315
-0.13439766 -0.3510249 0.3360948 -0.2715829 0.24470495 -0.061163153 0.27075714 -0.35028282
0.010864242 -0.16449529 -0.15230063 -0.18468197 0.068133496 0.25782624 0.2109904 -0.24922523
0.53683513 -0.6728522 -0.23258618 0.3134115 -0.30920225 -0.29594263 0.23354425 0.1629038
-0.10322183 0.35959888 0.025848495 0.22975051 -0.120229 -0.1660755 0.21149604 -0.25627276
0.14794128 0.11838037 0.30838558 -0.049916763 -0.1757709 -0.09236577 -0.24299085 0.0230545
-0.22153792 0.041689828 -0.20597163 0.15587866 0.038344663 0.3166982 0.07887976 -0.11863489
0.20709963 -0.42395267 -0.090605624 0.049633227 0.15680894 -0.34734744 0.3089929 0.10529861
-0.22528933 0.29510137 0.37263098 -0.12255073 -0.13857228 0.46197867 0.10354321 -0.20447023

gnn_layers.0.W2.weight f4 [128, 128]
00000000: 68bc 05be 7740 603c 1279 6b3d c58d c43e
00000010: 19a1 4a3d 178b 2fbe eade 77bd 6039 a7bd
00000020: b491 033e 268a 22be fb11 5a3c 5532 9fbd
00000030: 849d 0abe ff4e 053e 6d7c 85be 810e df3d
00000040: 8afc ecbe fa4d afbd 3948 bf3e b1a0 d2bd
00000050: 5331 1a3e 12b4 cabe f96f 9fbe 1b9c 15bd
00000060: e7ea 63be 4f6a ff3e d84c 17be b7c6 e63b
00000070: 0b03 0cbe 0f88 693d 9e8b ce3b a211 26be
00000080: eb16 3f3e a25f f43d 9fcb ae3d 7447 95be
00000090: 9f47 173f 1ef1 1bbe 9581 73bd 45b5 9cbd
000000a0: c9ee 8ebe 800e 14bf dc7b 90be 2a3c 43be
000000b0: c856 983e f6c4 a43d 3c67 e93e 7331 e6bc
000000c0: 068f cdbe 4123 b23d 80f7 393e 6c07 373e
000000d0: 9083 b93e acdf 963e 0729 b33c b1a1 1d3d
000000e0: ab20 6d3d ccca 66be 5d2d 7c3e b997 cb3d
000000f0: 4ac1 313d 09de a83e 9a16 b6bd c35c 9ebe
00000100: bf6b 1cbe 8d9a 5fbe 6d63 ac3d 68e2 083e
00000110: 3a55 b13e 24d6 93bc 0ba1 44be ca0b d1bd
00000120: ce16 aebd ed0a a23d b949 a63e 8f21 7dbe
00000130: 407d 3c3e bcb0 9f3e 2c88 b83d 4e12 cd3e
00000140: 5ecd 2fbe d8f9 903d bbfc 0f3e 98bc 863e
00000150: 14f0 ccbd a8df dc3d 806d f23d 11df 6b3d
00000160: a379 2abe c28e 92b9 104e 71be 029b 0c3e
00000170: 1509 923b 2763 3bbe 88ff b7be 8496 fa3d
00000180: 10bc 97be c9ec c7bd 607a 7dbe e31c 1fbe
00000190: f065 ddbc 67eb 2abe 564e b43e b200 33be
000001a0: 0968 2e3e a6aa d83d f049 ee3e 3127 38be
000001b0: 676a 7abe 845d 8c3e 613f c73d 1f7c bbbd
000001c0: 9e71 d83e a38e d6be 922a 9e3d adce 99bd
000001d0: c79a 7d3d 4add 063e 4dc2 463e 1f4b 22be
000001e0: 8edf 323e d869 263e fab8 123e 7ed4 a93d
000001f0: 63e3 063e 01a6 23be a3dc 7b3e 1220 5bbe
00000200: 9d1f 1f3e 105b e2bd f762 52bd 78aa 4b3d
00000210: 9a03 2b3e ef57 2c3e 5698 893d 55ce fdbe
00000220: 6f78 3dbe b25e 9e3d 451b 313e 7864 62bd
00000230: 1970 dcbe f560 e53d 31bd cebd 8125 c1bc
00000240: 0094 ecbc 1e2c b8be d39d 523e 56a6 833c
00000250: e7fc 383e d9b7 513e 2217 903d 0e76 4ebc
00000260: ab1c ad3e 5b72 883d 561e 833e 0d37 7b3d
00000270: feef b43c 9543 153e bdff 0f3e 7f08 593e
00000280: 0e1a 47be 178b 553e 2221 ab3d c02d 98be
00000290: bc6d 533e 8749 c7bd 690d 2cbe f2b8 be3d
000002a0: c256 3bbb d5a4 da3c ce18 983d 25ad 9a3d
000002b0: 8a18 06be 3c1d 4e3e dad7 d7bd 92df aa3d
000002c0: d7b3 afbc 45f1 c7be 1f25 13bd 30ca a33e
000002d0: 8b98 eebe b791 623e ede9 cfbc 5597 10be
000002e0: 2a11 0fbe 4192 f3bd 9976 01bd e104 b33e
000002f0: fa2d 78be e759 3e3e 8d13 2bbe 83d6 38be
00000300: 5812 85be b740 e5bd 8525 953d c806 afbc
00000310: 5cdb e03d d8c2 13be 0caf c0bd 8333 803c
00000320: 0cdb b4bd d6ff 11be a419 753e fe40 b4be
00000330: 7667 613d f7a2 c6bd b30f 4cbe 1853 08bd
00000340: c584 f9bd 16f4 093d 1331 b8be ebeb 973e
00000350: 2c76 aabe b332 d53e 44aa 3bbd edb8 d7bd
00000360: 0ce4 a0be 70a1 3c3d 0ac9 28be 4dc3 ca3e
00000370: 5bde 7b3d b349 783d f369 76bc 56e5 e9bd
00000380: 342e e83e e5bd e7be 9b79 233d 58b1 e7be
00000390: 68b3 7c3e b281 053e 54b9 603e 5ca4 72be
000003a0: d206 91be bd3a 933d db2c 14be 3a17 d93c
000003b0: dfdc 5dbb f5a7 173e 279d a53d a468 33be
000003c0: 164d ec3d 49c0 1f3e 5dd5 b33e b255 ab3e
000003d0: 5f7a 7e3e ead9 643e fef0 d1bd 70ef c3bd
000003e0: 4ff3 8b3c 4fae 22be 6261 bbbe 12e9 2abe
000003f0: eb14 5d3e 0472 fbbe 56ee 523e c396 d3bd
-0.13060153 0.013687245 0.05748851 0.38389412 0.04947004 -0.17142902 -0.06051532 -0.0816524
0.1284855 -0.15873012 0.013309951 -0.07773272 -0.1353665 0.13018416 -0.26071492 0.10891438
-0.46286422 -0.08559795 0.3735979 -0.10284556 0.15057878 -0.39590508 -0.31140116 -0.036525827
-0.22257577 0.49885795 -0.14775407 0.0070427316 -0.13673036 0.05701452 0.0063032648 -0.16217664
0.18661086 0.11932303 0.085349314 -0.29156077 0.5909366 -0.15228698 -0.05944975 -0.07651762
-0.27916554 -0.57834625 -0.28219497 -0.1906592 0.2975371 0.0804538 0.45586574 -0.028099751
-0.4014818 0.086981304 0.1816082 0.17873925 0.36233187 0.29467523 0.02187015 0.03848428
0.057892483 -0.22538298 0.2462668 0.09941048 0.043397225 0.329819 -0.0889103 -0.30930147
-0.15275477 -0.218363 0.084174015 0.13367617 0.34635335 -0.018046446 -0.19202058 -0.10207327
-0.085004434 0.0791224 0.3247812 -0.24719833 0.18407154 0.31189525 0.09010348 0.40053028
-0.17168185 0.07078904 0.14061253 0.2631576 -0.10006729 0.107848465 0.11837292 0.05758578
-0.16647963 -0.00027953653 -0.23564935 0.13731006 0.004456649 -0.18299542 -0.35937142 0.1223574
-0.29635668 -0.0976196 -0.24753714 -0.15538363 -0.027026147 -0.16691361 0.35216016 -0.17480734
0.17031874 0.105794236 0.46540785 -0.179837 -0.24454652 0.27415097 0.097288854 -0.091545336
0.42274183 -0.41905698 0.077229634 -0.075101234 0.061915185 0.13170353 0.19410057 -0.15848969
0.17468092 0.16251314 0.14328375 0.08292483 0.13172679 -0.15981294 0.24595885 -0.21398953
0.15539403 -0.11052525 -0.05136391 0.04972312 0.16700593 0.16830419 0.06718509 -0.4957148
-0.18502973 0.077329054 0.17295559 -0.055271596 -0.43054274 0.11200134 -0.10094679 -0.023577454
-0.028879166 -0.3597116 0.20568018 0.016070526 0.18065225 0.20480289 0.07035662 -0.012601389
0.33810934 0.066624366 0.25609082 0.061331797 0.022087093 0.14576562 0.140624 0.21194647
-0.19443533 0.2085384 0.08355929 -0.29722404 0.20647329 -0.09730821 -0.1680199 0.09312619
-0.0028585647 0.026689926 0.07426606 0.07552556 -0.13095298 0.2012834 -0.10539217 0.08343424
-0.021448059 -0.39051262 -0.035924073 0.31990194 -0.46600756 0.22125898 -0.0253801 -0.14120229
-0.13971391 -0.1189313 -0.031607244 0.3496466 -0.24236289 0.18588983 -0.16706677 -0.1805058
-0.25990558 -0.11193984 0.07282547 -0.021365538 0.109793395 -0.14429796 -0.094083875 0.015649563
-0.088308424 -0.1425775 0.23935562 -0.35205835 0.05503031 -0.09699052 -0.19927864 -0.03328237
-0.12183527 0.033680044 -0.3597494 0.2967218 -0.33293283 0.41640243 -0.045816675 -0.10533319
-0.31423986 0.046052396 -0.1648294 0.39602128 0.06149135 0.06061716 -0.015039909 -0.114206955
0.4534775 -0.45262066 0.039910894 -0.4525249 0.24677813 0.13037756 0.21945697 -0.2369551
-0.28325516 0.07188938 -0.14470236 0.026500333 -0.0033853573 0.14810164 0.08086615 -0.17520386
0.115381405 0.15600695 0.3512372 0.33463818 0.24851368 0.22348753 -0.10251044 -0.095671535
0.017083792 -0.15886806 -0.36597735 -0.16690472 0.21590011 -0.49110425 0.2059873 -0.1033149

gnn_layers.1.W0.weight f4 [128, 128]
00000000: 49d9 383d a035 5cbd 1d99 3bb9 f303 cebc
00000010: d870 8bba f016 fc3b c99c 20bd 31c3 563c
00000020: a73d efbc 7f34 dabc cca2 01bd 47c1 23bb
00000030: f103 8b3b bbba a7bc fa6d d0ba 399d e4bc
00000040: 6ad2 47bd cc6d 2d3a 652f a33b 69a2 05bd
00000050: 9add 3a3c 7736 d4bb 9ee7 2abd 562f 26bd
00000060: f7ac 80bc 8808 133c b971 96bc 5301 d3bb
00000070: 4810 b2bc f5b4 56bc 5fc1 4fbd 1304 00bd
00000080: 7ae7 e0bc 5751 38bd 1ac4 7bbd 348b ef3b
00000090: d09a f7ba 6db8 30bc 97e7 44bc fa62 f5bc
000000a0: a184 18bd 0217 35bd 0e4d 43bc 347a 02bd
000000b0: 04be a2bc 26e9 9abc fa24 00bd 74c7 62bc
000000c0: 75f5 5ebd 7a17 30bc 828f 47bb 69d8 89bc
000000d0: df92 b4bb 3650 8dbd 6857 ff3b 60c1 8ebd
000000e0: a6fa 99bc ebaa db3b 5457 09bd c865 003c
000000f0: 1ed4 81bd b8dd 3ebd 5ac0 e7bc 14d3 3dbd
00000100: 7b44 1c3c 1508 2fbd 1647 1dbc 91cf eb3c
00000110: 2427 b93b 7012 1abd 3715 d63c 4f0a 26bd
00000120: c8f4 f2bb 2df8 1cbd 0a6c c8bc f032 cbbc
00000130: d737 f2bc 276b efbc d5f4 0fbc 9371 50bd
00000140: d4db aebd 812d a8bd e102 303c a8fc 55bd
00000150: 9ecb 4ebb 0bee eebc 7686 4f3c 9ffa a2b9
00000160: 82f3 5ebb e032 2dbd 966f 80bd e6bc 83bd
00000170: db0b d9bc 56b2 e9bc 7270 4bbc b185 4fba
00000180: ca9a 27bd 3ac1 32bd 8b09 b5bc be65 aabc
00000190: 7cb9 c43b 9747 3abc 7787 bbba 657a 603b
000001a0: fbd7 38bd f5c8 f2bc bac6 d1bb e4d9 16bd
000001b0: 3bf1 c2bc 1ec3 b1bc 730e ff3b eed7 aa3c
000001c0: 5892 88bd e3e6 11bd b009 b5bc 2bd2 45bd
000001d0: 5d00 c7bc 56b6 11bd 9544 bbbc 2b7f 9fbd
000001e0: 240f 4cbc 6054 95bc e820 afbc 0f1c c33b
000001f0: df20 5fbc 574b a1bd d9d7 9fbc f79c 55bd
00000200: 2fd7 2c3e 8eb4 aabd b09b 95bc c2a2 d6bd
00000210: 4410 8e3e 99e0 f63e 7668 7abc 5069 53be
00000220: 6e37 b13d 6840 62bd 99e4 b538 01cb 623e
00000230: a2f4 be3e bf58 ad3e ec88 c83e 9181 7e3e
00000240: 6871 df3d 1eae a03e 3535 3b3e 17b8 b03e
00000250: d42c 9ebe 992c 8f3e cc20 a13d 31b6 0e3d
00000260: 6352 26bd 8456 fdbc b7d4 4a3e 4c79 51be
00000270: 4541 803e 196b 0ebd 7721 e13d 2749 09bd
00000280: 5118 3c3e 1a4c 923b 659b 083d ffa1 093e
00000290: 64a3 693e 36d2 743e 0409 bb3e 1023 3bbd
000002a0: 601b 623c 96bb a73e 2b8d 413d f07f 8a3d
000002b0: b64f 983e 3f46 53bd 1d74 583e 9234 443e
000002c0: a5a7 89bd 7d98 ab3d dbf4 c43d 76ed 8bbd
000002d0: b3e1 d5bd 0855 013d a5a5 323e dbc3 463e
000002e0: 57a1 8a3e 6c9b da3d 06f2 e53e eaad c33d
000002f0: 27c6 473d ced4 04bd 930e b73e e421 ac3e
00000300: 0f64 11be e6b1 bc3d 5747 393e f8a2 073e
00000310: e2bb afbd 52a6 813d b3ed 3e3e 9807 8f3e
00000320: 4947 953c 1902 243d 36c5 7d3d 1a68 e83d
00000330: 7096 65be 3bac b03e faca 08bd e88e 183c
00000340: 01b8 b83e 2ebe 98bd df8d 27be afb8 dcbd
00000350: a44f 313e 14e0 883e f0b1 89bd e61f 4cbe
00000360: 12b2 293e 04d4 bc3d 1454 493e 64dd 32be
00000370: 1437 463e 4916 133e df76 8b3e be21 15bc
00000380: d018 453e 3fe3 ad3e 1e28 45be 7c47 aabd
00000390: 4265 503d 053b 733e 7432 673d 04d2 233e
000003a0: cf6b 4d3e 4ee0 c5bc e53c 8d3e 8845 dd3d
000003b0: b6c4 ae3e d91d c73d 7700 9a3e a637 713e
000003c0: 5c3c 0b3f 381b 153f 81c5 363d e433 be3e
000003d0: 89c7 033d 6efe 943e febe a23e 42e3 453e
000003e0: 5b19 d93d e349 dc3d ce49 803e eeb8 b33e
000003f0: 53d4 733e 9d67 1e3e 35d8 c13e d89d 093e
0.045129094 -0.05376208 -0.00017890749 -0.025148368 -0.0010638488 0.007693164 -0.039212022 0.013108061
-0.029204203 -0.02663636 -0.031649396 -0.0024987028 0.004242413 -0.020474782 -0.0015901916 -0.027907
-0.04878465 0.0006615787 0.004980015 -0.03262559 0.011405373 -0.0064762193 -0.041724794 -0.040572487
-0.015707476 0.008974202 -0.018364774 -0.006439367 -0.02173628 -0.013104667 -0.050721522 -0.031253885
-0.027454127 -0.044999447 -0.061466314 0.0073102955 -0.0018890742 -0.010786158 -0.012018106 -0.029954422
-0.03723586 -0.044211395 -0.011920227 -0.031854823 -0.019865997 -0.018910002 -0.031285264 -0.013841499
-0.054433305 -0.010747785 -0.0030450528 -0.016826825 -0.0055106725 -0.06900065 0.007792402 -0.06970477
-0.018796276 0.0067037246 -0.03353055 0.007836767 -0.06339286 -0.046598166 -0.028289963 -0.046343878
0.009537811 -0.042732317 -0.009599468 0.028785499 0.005650418 -0.03761524 0.026133163 -0.040537175
-0.007414434 -0.038322616 -0.02446558 -0.024804562 -0.029567642 -0.029225899 -0.0087864 -0.050889563
-0.08538023 -0.08211804 0.010742874 -0.052242905 -0.003155447 -0.029166242 0.012666335 -0.00031085775
-0.0034019654 -0.042284846 -0.06271283 -0.06432514 -0.026494911 -0.02852742 -0.012416946 -0.0007916345
-0.040919103 -0.043641306 -0.022099277 -0.020800468 0.006003557 -0.011369607 -0.001430734 0.003425264
-0.04512785 -0.02963684 -0.006401864 -0.03682889 -0.023796668 -0.021699484 0.007783705 0.020854916
-0.06668538 -0.03562058 -0.022099346 -0.048296135 -0.024292165 -0.03557428 -0.02285985 -0.07787927
-0.012454782 -0.01822871 -0.021377996 0.0059542726 -0.013618677 -0.07875698 -0.019512104 -0.052151646
0.16878961 -0.08335219 -0.018262714 -0.10480262 0.27746785 0.4821823 -0.0152836945 -0.20645642
0.086531505 -0.055237204 8.673332e-05 0.22147752 0.37296015 0.3385677 0.39166963 0.24854113
0.109103024 0.3138284 0.18282016 0.3451545 -0.30893576 0.27963713 0.07867584 0.03484172
-0.040605914 -0.030925043 0.19807707 -0.20456427 0.25049797 -0.034770105 0.10992711 -0.03351703
0.18368651 0.0044646384 0.03335132 0.13440703 0.22816235 0.23908314 0.36530316 -0.045687735
0.013800472 0.32760304 0.04725377 0.067626834 0.29748315 -0.051580664 0.21138044 0.19160679
-0.06721429 0.08378694 0.09617015 -0.068324015 -0.10443439 0.031575233 0.17446001 0.1941065
0.27076218 0.106741756 0.44911212 0.09554656 0.048772957 -0.03242951 0.35753307 0.33619606
-0.14198326 0.09213619 0.1809362 0.13245761 -0.08580758 0.06330551 0.18645363 0.2793548
0.018222468 0.040041063 0.061955653 0.11347981 -0.22420669 0.345064 -0.0333967 0.009311415
0.36077884 -0.07458149 -0.16362713 -0.10777413 0.17315537 0.26733458 -0.06723392 -0.19934043
0.16571835 0.09220126 0.1966098 -0.17467266 0.19356948 0.1436397 0.2723913 -0.009102283
0.19247746 0.33962438 -0.19253585 -0.08314416 0.050877817 0.23752983 0.0564446 0.15998083
0.20060657 -0.024154808 0.2758552 0.10804278 0.34134454 0.0972249 0.3007848 0.23556384
0.54388976 0.5824466 0.04462195 0.37148964 0.032172713 0.29100364 0.3178634 0.19324973
0.10600539 0.1075628 0.25056309 0.35102028 0.23811464 0.15469213 0.37860265 0.13439119

gnn_layers.1.W1.weight f4 [128, 128]
00000000: 91a4 c3bc ff05 78bc 7b95 96bc ae32 d93b
00000010: 5a0d bab9 db5e 2dbc 2341 2fbd 27b5 96bc
00000020: eeec f33b e507 1cbd 5d3a 80bc c402 04bd
00000030: ecd1 04bc e8e5 abbc 8bd5 433b cbc3 8fbc
00000040: e797 2d3b ec8d 73bc b842 d6bc ffde 803b
00000050: e4bf 34bc 5cda b0bc 2725 90bc 6339 a0bc
00000060: 8643 85bc b6e7 12bc a103 27bd 4cf4 273c
00000070: f24b 303c 31f4 6abc 819d bcba 5ed9 07bd
00000080: 9c12 97bc 6aeb 873c 1773 74bc 7d3b a6bc
00000090: 01c0 70bd 7143 6f3c 9e80 3abd 4234 aebc
000000a0: 32b3 4ebc 2dcc f0bb e6d8 77bc 03f1 a5bc
000000b0: 9f03 ae3c bdfc dabb 07f9 edbc 4f34 18bd
000000c0: 1027 b0bc e4d0 c7bc 9ff5 4abc 8725 3ebc
000000d0: bcd3 3fbc d06c 9937 c039 2cbc 11b4 bebc
000000e0: e20e 27bd 88cd a4bc d678 eebc 5db6 113c
000000f0: 549c 17bb fe25 b6bc cc7f a43c 7633 55bc
00000100: 7d7f 60bb a8aa 1a3c 4c2a 323c ec29 ebbc
00000110: 9689 42bc e661 e9bc e9c9 b2bc 9d1b d13c
00000120: 594b 903c cc4d 26bd c3ee c7bc 00db 4dbd
00000130: c3c1 12bd ad21 dcbc 982b 5cbc 8c1e 30bc
00000140: 7056 11bd 600c aebc 02b3 73bc eca5 adbc
00000150: a7b5 2bbc 5f2e 08bd 1cae 9fbc 8a7b 04bd
00000160: 1f91 60bc 000c eabb 0725 6abc d8ff 20bd
00000170: f1d7 e43a 9486 9c3b b9df c9bb cafa dd3b
00000180: 5680 ce3c 2e45 c2bc d108 f0bc afd7 23bc
00000190: a8aa 08bd a4c4 94bb 43e8 8d3c 7a4e f3bb
000001a0: 19f5 b9bb fc15 dabc dcc6 65bb 5d05 3bbd
000001b0: 93c6 e3bb 7883 02bd e860 0abc 5f5e cabc
000001c0: 658d 833c 881b a3bb df81 3c3a bfa0 b1bc
000001d0: d501 b63c 215e dbbc e798 643c 8f15 39bd
000001e0: 0a24 32bc c707 8dbc 5096 923b 00da dabb
000001f0: 2e66 fdbc d505 28bd 888e 883c 6115 84bc
00000200: 144a 1abe 47be 14be cbad a9be af27 9d3d
00000210: 056e 63be 3a47 9dbe 7354 a7bd ddb8 bb3d
00000220: 5058 03bd 936e 1ebf 835d dabe 9654 6ebe
00000230: 37ea 14be 06a3 00bd 5d15 41be 7970 cebe
00000240: 1d06 78bc 4733 5a3e a167 e7bd 8183 92be
00000250: e1d3 cfbe eff5 ccbe 48e5 133e 4364 853c
00000260: 6a70 06be eae8 5dbe 732b 6cbe 08de 9dbd
00000270: dc4b 8dbe ba0b 683e d5d5 88be 517f acbe
00000280: 3458 9dbe 3596 31bf 7b1a ccbd bb87 8cbe
00000290: e976 dfbe 41bf 63bc aeff b6bd 60d9 39be
000002a0: b680 0cbe f715 f7bd 60a0 83be 99ce a43d
000002b0: 7921 033f 99bc 8fbe c8cf 893d 64fb 86be
000002c0: 6d7e febd e376 05be a3af 6cbd 2d0a d0bc
000002d0: 8451 02bf 79d3 b7be 9950 02bf e004 583d
000002e0: 6904 cdbe 8e85 013d da9d 99be 3f6c a6bd
000002f0: 11ce a7be 8f1c 55be 805e f8bc 7603 5a3d
00000300: 23ca babd e7d0 c4bc a5da 35bd 684d a5be
00000310: d029 85be 0d3d a4be b4ef 0cbe dfdf a13e
00000320: 9000 823d c057 e43c c33b 7abe e337 14bf
00000330: 71db 1bbf f975 f1bd 3d63 7abe b466 6ebe
00000340: c82b 47be 55dd afbc 8965 ecbd 8e88 dcbe
00000350: 72f0 25bf 9544 33be 02cf f0bc 7e78 73bd
00000360: 9f59 8dbe 185f 2cbe 0a53 5fbe f19e 8dbd
00000370: b5cc f6bd 9253 37be 41fd ccbe 1228 2abd
00000380: c98a 70be ff3c 593e 3608 b8bc b20a 7fbe
00000390: d3e0 94bd ea64 0fbf 389c adbe 718d 36bd
000003a0: ae86 87bc ccc5 1dbe dc60 b8be 49f6 0abd
000003b0: 2069 50be c500 c3bd 8df1 31bf 8eaf e23d
000003c0: 90f9 0b3e 5e8f a6be 553e 87be 6293 b7be
000003d0: 6de4 7c3c 22a4 aabe 991b 35bf db52 41be
000003e0: 15ab 623e 6b0a cc3d fb21 6dbd 2fe9 96be
000003f0: 464e edbe 9c24 0fbf 5737 21be 99d2 efbe
-0.023882182 -0.015138148 -0.018381825 0.006628356 -0.00035486632 -0.010581697 -0.04278673 -0.018396927
0.0074440157 -0.038093466 -0.01565283 -0.0322292 -0.00810669 -0.020983651 0.002988192 -0.017549416
0.0026488246 -0.01486538 -0.02615486 0.003932833 -0.011032078 -0.021588497 -0.01759584 -0.019558614
-0.01626755 -0.008966377 -0.040774945 0.010251116 0.010760294 -0.014340446 -0.0014390202 -0.033166282
-0.01844149 0.016591746 -0.014920018 -0.020292038 -0.05877686 0.014603482 -0.045532815 -0.021265153
-0.012615966 -0.0073485584 -0.015127396 -0.020256525 0.021241961 -0.006682961 -0.02904941 -0.03715926
-0.021503001 -0.024391599 -0.012387662 -0.011605627 -0.011708196 1.8289691e-05 -0.010511816 -0.023279222
-0.040785678 -0.020117536 -0.029110353 0.008893576 -0.002313395 -0.022234913 0.02008047 -0.0130127575
-0.0034255676 0.009440102 0.010874342 -0.028706513 -0.011873623 -0.028489064 -0.021824794 0.025525862
0.017614054 -0.040601537 -0.024405843 -0.050257683 -0.035829317 -0.026871527 -0.013438128 -0.01074947
-0.035482824 -0.021246135 -0.014874222 -0.021197282 -0.010480321 -0.033247348 -0.019492202 -0.03234438
-0.013706475 -0.007142544 -0.014291055 -0.03930649 0.0017459375 0.004776785 -0.006160703 0.006774281
0.02520768 -0.023714628 -0.029301079 -0.010000153 -0.033365875 -0.004540043 0.017322665 -0.0074251266
-0.00567497 -0.026621811 -0.0035061156 -0.04565941 -0.006951162 -0.03186366 -0.008445956 -0.024703203
0.016058633 -0.004977647 0.0007190983 -0.021683095 0.02221767 -0.026778283 0.01395247 -0.045186576
-0.01087285 -0.017215623 0.004473485 -0.0066788197 -0.030932512 -0.041021187 0.016669527 -0.016123476
-0.15067321 -0.1452571 -0.33140406 0.07673585 -0.22209938 -0.30718404 -0.08170404 0.09166119
-0.032066643 -0.6188747 -0.4264947 -0.23274454 -0.14542471 -0.03140547 -0.18855806 -0.40320185
-0.015138176 0.21308623 -0.112990625 -0.28615955 -0.40591338 -0.40031382 0.14442933 0.01628316
-0.1312882 -0.21670881 -0.2306345 -0.07708365 -0.2759694 0.22660723 -0.2672564 -0.33690885
-0.30731356 -0.6936982 -0.09965988 -0.27447304 -0.4364541 -0.013900579 -0.08935486 -0.18149328
-0.13720974 -0.12064736 -0.25708294 0.08047218 0.5122295 -0.28073576 0.06729084 -0.2636367
-0.124264576 -0.13033633 -0.057784688 -0.025395477 -0.5090563 -0.35903528 -0.5090423 0.052739024
-0.40042427 0.03162151 -0.30003244 -0.08126115 -0.32774404 -0.20811675 -0.030318499 0.053225957
-0.09120586 -0.024025394 -0.04439797 -0.3228562 -0.26008463 -0.32077828 -0.13763314 0.31616113
0.063477635 0.027873874 -0.2443686 -0.57897776 -0.60881716 -0.117900796 -0.24451919 -0.23281366
-0.19450295 -0.021467844 -0.11542804 -0.43072933 -0.64820015 -0.1750663 -0.029395584 -0.059441082
-0.27607438 -0.1683315 -0.2180902 -0.06915081 -0.120507635 -0.17902973 -0.40036967 -0.04154212
-0.23490442 0.21214674 -0.022464853 -0.24906424 -0.07269444 -0.5601336 -0.33908248 -0.044568483
-0.016543712 -0.15407485 -0.36011398 -0.033926282 -0.20352602 -0.09521631 -0.695092 0.11068641
0.1366942 -0.32531255 -0.26414743 -0.35854632 0.01543532 -0.33328348 -0.70745236 -0.18879263
0.22135575 0.099629246 -0.057893734 -0.2947478 -0.4634878 -0.55915236 -0.15743767 -0.4684036

gnn_layers.1.W2.weight f4 [128, 128]
00000000: 6e01 b1bc 6b60 d7bc 3245 b03b a47a b63a
00000010: 26b5 873c cfd9 08bd 41da 613c ae77 2bbc
00000020: d749 2dbc 1e0d 1fbd f119 d9bc 99ef 44bd
00000030: da05 96bc c19e 3abd 29d8 f3bc 1c50 6f3c
00000040: 9cbf 37bd e007 17bd af6f 08bd 1e99 0bbc
00000050: 9b5e cbbc ac14 92bc 290d 763c ce3c 923c
00000060: 119d 293c 25b4 193c c85f 82bc 3c75 eebc
00000070: 4e6c 2bbc f0a3 30bb 1771 57bb 580c 20bd
00000080: 6e2c 0dbd f9ac d8bb ddde a0bd 6f3a a6ba
00000090: d7b2 9f3b 3fdf 1d3d 40b0 833b 4a0f 20bd
000000a0: e9de 38bc 8558 4b3c d312 643c 85f1 1e3c
000000b0: 4212 973a e52d 7abc 2c14 f93c 55a8 6c3a
000000c0: 018c 323c 4648 c9bc a154 6cbc 0654 a73c
000000d0: 1295 a43c 50d5 8bbd 21ee 0ebc d65b 92bd
000000e0: 6a76 1fbd 9b9f 17bd b796 98bc 12e7 c0bc
000000f0: d5cd 8cba 4b93 3abd d10a 49bd a2e9 b03c
00000100: d652 30bd 617b c33b c1a6 9a3c a3ae ecbc
00000110: 267e 80bb 80b6 d03b 4d5f b2bc 2a58 8fbd
00000120: 9ab2 e6bc 5d91 5f3b 4403 cbbc 7626 5ebb
00000130: 82ad 1abd 46b1 0dbd ee41 77bd ea42 dfbb
00000140: 0a7f 0b3b dc6d b8bb c0ef 7ebc f795 903a
00000150: c79d 23bc 2aa7 12bd 0aac 67bc adf5 89bb
00000160: f646 083d 459b 01bc 90bf 94bc 2342 9cbc
00000170: 3417 29bd c221 21bd 74e0 28bc efa8 03bc
00000180: 8ac7 5b3c 0f2c f6bc 0162 31bd d66e bcbc
00000190: ee4f a33a 012e 75bd 6797 9cbc 6796 26bc
000001a0: 416c d6bc 6771 03bd e834 43bc dad1 ad3c
000001b0: 61a8 a3bc e39b 92bc 749f 013b ba53 93bb
000001c0: 7a15 4a3c 3ff9 13bc ba8f 01bc 51c3 a7bc
000001d0: 2657 2fbd 2858 f3bc f6db 153c 1bf1 313c
000001e0: c2e7 14bd db90 40bc e0c3 d83c 7d62 52bd
000001f0: 460a 0cbd 4946 20bc f951 6dbd 170c b7ba
00000200: 6295 b6bd df75 4dbe 13ea 523e ac94 aabd
00000210: 8d2e b3bd ccd7 4dbe c65a 07bd cf90 49bd
00000220: 4eea 8ebd e74b 76bd a7b5 5fbe c102 af3e
00000230: c881 0fbe e59c df39 c3a7 d3be 0f48 bbbe
00000240: fcae 3fbe 8216 77be ac91 89be fb1a 35be
00000250: 083b b8be 4d05 5b3e 24d9 edbd 044b 8bbd
00000260: 5409 b8be b6fa 8cbe 0b13 4c3d f35f 07bc
00000270: 628d 38be 128e 88be 4bd6 42be 8b77 acbd
00000280: 10f0 4dbd 8d8b c2be e19d ffbe 0e84 a7be
00000290: 89cc b2bd a5fd 13be 59fe 2ebe 77a5 edbd
000002a0: 7076 07be f7e8 c7be 8a30 36bf 041b 7fbc
000002b0: 99e9 76bd 7b24 85be 6a8f b4be bbc2 b83e
000002c0: 464a 96be 3745 a73d c90c 3dbe a216 b7bd
000002d0: d94b e8bd 19d2 783d 713c ca3c cbb5 52be
000002e0: 76ad 723d 347a 27bc c68f 0ebe 5321 a1bc
000002f0: 534d 8c3c 649e f9be fe58 53be 6b45 43bd
00000300: 8db1 06be 89c9 b8bd 1ed1 cc3c 2b95 0abe
00000310: 80d7 1cbf 2ebe 3fbf cc9e f4bc d45a e0bd
00000320: da52 233e 4f0b babd daa2 0abe 8d1b 87be
00000330: e3b1 0bbf 318a 7e3e d617 523d c3d3 e7be
00000340: e14c 2dbe f48e 493e 69bc 02be e7f4 e6be
00000350: 23ac 9ebe 2a7c 86be 25c4 8fbe e674 f8be
00000360: 5103 7f3c 3adb 6b3d 410b bfbd df7b a2bd
00000370: e87d 573d 4f2e 253e 3c95 47be 0b7e 8d3e
00000380: f29c 27be 6884 1dbe 9f8c 03bf aced 193c
00000390: 0166 11bd 12b0 bebe 01ce 2cbd 25b4 bbbe
000003a0: 62bb c0be 3235 093e 7b3a 003d 1851 8c3c
000003b0: 3713 60be a158 d9be 46a3 f5bd b249 91bd
000003c0: e9f5 cbbe ec10 88bd 794d 74be b103 a8be
000003d0: c5b3 07bf 310c 32be 8060 b5be d93f 9dbe
000003e0: 496b 3ebe c811 d3bc ef02 913d 402f e7be
000003f0: 3524 a7be 8eb9 a2be 2482 ddbe d6d6 00bf
-0.021607127 -0.026291093 0.0053793425 0.0013922048 0.01656587 -0.033410843 0.013784946 -0.010465546
-0.010576687 -0.03883087 -0.026501628 -0.04808006 -0.018313337 -0.045561556 -0.02976616 0.014606502
-0.044860467 -0.036872745 -0.033309635 -0.008520393 -0.024825385 -0.017832123 0.015017786 0.01785126
0.010352389 0.009381329 -0.015914813 -0.029108636 -0.010462834 -0.0026953183 -0.0032873803 -0.039074272
-0.0344662 -0.006612417 -0.07855008 -0.001268221 0.0048736143 0.038542982 0.0040188134 -0.03907708
-0.011283615 0.012411241 0.013920504 0.009701137 0.0011525827 -0.015269731 0.030405127 0.0009027769
0.010897637 -0.024570595 -0.014424474 0.020425808 0.020090614 -0.068277955 -0.008723767 -0.071464226
-0.038931288 -0.037017446 -0.018626554 -0.023547683 -0.0010742495 -0.045550626 -0.04908258 0.02159578
-0.04304775 0.0059656356 0.018878343 -0.028891867 -0.003921288 0.006369412 -0.021773959 -0.06999238
-0.028161336 0.0034113743 -0.02478183 -0.0033897436 -0.037763126 -0.03459289 -0.06036561 -0.0068133967
0.0021285438 -0.0056283306 -0.015560091 0.0011031021 -0.0099863475 -0.03580395 -0.014140138 -0.004210195
0.0332708 -0.007910554 -0.01815775 -0.019074505 -0.041281894 -0.039338835 -0.01030742 -0.008035882
0.013414273 -0.030050306 -0.043306354 -0.02300207 0.0012459734 -0.059858326 -0.019115163 -0.010167695
-0.026174666 -0.03209057 -0.011914469 0.02121823 -0.01997775 -0.017896598 0.001977888 -0.004496065
0.012334222 -0.009031593 -0.007907802 -0.020478876 -0.04280772 -0.029705122 0.009146681 0.010860707
-0.036353834 -0.011753286 0.026460588 -0.051363457 -0.034189485 -0.009782382 -0.057939503 -0.0013965395
-0.08915211 -0.20064496 0.20597105 -0.08329138 -0.08749113 -0.20101851 -0.033045553 -0.049210366
-0.06978284 -0.06013098 -0.21846639 0.3418179 -0.14014351 0.0004265077 -0.4133893 -0.36578414
-0.18719095 -0.2412968 -0.2686895 -0.17686073 -0.35982537 0.21388741 -0.11613682 -0.068014175
-0.35944617 -0.27535027 0.04982285 -0.008262622 -0.18022683 -0.2667089 -0.19027059 -0.084212385
-0.05027777 -0.37997094 -0.4992514 -0.32717937 -0.08730418 -0.14452226 -0.17089213 -0.116038255
-0.13228774 -0.39044926 -0.71167815 -0.015570406 -0.06028137 -0.26004395 -0.35265666 0.36086068
-0.2935354 0.081674986 -0.18461908 -0.08939864 -0.11342592 0.06074724 0.024687024 -0.20577161
0.059247456 -0.010222007 -0.13922033 -0.01966921 0.017126715 -0.48753655 -0.20639417 -0.047673624
-0.13153668 -0.09022815 0.025002059 -0.13533466 -0.61266327 -0.74899566 -0.029860877 -0.10954824
0.15949574 -0.09084188 -0.13538685 -0.26388207 -0.5456831 0.24857403 0.051292263 -0.4527875
-0.16923858 0.19683439 -0.12767185 -0.4510872 -0.30990705 -0.26266605 -0.28079334 -0.48526686
0.015564756 0.057582118 -0.093283184 -0.07933783 0.052610308 0.16130947 -0.19490522 0.27635226
-0.16368464 -0.1538254 -0.51386446 0.009395044 -0.03549767 -0.37243706 -0.042188648 -0.36660877
-0.37642962 0.13399199 0.03130577 0.017128512 -0.2188233 -0.4245043 -0.119940326 -0.070941344
-0.39836052 -0.066438526 -0.23857678 -0.32815316 -0.5300868 -0.17387463 -0.35425186 -0.30712774
-0.18595614 -0.025765315 0.07080638 -0.45153236 -0.3264481 -0.31782192 -0.43263352 -0.50327814

gnn_layers.2.W0.weight f4 [128, 128]
00000000: ec94 5d3c 887e c5bd e4f2 74be e9c3 bcbe
00000010: b1cf 9b3d 8ff9 efbc 6ec8 21bf b7bb d2bd
00000020: 0c68 05bf 7e4c 823e 5d89 48bc 3c2e abbc
00000030: 853e f83d df31 60bd 40b5 a33b 9112 263c
00000040: 63e2 f0bd 90ab b93d d98c 1a3b e477 043e
00000050: 2235 073e 376d c0bb 86f5 b1be fbeb 723d
00000060: 2a92 c6bd 8e80 c5bd 5c59 f63b 725d c03b
00000070: 3932 89bd 991b bc3b 5fff 8d3e ff25 8e3e
00000080: 5694 1cbf c949 fcbc 5db6 973b 95f4 1a3d
00000090: 372c 943e 2727 0ebe 4109 513e 7862 433e
000000a0: f8a4 c3bc 8046 b8be 56e9 aebd dbe0 8a3e
000000b0: ed5f 33bd 3082 9fbc 2695 ccbe ee8b 63bd
000000c0: 5f5a 763e a038 013d c33c 593e 4d43 29be
000000d0: d4ac 82bc b178 0a3c b880 04bd 7743 8ebe
000000e0: f79b 0b3e d278 8a3d bf96 38be 461d b53e
000000f0: 3b96 c8be 008c a7bd fb68 203d 6b11 d5bb
00000100: f90f 0ebc cf90 10bd ed83 893e 93f6 933e
00000110: 0fc7 52be 72a0 9dbe e64d b2bc 2c11 47bd
00000120: d840 453e 2fb8 b63d d9e9 5c3d 728c 66be
00000130: 1d03 79bc 4eda d5bd 4f56 b0be 82e6 84bc
00000140: 5f44 c7bc b08a 82be edb0 e53d e323 2cbd
00000150: a8b6 58be b473 14be 6c07 19bf 73de 42be
00000160: e1e0 92bd 1a5b 283e 4205 333e 36b2 173e
00000170: 0b81 93bc f27a 183e f242 7cbd d521 afbc
00000180: bbbb 2f3d f360 28bf 71fa 98be 9e36 9e3c
00000190: 34b4 8c3d 2be3 47be 00f0 113e ef52 6dbd
000001a0: 0dc4 a5bd 7e14 26be 9f80 833d 02a1 9fbc
000001b0: 3afe 96bc f7c4 d9be a91d cebd 4460 a6bd
000001c0: 59da 5f3e 68a8 e5be d268 443d 596f ba3e
000001d0: 69d1 d1bb 110e bfbd 4117 973c ca98 6ebc
000001e0: 1f36 debd 6431 52be eb06 9c3c 05cc 5ebe
000001f0: 53e1 4e3c 7410 4fbd ad25 303c 9a8c 47be
00000200: 9621 24bc e684 6dbe ffb2 ae3d 04e5 16be
00000210: db3c 663e 7de5 273d e50d ad3e ab65 b3bd
00000220: 3cb2 d8be 3179 d8bc 68c9 8dbe 14f1 28bc
00000230: 45d2 893b e86c a33e bc0a 1c3b 8291 3dbd
00000240: 2e88 8abe dc2f d2be 331d 453e 6c68 443e
00000250: 2673 0c3e 78c2 26bb be40 813e 22b7 23be
00000260: ba30 91bd 47e0 a2bc 3828 07bd a1db 2d3e
00000270: 02d3 a8be e7f8 f43c 2b9d c8bd 5b1c c9be
00000280: 7e8c 1b3e 6a14 543c 6e06 033c c9a3 62be
00000290: f696 ca3e b8d9 18be b38e 30be da7c dcbd
000002a0: 3627 31bc 4bf5 90bd 6d24 17be 7d24 193b
000002b0: 1ee3 253e ddb8 b63c 9de9 2b3e bd2d 11be
000002c0: 1873 fc3d 184e 1f3e 416d 27be 99dc bdbd
000002d0: 119d d13b a75f 4b3c 1006 26bd 4f55 e33d
000002e0: 0c62 29bd 3e1f adbc 0ed0 2f3d 6ead f2be
000002f0: 0c9b 913d 40c5 463e 81f1 29be a3f0 973a
00000300: f983 2cbe c77f 04bf 8452 f6bd d45e 803c
00000310: 6d40 f7bd 9faa bc3e 8891 68bb 9aec 60bd
00000320: ccef 5ebe 3adf 1f3e d14e 06bd b7aa 57bd
00000330: 379c 86be adfa 36be b273 c1bd 80ae debb
00000340: 2a27 b7bb 894f dc3d 12fb e3bc a171 2ebe
00000350: d40c 743d 57ec 08be b898 e83d 0ebd 8dbe
00000360: 17db d63d 8ce7 79bd 85e2 d13c dc9f 45be
00000370: 64aa 233c 2b9b af3c e721 873e 3d0a e73d
00000380: 05d6 123d 2b04 343e 271f 9b3d af6f 523c
00000390: 4748 ab3e 9d74 5bbe 5d46 dabd ef72 6cbe
000003a0: b00b 41bd c266 7f3d 7992 99bd 5404 43bc
000003b0: aa36 04bd 232c a93e 331d 1cbe b3f1 9b3e
000003c0: e332 9ebf 84d2 be3d d7ef 5e3e ea50 aebe
000003d0: 3ed7 5dbc 7830 2fbe 50fa c63c c3d3 dabc
000003e0: cafd 2dbe 8342 aabe caec de3b 4331 febd
000003f0: 2b57 ee3b d78d c9be 7541 a73c 978d 05be
0.013524275 -0.096432745 -0.2392078 -0.36868218 0.07607973 -0.029293803 -0.63196456 -0.1028971
-0.5211189 0.25448984 -0.012239781 -0.02089607 0.121213 -0.05473506 0.004995972 0.0101362625
-0.1176193 0.09065926 0.0023582487 0.1293636 0.13203862 -0.0058723944 -0.34757632 0.05930708
-0.09695847 -0.096436605 0.0075179767 0.0058705145 -0.06699032 0.0057405946 0.27733895 0.27763364
-0.6116384 -0.030796902 0.0046298937 0.037830908 0.28939983 -0.13882123 0.20413686 0.19080532
-0.023882374 -0.35991287 -0.08540599 0.27124676 -0.043792654 -0.019471258 -0.3995754 -0.05555337
0.24057911 0.031548142 0.21214585 -0.1652958 -0.015951551 0.008451627 -0.03234932 -0.27785847
0.13633715 0.06761326 -0.18026255 0.35373896 -0.39177117 -0.08181 0.039162617 -0.0065023205
-0.0086708 -0.03529435 0.26858464 0.2889906 -0.20583747 -0.30786473 -0.02176566 -0.04860036
0.19263017 0.08921849 0.053933952 -0.22514513 -0.015198496 -0.10442029 -0.34440848 -0.016223196
-0.024324594 -0.25496435 0.112153865 -0.04202641 -0.21163428 -0.14497262 -0.5977695 -0.1903017
-0.071717985 0.16441002 0.17482474 0.14814076 -0.018005868 0.1489065 -0.06158728 -0.021378437
0.042903643 -0.6577293 -0.29878572 0.019313153 0.068703085 -0.19520251 0.14251709 -0.05794042
-0.08094034 -0.16218755 0.06421017 -0.019485954 -0.018431772 -0.42533085 -0.10064251 -0.0812383
0.21860637 -0.44855046 0.047951527 0.36413077 -0.0064031375 -0.09328855 0.018443706 -0.014562795
-0.108501665 -0.20526654 0.019046267 -0.21757515 0.012626964 -0.0505528 0.01075117 -0.19487229
-0.010017773 -0.23195228 0.085302345 -0.147358 0.22484152 0.04099034 0.33799663 -0.08759626
-0.42323482 -0.026424976 -0.27692723 -0.010311384 0.0042059743 0.31919026 0.002381011 -0.046281345
-0.27057022 -0.4105214 0.1924942 0.19180459 0.137158 -0.0025445502 0.25244707 -0.15987828
-0.07089372 -0.019882334 -0.03299734 0.16978313 -0.32973486 0.029903842 -0.097956024 -0.39279446
0.15190312 0.01294432 0.007997138 -0.22132792 0.395683 -0.14926803 -0.17241935 -0.10766001
-0.010812571 -0.07078036 -0.14759989 0.0023367696 0.1619992 0.022304947 0.16788335 -0.14177604
0.1232664 0.15557134 -0.16350271 -0.09270591 0.0063968976 0.012412942 -0.040533125 0.11100256
-0.04135327 -0.021133061 0.042923026 -0.4739794 0.07109651 0.19411182 -0.16596033 0.0011592101
-0.16847219 -0.5175747 -0.12027457 0.015670218 -0.12072835 0.36848924 -0.0035487134 -0.05491314
-0.21771163 0.15612498 -0.03279001 -0.05265304 -0.26291057 -0.17869063 -0.09445895 -0.0067957044
-0.0055893855 0.107573576 -0.02782968 -0.17035533 0.059582546 -0.13371406 0.11357254 -0.276833
0.10491007 -0.061011836 0.025620708 -0.19299263 0.009989355 0.021436295 0.26393053 0.1128125
0.035848636 0.17579715 0.07574301 0.01284401 0.3345358 -0.21431203 -0.10657952 -0.23090719
-0.047130287 0.062353857 -0.074986406 -0.011902887 -0.032278694 0.33041486 -0.15245514 0.3045784
-1.2359279 0.093174964 0.21771179 -0.34046108 -0.013540087 -0.17108333 0.02428928 -0.026712304
-0.16991344 -0.3325387 0.00680313 -0.1241174 0.007273575 -0.39366028 0.020416955 -0.13042293
