models/tca/gnn_fold0.pt (torch, 764673 bytes, 12 tensors)

node_emb.0.weight f4 [77, 128]
00000000: d1fd 2bbe 450a 30be 2b1e 19bd 5d90 84bd
00000010: 8ea7 013e 566e d33d 8b1a 41bd 1791 a1be
00000020: 46ee 443d 6afe 40be d8dc 553d 434a 3c3d
00000030: 1876 923c 6012 3d3e 0e9b 2a3e 331a 17bd
00000040: c1a3 4ebe 7b8a 81be 0321 ad3d 5871 f23d
00000050: 3df7 b63d 0491 6dbe f297 50bd c989 8d3e
00000060: b734 e53d 60e3 b2bd 27ea d3bc e83b e03c
00000070: 7d3f 543e 9856 723e d18f 103e 3ce2 00be
00000080: 1778 bbbd b470 9a3b 4887 96bd becb 173d
00000090: 4f57 863d 6a61 893c 31c8 c33d 20c9 863d
000000a0: 9112 7abc f31d f23d 9001 31bd 6257 003c
000000b0: 16c0 9f3d 53d9 af3e d365 60be 7e64 72be
000000c0: 81a6 cdbd 4c56 053e 3039 213e 4859 d93c
000000d0: a1bf 0cbd 4e63 6fbd 8efe a53d 4077 71bd
000000e0: e654 88bd 6952 e33d 685a 683e 1440 023f
000000f0: a3e9 69be bf88 3cbe defe 8a3e 6582 a8bd
00000100: a6ec adbd 508a 0c3e d4b1 293e 9a0c 453e
00000110: 8bd0 61be ad17 c43e 878d 90bd cf0a 4d3d
00000120: b4e7 78be 01f7 a7bd af9a 92bd 06ab 98bd
00000130: d8ff 22be 4e53 2a3e 8eeb abbc f82e f63d
00000140: 092b 64bc b1ea d13d f010 00be 2a82 0b39
00000150: a79c 003e 6272 74bd 78cb 1e3e c1da 5a3d
00000160: 4252 16bd 5edf af3e 5fba 8fbe 3f17 f3bb
00000170: 14a3 1fbe ea1e 12be 65eb a33b 39f4 d83d
00000180: d26e 7b3e 89c9 4fbe 378d 523d 32d6 9e3d
00000190: 219d c7be 2195 81be 0278 0bbd d911 2b3d
000001a0: 36e3 163d 82ee 3b3c 148b 4e3d 98d5 8a3d
000001b0: f29b 8b3d fd32 04be e5b6 ee3d f994 0dbe
000001c0: 84b8 05bd 7cff b9be da38 32bc d924 a6bb
000001d0: c309 133e 665d 553d 4dc4 0cbe aa5a 09bc
000001e0: 5a41 bebd 8eae 8dbd 78ca 923e 0bfb 75bd
000001f0: 866c 973c 5ff0 313e f30e 0d3e dbee 533e
00000200: e8b2 acbd bda7 03be 7920 b1bd 9418 95bd
00000210: 5049 c63d 98e1 e23e df80 9f3e 4c30 efbb
00000220: 7b95 53be fc0a 48be 220a 133e 9708 cbbe
00000230: a36c ddbd cbc3 06be f0be f13c 92c0 fe3d
00000240: c4b1 84be aeb6 2ebe a64e c03d 982d ae3e
00000250: c8c9 17be edd2 203e 46c6 eebd 5a30 e53d
00000260: faa9 223e a4e7 8ebe 4622 4ebe e2ad 5a3e
00000270: 973f fdbe 752a 043e be96 8b3d 7085 073e
00000280: cbe2 73bd 7622 4ebe 34e7 3b3e fb09 4fbe
00000290: 5f41 c43e afff 60be 7af4 653e 025c 8e3e
000002a0: 1ac4 273e cfc6 cf3d 7c71 54be da39 8c3e
000002b0: da57 14be 196c 52be 9daf 08be 5c8e 25be
000002c0: fbec 0f3e ba32 00bf 3757 35be ac3e 3bbe
000002d0: 1d93 ae3e a3f7 213e 1137 883e bf8b bd3d
000002e0: 22d7 bbbe 6fcd bbbd fc8a 583e 9413 743e
000002f0: 80c9 c03e e31a c8be abe1 02bf e867 36be
00000300: 1d06 913d ae6d 683e 0ed1 3abe f6a3 203e
00000310: 6265 f53e 316c 4d3e 43ab 1bbe af33 a33e
00000320: 18a9 c3be 2782 0bbe e642 b13e b08c f03d
00000330: b96d ac3e cef6 13be 3ffd 2d3e 166c 1ebe
00000340: ac0e a3bc a4b0 12be e170 8f3e 1b1e 9f3e
00000350: f151 87be 140e 2d3e 69ac 22be fd42 bfbe
00000360: abe9 ab3e 348c 5a3e 68bf 1abd 4335 283e
00000370: 418f 553e 3d38 4f3e a5e7 94bd 2bc5 7fbe
00000380: af64 abbd 65fb f23e 0fbe 65bd 0d49 163e
00000390: a941 25be 307b aebd 489c 8f3d 10a3 06be
000003a0: d6fd 34bd e394 0339 d208 5bbe 4a87 713e
000003b0: d327 7ebe aa64 033f 451d b13e d929 5dbe
000003c0: 1c50 acbe b600 bbbe 8485 42be b5c2 99be
000003d0: 0a7a 983e 3f36 953e 7da7 1c3d 21b5 9d3d
000003e0: 740b b0be 7672 573e dd4a 1e3e a72b 19be
000003f0: 1493 26be 456a 84be 128f 9d3e 5a7d c7bb
-0.16796042 -0.17191418 -0.037382286 -0.064728476 0.12661573 0.10323779 -0.047144454 -0.31556007
0.048078798 -0.18847051 0.052212566 0.04596926 0.017878577 0.18464041 0.16660711 -0.03689022
-0.20179655 -0.25300965 0.08453562 0.11838025 0.08933876 -0.2319985 -0.050926156 0.27644184
0.11191695 -0.087347746 -0.025868488 0.027372316 0.20727344 0.23665845 0.14117362 -0.12586302
-0.09153765 0.0047131423 -0.073500216 0.037059538 0.065596215 0.016770083 0.09559668 0.0658133
-0.015263216 0.118221186 -0.04321438 0.007833334 0.07800309 0.34345493 -0.21913843 -0.23671147
-0.10041524 0.13021201 0.15744472 0.02653183 -0.03436244 -0.058444314 0.08105193 -0.058951616
-0.06656818 0.11099703 0.22690737 0.50879025 -0.22843032 -0.1841154 0.27147573 -0.08227996
-0.08492403 0.13724637 0.16571742 0.19243088 -0.22052209 0.38299313 -0.07058244 0.050059136
-0.24307138 -0.08201409 -0.0715841 -0.07454495 -0.15917909 0.1663334 -0.020986345 0.12020677
-0.013926276 0.10249842 -0.12506461 0.00013304563 0.12559758 -0.059679396 0.15507305 0.053431276
-0.03669954 0.34350103 -0.28071877 -0.0074185426 -0.15589553 -0.14269605 0.0050024264 0.10593457
0.24553993 -0.20291723 0.051404204 0.07755698 -0.38987067 -0.2530909 -0.034049995 0.041765068
0.03683778 0.011470439 0.050425604 0.06779021 0.068168536 -0.12910075 0.11655978 -0.1382636
-0.03264667 -0.36327732 -0.010877812 -0.0050703106 0.14359193 0.052091025 -0.13746758 -0.008383432
-0.092898086 -0.06918059 0.28670096 -0.060053866 0.018484365 0.1737685 0.13775234 0.20696585
-0.08432561 -0.12856956 -0.08648772 -0.072800785 0.09681952 0.4431274 0.31153008 -0.0072994586
-0.20662491 -0.1953544 0.14359334 -0.3965499 -0.108117364 -0.13160627 0.029509991 0.124390736
-0.25916874 -0.17061874 0.09390001 0.3401916 -0.14823067 0.15705462 -0.116589114 0.11190863
0.15885153 -0.27911103 -0.20130262 0.21355394 -0.49462578 0.12906821 0.06815861 0.13234496
-0.05954246 -0.20130333 0.18349916 -0.20218651 0.38331124 -0.21972536 0.22456542 0.2780457
0.163834 0.101453416 -0.20746416 0.27387887 -0.14486638 -0.20549048 -0.13348241 -0.16167587
0.14055245 -0.500774 -0.17709051 -0.18285626 0.34096614 0.15817122 0.26604512 0.0925517
-0.3668757 -0.09170043 0.21146768 0.23835593 0.37653732 -0.39083013 -0.5112559 -0.17813075
0.07081244 0.2269809 -0.1824381 0.15687546 0.4792891 0.20060803 -0.1520205 0.3187537
-0.38214946 -0.13623868 0.34621352 0.11745584 0.33677462 -0.14449617 0.16991137 -0.15470919
-0.019904457 -0.14325196 0.28015807 0.31077656 -0.26429704 0.16899902 -0.15886082 -0.37355796
0.33576712 0.21342546 -0.037780195 0.16426568 0.20855428 0.20236297 -0.07270745 -0.24977557
-0.08368813 0.47457424 -0.056089457 0.14676304 -0.16138329 -0.0851959 0.0701223 -0.13148141
-0.04418739 0.00012548598 -0.21390083 0.23586765 -0.24819879 0.51325476 0.34592643 -0.21597995
-0.3365487 -0.3652398 -0.18996245 -0.30031362 0.29780608 0.2914295 0.038245667 0.07700563
-0.34383738 0.21039757 0.15458246 -0.14958058 -0.16267043 -0.25862327 0.30773216 -0.006087941

gnn_layers.0.W0.weight f4 [128, 128]
00000000: b008 2bbc f9ea 95be 381b 1dbd c89a 6f3e
00000010: 2d94 43be 0ce1 78be 7ee0 4d3e 1413 223d
00000020: 9b7a 30be 4c69 8cbe 48a1 413e 30c5 a8bd
00000030: 97c3 4ebe 73b4 063e 3ede 4ebe 21f4 2fbe
00000040: 5ba8 35be a6b4 983e 12d4 933e 9057 e7bd
00000050: edab 91bd 15e8 683d 8426 0a3e 040a 9d3e
00000060: ab55 83be bccf e43e c970 bdbd 52f9 edbd
00000070: 590b a2be 81fe c93e d6c9 38be fb6a 883d
00000080: 787c cc3e 9155 933e 9118 493e 070d ac3e
00000090: 557b d53e a067 d93c 6a31 5abb 0adf bbbd
000000a0: 84c2 eabe 5acc 743c b79f 8cbe e175 94bd
000000b0: 983d 693e 32ab 58bd add1 ae3e 3770 aebd
000000c0: afad 153d 5902 313e 7ac6 363c c1a1 af3e
000000d0: 3862 05be 4eec 80bd de98 c33d 4dc6 4a3d
000000e0: 8121 6a3e 7b94 80be 643f a43e 0eb9 c93d
000000f0: bc18 04be edef a23e d59d 06bd fcb3 2fbd
00000100: 7d4b 9f3e b59b 5e3e 8278 82bd bfb2 65be
00000110: bc6b 223e eb64 873e 7066 88bd 5193 623e
00000120: cf0d 013d 113c b0bd 6e64 dfbe dbba 3b3c
00000130: 582f 82bd ba8b dcbd fad8 173f 3aba b0bd
00000140: 9264 82be 36c9 1abe e40d 32be 41ef 0dbd
00000150: 44fe 6cbe c6d3 b3be dbe7 c7be 1f12 ce3e
00000160: 3504 cabd ea1c 79bd 8e82 9bbe bf00 c03e
00000170: 7dda e93c 3322 d2bd b84f b5bc 8f40 823e
00000180: e56d f0be 11ae c33d c15f 113c 3ea9 503d
00000190: a4a7 0abe e50d a03e 1ae1 a9be fabd bc3b
000001a0: 382e 153e b4b8 363e 6212 ba3e 296b e23e
000001b0: fd48 f13d 1c23 ac3e fe10 a9bd 576f 72bd
000001c0: 992d d73e 70e5 efbd facd d8bd 2ccb fabe
000001d0: f8ce 083e 52fc 0e3e 3c70 b03e 5a3d 83be
000001e0: 4ce9 efbd e915 4e3c 8e1f 073e 6713 6ebe
000001f0: 2a74 34bc 3809 493d 9a45 833c 701a 81be
00000200: ec3d ddbc be5c d53e 8db6 88be d524 8dbe
00000210: 3e17 0a3c 5513 3dbe fac1 483e a5a1 c93e
00000220: 44fc 3abb 80f1 113e 1ef4 08be c603 e3bd
00000230: 563f fcbd cfb7 1fbe 7afa 2d3e ec76 f9be
00000240: 56f8 013e 8e72 003e 28a7 8cbe d97b 65bc
00000250: ba51 97bb 657c b9bd fc99 b0bc aef4 f83d
00000260: 4760 873d da1b 2dbd ee80 0dbe d816 8ebc
00000270: 9b04 bbbe bb24 e1bd 3118 1b3e 8140 53be
00000280: 1cd3 59be 69b1 40be 0874 6fbe 68a7 683e
00000290: 3083 143e 609b 0a3e 2938 85be 6dcf 013d
000002a0: 239d 67be 5224 a93d 67b5 be3e e390 fa3e
000002b0: 7b77 2f3e d2b5 b03e 67be b03e 0dd6 f3bd
000002c0: 0827 b3bd ea35 59be dbdf 923c 1c0b 203e
000002d0: 977a df3d f208 fb3e 3d84 8d3e 46a6 7a3d
000002e0: fe4b ca3d bfe1 a13e a55a 003d 6d97 b0bd
000002f0: fa47 9ebd c872 86be ad22 74be ca99 93be
00000300: 0ea4 1cbe 82b1 21be e93b 6bbe 3e5c 453e
00000310: 8b74 08be e765 bbbe 1730 62be 7a3f 363d
00000320: bfea 963d 11a5 f63d 7909 b5be ad5c 7abe
00000330: 8288 15be f976 a23d 2983 cc3e be15 8fbb
00000340: 8f81 e8be 979d 01be 8ac3 4abd 6aee aabd
00000350: 953e 453d 6e02 b33d f33c 27bc aab0 36be
00000360: c4ec a1bd 43c6 6c3e b4ac 9fbd 70c8 46be
00000370: c9c3 883d 056d a73d 4b22 e8be 336b 353e
00000380: 2c8e 7abe 1e18 ddbd 3392 a8bd 367f c5be
00000390: dfa7 e43d 2ca2 42bd c4c8 6dbe ebb7 103e
000003a0: 7673 8e3e acde 2dbe 7c40 5abe 5771 cdbd
000003b0: 5377 9abe dd52 ab3e b2c1 51be 8bcc 333d
000003c0: d1ad 1fbe 881e 2a3e 3f31 9f3d 79b6 953e
000003d0: 732c 8bbe 6122 9f3e 70ee af3d e263 42be
000003e0: c795 a03d df9d e03c ea02 e6bd f5e7 68be
000003f0: 230c aabd 6b0f 813e 9e6e 183e 21e4 133e
-0.010439083 -0.29280832 -0.038356036 0.23398888 -0.19099493 -0.24304599 0.20105168 0.039568976
-0.1723427 -0.27424085 0.1890918 -0.082407355 -0.20191799 0.13154773 -0.20201966 -0.17182972
-0.17740004 0.29825324 0.28872734 -0.11295998 -0.0711287 0.056861956 0.13491255 0.30671704
-0.25651297 0.4468974 -0.09250028 -0.1161982 -0.31649283 0.39451984 -0.18045744 0.0666103
0.39938712 0.2877622 0.19638278 0.3360369 0.41695657 0.02653867 -0.0033293613 -0.09173401
-0.4585153 0.014941299 -0.27465603 -0.07249046 0.22777402 -0.05289764 0.34144345 -0.08517497
0.03654259 0.17286052 0.011155719 0.34303096 -0.13025749 -0.062950715 0.095506415 0.04950552
0.22864343 -0.25113282 0.32079613 0.098497495 -0.1290006 0.31823674 -0.032865364 -0.042896256
0.3111228 0.21739085 -0.06370641 -0.22431467 0.1586141 0.26444182 -0.066601634 0.22126509
0.03150731 -0.08605207 -0.4363131 0.011458124 -0.06356686 -0.10768838 0.59315455 -0.0862927
-0.25467354 -0.15115818 -0.17388111 -0.034652 -0.2314387 -0.35122508 -0.3904408 0.402482
-0.09864084 -0.06081859 -0.30373043 0.3750057 0.028546566 -0.10260429 -0.02213274 0.2543988
-0.46958843 0.09554685 0.008872927 0.050942652 -0.13540512 0.312606 -0.3317955 0.0057599517
0.14568412 0.17843896 0.3634215 0.44222382 0.117814995 0.33620536 -0.08255194 -0.059188213
0.42026976 -0.117136836 -0.10586162 -0.48983133 0.13360202 0.1396344 0.34460628 -0.25632745
-0.1171442 0.012578466 0.13195631 -0.23249589 -0.011014024 0.049081057 0.0160244 -0.25215483
-0.027007066 0.4167232 -0.26701775 -0.27567163 0.008428393 -0.18464406 0.19605246 0.39381137
-0.002853171 0.14252281 -0.13374373 -0.11084704 -0.12316768 -0.15597461 0.1699008 -0.48723543
0.12692389 0.12543699 -0.2747128 -0.014006578 -0.004617897 -0.090569295 -0.0215578 0.12156044
0.0661016 -0.04226289 -0.13818714 -0.017344877 -0.3652695 -0.10993334 0.15145947 -0.20630075
-0.21271938 -0.18817677 -0.23384106 0.2272011 0.14503169 0.13535833 -0.2601941 0.031691957
-0.22618537 0.08258881 0.37247774 0.48938665 0.17135422 0.34513718 0.34520265 -0.11906061
-0.08747679 -0.21211973 0.017929008 0.15629238 0.10912054 0.49030262 0.27639952 0.061193727
0.098777756 0.31617543 0.031336445 -0.08622632 -0.07728572 -0.26259446 -0.23841353 -0.2882827
-0.15296957 -0.1579037 -0.22972073 0.19273469 -0.13325708 -0.36601183 -0.22088657 0.04449413
0.07368993 0.12043203 -0.3535879 -0.24449416 -0.14602855 0.079328485 0.39943817 -0.0043666055
-0.45411345 -0.12657772 -0.049502887 -0.08346255 0.048155386 0.08740698 -0.0102074025 -0.1784083
-0.079064876 0.23122506 -0.077966124 -0.19412398 0.06677968 0.08175091 -0.45338663 0.17716675
-0.24468297 -0.107956156 -0.0823101 -0.38573617 0.11164831 -0.04751794 -0.23221117 0.14132659
0.27822465 -0.16979474 -0.21313661 -0.100313835 -0.30169162 0.33461657 -0.20484045 0.04389624
-0.1559365 0.16613209 0.07773065 0.29240778 -0.2718235 0.31080917 0.085904 -0.18983415
0.07841068 0.027419029 -0.112310246 -0.22744735 -0.08303096 0.25207075 0.14885947 0.14442493

gnn_layers.0.W1.weight f4 [128, 128]
00000000: da8e 6cbe cf16 593e dd1f 06be 3785 ae3b
00000010: 2d43 ff3d e551 413c 96b3 d53d a199 0a3e
00000020: cf2b 283d 40d8 843e b513 9f3e ed41 a7be
00000030: c4fd 27bd bc0e 0fbd b301 813e ab85 833e
00000040: 8ae2 8d3e 2b5b cbbe e725 37be 233a 213e
00000050: 1cb4 ba3e 6b3d 96be 38dc 7f3d 1bc4 99bc
00000060: 5a11 85bd fc71 843e 5fd3 c7bd cc8d cdbd
00000070: 80d3 79be eaaf 70be cdcf df3e 6ffd 5a3e
00000080: f50b e93d 9727 833d f190 c9bd 0763 b93e
00000090: b63e 993e 63e7 ce3d 2783 383d 10f3 763e
000000a0: bf0c 23ba 70df 84be 40a1 4d3b 5003 783e
000000b0: 1c6f 2dbe cea4 413e e195 313c 8ab2 113e
000000c0: 1142 a63d 03b6 dc3d 8a09 21be 01c1 17bd
000000d0: 4eae d93e f775 c33d 660b 403e 7420 053e
000000e0: 293f a23e 0979 3f3e 604d 3dbe a02d 99be
000000f0: ae0e 9f3d d7d1 c63e 65dc 683e 9025 00be
00000100: ef95 46be 9fb4 23be 6b54 6e3e 60e9 a33e
00000110: 0840 12be 98c4 9cbd 7cca 293d 585b 11be
00000120: 47bc 13be 0464 ab3e c769 153e b640 dc3e
00000130: 9494 5a3e 19d7 3dbc 97d9 8f3e 1d6d 43be
00000140: 7b25 313e c4f2 873d f4a3 263e 3602 babd
00000150: 6d9b 153d 9ef9 a4be deab 77bd f6ea 84be
00000160: 8b2c 943e e8fb f1bd 49a0 f3bc a925 0fbe
00000170: c018 bb3e 3ef7 22be 62a4 ee3d 087c 9a3e
00000180: 492b 03bc 3b34 ad3e a3cf 18bd 3e32 aabd
00000190: 11b9 52be 9334 173f de27 243e bfef 923d
000001a0: fd03 7e3e e6a5 613e a61e 043e 85f1 8bbe
000001b0: b2f4 6dbe 67af 8b3e 8bba 1ebd df45 dbbd
000001c0: 1121 6c3d 604f 603e c31e 403e ec34 563e
000001d0: a197 8fbe 1bb4 b33d 514c 99be 50a3 fb3d
000001e0: 7939 7e3d cb04 c13d cb76 1dbe 874a 87bd
000001f0: 595e ab3e 42ce b8be c668 d2bd 16da 20bd
00000200: 777a 503e 28f8 1bbe 11da 03bd 1711 933e
00000210: e12e 8e3d a81b f0be 2a41 9b3e 914e 543e
00000220: 0486 06bd e173 da3e dfcc 8d3d 6049 003d
00000230: 2178 313e 964f 1d3d 6b65 9ebe fd8e 14be
00000240: d1a9 8d3e c518 46be ae48 ddbe c3b5 5dbe
00000250: 2b9b 043e e20f f7bd 39fd 043e 0dc3 2dbe
00000260: e4d0 b03d f67a 0dbe 8254 5dbe 4b1a 403e
00000270: e437 c13d f98a 1ebe b718 333e 5826 1b3d
00000280: 7bae ad3d 9624 763e c9c4 d8bd 5e67 5e3e
00000290: d1d6 503e f95b 8b3e 05a8 673b 1282 a8be
000002a0: 3539 afbe 9865 c7be 6c1c afbc 29b2 e6bd
000002b0: 7f2e ecbc ba4a 98be 46fb 85be f340 debd
000002c0: 3557 40be 9113 523e 116e 1fbd 13a0 f53e
000002d0: 444d 8bbe 016c 473e 5b00 f1bd bac3 903e
000002e0: ca07 bbbd 246b e7bd 520e cf3d b50e 8fbe
000002f0: a91c 67be cb6c 1e3e b7de c3bc 91e7 7d3e
00000300: 04b8 f8bd d65d 69bd 5acf cc3e fdcd 89be
00000310: 0b47 93be b0ae fabe 8735 453f 5a4d b8be
00000320: d131 6dbd fb6f 143d defa 43bd 6802 1ebd
00000330: 345f 74be 6a40 523e 5ba1 2bbe 0e03 533e
00000340: c1ab 8dbd 9467 9fbe 8e85 fa3d 5f04 003c
00000350: eac0 e3bd 7a53 983e 3e80 afbc 7e72 033f
00000360: cb93 293e 2e9d c9be a434 b8be ffe0 a6be
00000370: 000e 0e3d be34 efbd b965 0bbc 12ae ed3d
00000380: 6751 43bc ada2 f23d 3732 7a3e fa18 b9bc
00000390: 2c29 e53d bfca 09bd f241 bf3d 03e4 2bbe
000003a0: 9169 9038 2bbd c3bd 74b4 b7bc ee4c b0be
000003b0: c1b6 b93d 9080 c9bd 38d4 19bf efb2 aa3e
000003c0: 2209 ec3e 0b39 f63c 67d1 cabe dee8 22be
000003d0: 3bfd 85be f3f9 4c3e ff6b 01be 1ce2 a1bd
000003e0: e363 8f3e dbce 71bc ce0c 68be 55de 4e3e
000003f0: 2336 2dbe 4a07 92be b812 7abe cedb 50be
-0.23101369 0.21200107 -0.13098092 0.005325939 0.12463985 0.01179931 0.10434644 0.13535167
0.041057404 0.25946236 0.31069723 -0.32667485 -0.041013494 -0.03492616 0.2519661 0.25687918
0.27711898 -0.39717993 -0.17885552 0.15744834 0.36465538 -0.29343733 0.062465876 -0.018770268
-0.0649745 0.25868213 -0.09757113 -0.10036811 -0.24397087 -0.23504606 0.43713227 0.2138574
0.11379234 0.064040355 -0.098420985 0.36208364 0.29930657 0.10102727 0.04504695 0.24116158
-0.0006219856 -0.2595172 0.003137663 0.24220014 -0.16936916 0.18910524 0.010838957 0.14228263
0.0811807 0.107769035 -0.15726295 -0.037049297 0.42515796 0.095439844 0.18754348 0.13000661
0.31688812 0.18698515 -0.18486547 -0.29917622 0.07766472 0.3883197 0.22740324 -0.12514329
-0.19393133 -0.1598687 0.2327439 0.32013988 -0.14282238 -0.07654685 0.04145287 -0.14195001
-0.14427291 0.33474743 0.14591132 0.4301812 0.2134574 -0.011586928 0.28095695 -0.19084592
0.17299454 0.06638101 0.1627348 -0.09082453 0.03652518 -0.32221693 -0.06046664 -0.2596051
0.28940234 -0.118156254 -0.029739516 -0.1397921 0.3654232 -0.15914628 0.11652447 0.30172753
-0.008005925 0.3382891 -0.037307393 -0.08310364 -0.2057841 0.59064597 0.16030833 0.07174634
0.24806209 0.22035941 0.12902316 -0.27332702 -0.23237875 0.2728226 -0.03875212 -0.10706686
0.057648722 0.21905279 0.18761735 0.20918626 -0.2804537 0.08774587 -0.29941037 0.12287009
0.06206653 0.09424742 -0.15377347 -0.06606012 0.3347042 -0.36094862 -0.1027389 -0.039270483
0.20359217 -0.15231383 -0.032190386 0.28723976 0.06942535 -0.468961 0.30323154 0.20733096
-0.03284265 0.42666534 0.06923842 0.031319976 0.17330982 0.038405977 -0.3093675 -0.1450767
0.27668622 -0.19345386 -0.43219513 -0.21651368 0.12949817 -0.12063576 0.12987222 -0.16968937
0.08633593 -0.13816437 -0.21614268 0.1876003 0.094344884 -0.15482701 0.17489897 0.037878364
0.08480545 0.24037394 -0.10584409 0.21719119 0.20394446 0.27218607 0.003534795 -0.32911736
-0.34223333 -0.38944697 -0.021375857 -0.1126445 -0.028830765 -0.29744512 -0.2616827 -0.10852232
-0.18783267 0.20515276 -0.038923327 0.4797369 -0.27207386 0.19474794 -0.11767646 0.28274328
-0.09132345 -0.11299732 0.10110153 -0.27940908 -0.22569527 0.15471189 -0.02390991 0.24795367
-0.12144473 -0.056974255 0.40001947 -0.2691497 -0.2876514 -0.489614 0.770348 -0.35996515
-0.057908837 0.036239605 -0.047846667 -0.038576514 -0.23864442 0.20532385 -0.16760771 0.20606634
-0.06917525 -0.3113371 0.12232505 0.007813542 -0.1112078 0.29751188 -0.021423455 0.51346576
0.16560285 -0.3937773 -0.35977662 -0.32593533 0.03468132 -0.11679982 -0.008508139 0.11605467
-0.011921263 0.11847434 0.24433218 -0.022594918 0.111894935 -0.03364062 0.0933875 -0.16786198
6.886118e-05 -0.09557565 -0.022424914 -0.34433693 0.09068061 -0.098389745 -0.60089445 0.3333964
0.46100718 0.030056497 -0.39612886 -0.15909144 -0.26169762 0.20017223 -0.12638853 -0.07904455
0.28005895 -0.014758791 -0.22661135 0.20202 -0.16915183 -0.28521186 -0.24421203 -0.20396349

gnn_layers.0.W2.weight f4 [128, 128]
00000000: 8537 2d3e 6f65 183f 7238 05be d92a fe3e
00000010: b6b8 5fbc f313 93be da29 0bbe 0e83 333e
00000020: 57e0 a13d 018a 82be 44e1 0dbe 85a4 c6be
00000030: 2442 94be 4d78 6cbd 2e4a c53c e918 dc3e
00000040: a115 0a3e b4ef bcbe f035 e4be 1e3f ddbd
00000050: 95b2 2c3e d0c3 81bd 244b 80bd 6bb1 07be
00000060: 53b5 ab3e 0b7d 2c3e 8d78 b8bd a6af c53e
00000070: e139 8e3d 5533 fe3e 77a7 d63e feb4 cebe
00000080: 3cb4 69be 62ec ab3e 49e3 5b3a cf71 8abc
00000090: 01a7 ac3e 46b8 cabd c158 823d b6c3 303e
000000a0: 489d 923e ce9e edbe 855f c33d c9de 3b3d
000000b0: 1af9 7d3d 627e 6abe fd10 86be 3787 6b3e
000000c0: 0b0d 03be 3f36 bb3d e29a 8c3e 0506 a53e
000000d0: 08a9 f33e 49f1 893e 1ff0 d4be 8885 363e
000000e0: a5a2 7abd fdbd 99be d173 d03e ef91 08be
000000f0: 24ef d83e 3d7d 2d3d 554e fa3e 4cae 34be
00000100: 1448 223e 96c8 cdbe b51c 813e a108 f73d
00000110: 9a23 553e f04c 41be ca2a ad3d e5fb 54bc
00000120: 7a3a debc 5cd4 ce3d d574 cf3e 12fa 223f
00000130: 85ce 27be ffb5 463e 36e1 9fbe 5105 a13e
00000140: 39bb 143e 8a29 4dbe e173 ac3e 0999 d03d
00000150: 585f 563d f486 26be 2bd8 193e f0bc fcbe
00000160: 8b4f cb3e b333 8abe 4926 ecbd b27b 0bbd
00000170: af01 5d3e 90ff a0bd c841 68be 9b67 aaba
00000180: a613 8f3e effd a0be c917 123d 5043 d53c
00000190: 19a7 d03e b91f 67bd 6480 cfbd e145 c2bd
000001a0: 8be1 09be 3b09 cebd 47eb 923d 6083 923e
000001b0: c5c1 813e e4a5 8d3e b606 03bf 8a38 51be
000001c0: 955c 2bbe 1141 fbbe d89c 6a3e 9dff 8abe
000001d0: 0cdf 6d3d 6c14 c1be 2b75 563e 903d 46be
000001e0: e27a e9bd 341d 893d b3e6 08be 77a6 a93e
000001f0: f2ef b73e bc61 d0bc 394f 87bd 8a62 df3e
00000200: 53e8 00bf f405 49be 3477 313e 6040 283b
00000210: 4bb2 d33e f879 48be c818 d73d f9f5 50be
00000220: 7ed3 b73e 271c 233e 45a1 2c3e ea72 cbbd
00000230: db04 913b 0cb3 6cbe f3e5 ab3d 6c62 543d
00000240: 644d 2fbe 94e3 d83a 71cc 18be a7f1 82bc
00000250: cc21 84be afbd 24be d686 923d 6aed 16be
00000260: 9a0b 663e 067b b6be 948b 80be 56c4 1c3f
00000270: 99ed 69be b074 963d f128 adbd 95e3 6f3e
00000280: 5a8c 48be ffe6 1c3e 758e 0dbe 4b4b 92be
00000290: 95bd 08bd 9515 223e b838 723e 1abd b4be
000002a0: 69ea 973d a93b a33e 50ee 69be d35e 29bd
000002b0: c6a9 36be 4540 c5be f4b1 dfbd 8ff9 6cbe
000002c0: 8753 86be 5fd9 f5bd a368 b8be 5b60 5e3e
000002d0: 0159 a23c e2fa 8abb 833e 3e3e fd50 9dbd
000002e0: ae24 7bbe 82de c83c 28ef 723e 2657 31bd
000002f0: ac53 793e 93de 083c f42f e9be 4b3a 92bd
00000300: 2f79 6fbe 67eb babe 9149 983d f094 73be
00000310: 6533 c33e 820e a6be 79e6 3c3e 5db8 ab3e
00000320: f190 96be 0f99 62be 591d 843e 2711 6bbe
00000330: b413 1abb 075e ab3d 901f ba3c c774 b53c
00000340: 84dc a3bd d16c 16be 528c 2f3d b0a6 dd3e
00000350: b72a 1bbe 35a6 0fbd 1ae9 90be ff3e 9abe
00000360: 2815 e03d 1d7d 09bd f7f3 88be 15fd dc3e
00000370: 8286 12be a2a6 403e 1aec 1c3e 912b f0bd
00000380: 687a 04be d01d a53d cc4e f83e 31a8 c9bb
00000390: 286e 933e 61f5 4b3d d468 ce3d 0156 2a3e
000003a0: ecb6 d0bd b914 3e3e fffd 803e 9ee0 4ebe
000003b0: ac9e 17bf 6c1f 9a3e ba0b 49be 92b4 84be
000003c0: 8d0f 093e 0c11 563c b42d 16be 0e61 babe
000003d0: 6415 57be fa71 03be 14a2 913d 5dce 77bd
000003e0: 8337 80be 54d8 5dbe ef5f debd dfb3 083e
000003f0: 8b3b a4be e88d f03c 60f4 1ebd ab78 04be
0.1691571 0.59529775 -0.13009813 0.49642065 -0.013654878 -0.28726158 -0.13590184 0.17530462
0.079041176 -0.25495914 -0.13855463 -0.38797393 -0.2895671 -0.057731915 0.024083223 0.42987755
0.13484813 -0.3690163 -0.445724 -0.10803054 0.16864999 -0.063361764 -0.06264332 -0.13251273
0.33536777 0.16844575 -0.09007368 0.38610572 0.06944633 0.49648538 0.4192464 -0.4037246
-0.2282266 0.33578783 0.0008388055 -0.016899971 0.33721164 -0.098984286 0.06364585 0.17262158
0.2863562 -0.4641022 0.09539703 0.04586676 0.06200514 -0.22899774 -0.26184836 0.23000799
-0.12797944 0.09141206 0.27461916 0.32231155 0.47589898 0.26941898 -0.41589448 0.17824376
-0.061190266 -0.30027762 0.4071336 -0.13336919 0.4236995 0.042355765 0.48887888 -0.17644614
0.15847808 -0.40192097 0.25217214 0.12062193 0.20814362 -0.18877006 0.08455427 -0.012999509
-0.027127493 0.10099098 0.40518823 0.63662827 -0.16387375 0.19405364 -0.3122651 0.3144937
0.14524545 -0.20035377 0.3368216 0.10185439 0.05233702 -0.16262418 0.15023868 -0.49362898
0.39709124 -0.26992568 -0.1153074 -0.034053512 0.21582673 -0.07861245 -0.22681344 -0.0013000848
0.27944678 -0.31443736 0.035667215 0.026033074 0.40752485 -0.056426737 -0.101319104 -0.094859846
-0.13464944 -0.10060354 0.07173782 0.28615856 0.25343147 0.27665627 -0.51182115 -0.20431724
-0.16734536 -0.4907308 0.22911394 -0.27148142 0.058074042 -0.37710893 0.20943134 -0.19359422
-0.11400391 0.06695023 -0.13369255 0.33134815 0.3592525 -0.025437228 -0.066069074 0.43629867
-0.503545 -0.19631177 0.17330629 0.0025673136 0.41346964 -0.19577777 0.105027735 -0.20406331
0.35903543 0.15928708 0.16858394 -0.099340275 0.0044256276 -0.23115176 0.08393469 0.051851675
-0.17119366 0.0016547316 -0.14921738 -0.01598437 -0.25807035 -0.16087984 0.07154624 -0.14739004
0.22465363 -0.35640734 -0.2510649 0.61237085 -0.22844543 0.07346475 -0.084550746 0.2342666
-0.1958479 0.15322493 -0.13823874 -0.2857307 -0.033383925 0.15828545 0.23654449 -0.35300523
0.07417757 0.31881455 -0.22844815 -0.041350197 -0.17838201 -0.38525596 -0.10922614 -0.23142074
-0.262356 -0.12004351 -0.3601733 0.21716444 0.019817831 -0.0042413333 0.18578534 -0.07681463
-0.24525711 0.024520162 0.23724043 -0.043296 0.24348325 0.008353847 -0.45544398 -0.07140025
-0.23386072 -0.36507723 0.07435907 -0.23787284 0.38125148 -0.32432944 0.18447293 0.33539096
-0.29407457 -0.221287 0.2580364 -0.22955762 -0.002351028 0.08367544 0.022720128 0.02215041
-0.080010444 -0.14689948 0.04285843 0.43291235 -0.15153013 -0.035070617 -0.28302842 -0.30126187
0.10941535 -0.033566583 -0.2674863 0.43161836 -0.14309123 0.18813565 0.1532444 -0.1172706
-0.1293732 0.08062327 0.48497617 -0.006154083 0.2879498 0.04979456 0.10078588 0.1663437
-0.101911396 0.18562593 0.25193784 -0.20202872 -0.5922649 0.30102098 -0.1963338 -0.25919014
0.13384838 0.013065588 -0.14665872 -0.36402172 -0.21004254 -0.12836447 0.07110992 -0.060499538
-0.25042352 -0.21664554 -0.10858142 0.13349865 -0.32076678 0.029364541 -0.038807273 -0.12936656

gnn_layers.1.W0.weight f4 [128, 128]
00000000: b7d6 01be 5aaa c0bd 8387 133e 5c40 5e3d
00000010: f1fd 4ebe 2e06 6c3d 8148 f9be 4507 053e
00000020: 76be 5abe 218c fc3e e380 443e 0c30 b23d
00000030: f307 81be 2161 6b3d 6036 48be 929b 073e
00000040: 5505 343e a5a7 403d 2e15 ba3e be65 e43d
00000050: 7957 8c3e 0e9b fdbd 332c a93d a4de d23d
00000060: 11e1 c6bd 351a 703c 1111 263e 359a 0b3e
00000070: 4c83 a7bd f72c ab3c 5645 aebe e5ee 96be
00000080: fd1f 21bf c260 eebb 1eb7 ae3d 0ddb 3f3e
00000090: f5e7 533d d42b afbe 1cb7 ccbe 1433 9a3e
000000a0: a1d6 7e3d a58b b0bb 9c13 40bd 43e6 b33c
000000b0: 999a e8be 6ece 453e dc8d 13bf ca8b 853e
000000c0: 8b5a 4bbe 8f3f 0bbf 0d0a dabe 9f46 1c3e
000000d0: bf93 76be 598e dfbe ba25 a5bc ba71 10bf
000000e0: 6810 bebe 91f8 f1bd 0eae d9bc 3145 88bd
000000f0: abe9 89bd 21f8 583d f9c6 613d 3896 e4bc
00000100: a975 613e 1509 313e 64f2 5f3c bb82 703c
00000110: abd9 343d 7647 803d bfbf c8bd ac86 93be
00000120: b7c1 6fbe 677f b5bd 79ea 9fbd 8d26 6ebe
00000130: b00a ebbe 9f35 83bd 47a8 0cbe cb22 9e3c
00000140: 2e53 57be 9323 673e c746 8a3d 8346 82be
00000150: bb98 03bf dc2d bbbd 3958 da3d 4035 263d
00000160: 98ff b73d df2f f23c a27b 303d 1d33 42bc
00000170: 4e85 0bbf e2a1 c53d 0afc edbd ecac 90be
00000180: b573 fb3e 0706 5fbd 1b93 753e f50d 5e3e
00000190: f7d7 ce3c 2751 7fbd 1c02 653e 96ac bf3b
000001a0: 5b30 08be 8feb 3bbe 615e 3e3d e7e8 b73d
000001b0: edf6 063d 8e42 8fbe 2d7d 6b3c 5cdc 69be
000001c0: d2c2 9bbd 5d7d 1a3d dfba 61bb 8bc7 eabe
000001d0: e864 02bd 79b9 15bf 647b ad3e 676a 783e
000001e0: b202 27be c805 323d 8139 67be f40b ebbc
000001f0: 3570 903e 3ce8 5abe bdab 803e 17c3 7ebd
00000200: 1dfc 5a3d ab3e b4bd 8852 b5be e0dc da3d
00000210: 81d9 3fbe a5d9 a2be 4413 fcbd 0e62 d3be
00000220: 113f 313d cffe 1b3d 4ba2 d9bb 8527 a23b
00000230: 8ed7 5cbe b049 37be 61ee dc3c 5ae2 aa3c
00000240: 7794 9f3d 1da5 10bd e2cb 8abe e01d 343e
00000250: e045 57bd dbd8 29bd 232a a93d 783f b5bd
00000260: 16d2 fc3d a28f 73be e515 463e e595 e4be
00000270: fffa aabd 1370 5d3e eafb 503e d610 bebd
00000280: 5755 973d 4dfc 4fbe 0ecb dcbe 6ebd b2be
00000290: 5f9d 1bbe 88ff 33bd 71b0 963e ecfb af3e
000002a0: 0a40 04bf d9f7 a63e d7d2 7dbe 29c9 bebd
000002b0: 4cbf 7fbd 78b2 f03d 40a5 57be 3d9f 44be
000002c0: f317 933d eb94 a93c 28a3 2fbe 111b 203e
000002d0: 2938 4dbd a2a0 1fbd df6d 1b3e 744c 393d
000002e0: 8c0f ee3e 9802 2abd e926 e9bd ba15 8dbe
000002f0: 456b 083e c79b 86bd adc4 523e 2607 693e
00000300: bb92 0b3e fcb5 8fbd 10bc 283e 1c4c 4a3e
00000310: e339 f83c 3c53 18be c849 013e 4bfc b13e
00000320: f299 8abe 52a4 a93e 87d6 c63d 5cfb 5e3d
00000330: 3d5e 4dbd f52f 4c3e 52b3 b93c c954 0c3e
00000340: e2df 8d3e 2391 7fbe 6764 10be d807 c73e
00000350: 5889 d9bd 99f8 50be 8377 cb3d 18a1 a2bb
00000360: 2c61 4cbe ccd7 62bd 2d62 c63e 1bba 21be
00000370: 45d4 92be fbe0 83bd 87b2 b5be 0705 7abe
00000380: c2c2 90bc 0ed9 03be 1d9b 1cbc 603b f83d
00000390: 7131 a23d f0d2 883c c312 c73e d9a1 5bbd
000003a0: b7c6 a3be 9a20 09be 8e1b 5cbe b4df 1abe
000003b0: 354e 11bf 1253 3d3e 7b1d 613e 3af8 ef3c
000003c0: 35b5 8cbe e461 4fbe f081 febd c3f9 b5be
000003d0: 489c 5fbe 2948 573e 58c4 1cbe 6a25 e33d
000003e0: 01e6 5c3e 8381 8d3e 050d 67be ec01 d8bd
000003f0: e034 b8bd c76f c0be 775b 163d 22ce 453e
-0.12679563 -0.09407492 0.14407162 0.054260597 -0.20214058 0.05762308 -0.4868813 0.12991054
-0.21361718 0.4932566 0.19189791 0.087005705 -0.25201377 0.057465676 -0.19551992 0.13242939
0.17580159 0.04703488 0.36344284 0.11152218 0.27410486 -0.1238309 0.082603835 0.102963716
-0.09710897 0.014654686 0.16217448 0.13633044 -0.0817934 0.020895464 -0.34037274 -0.29479137
-0.62939435 -0.007274718 0.085310206 0.18735905 0.051734883 -0.34213126 -0.3998345 0.30117095
0.062216405 -0.0053877407 -0.0468937 0.021960383 -0.4543045 0.19317028 -0.57638335 0.26083213
-0.19858758 -0.5439386 -0.42585793 0.15261315 -0.24079798 -0.4366329 -0.020159591 -0.5642353
-0.37121892 -0.118149884 -0.026572254 -0.06653822 -0.06734022 0.05297101 0.055121396 -0.027903661
0.2201754 0.17288621 0.01366863 0.014679606 0.044152897 0.0626363 -0.09802198 -0.28813684
-0.2341374 -0.08862191 -0.07808394 -0.23256893 -0.4590659 -0.06406712 -0.13736068 0.0193037
-0.21027824 0.22572164 0.06751781 -0.2544442 -0.51404923 -0.09139606 0.106613584 0.040578127
0.089842975 0.029563842 0.043086655 -0.011853007 -0.5450028 0.09650017 -0.11620338 -0.2825693
0.49111715 -0.054449107 0.23981898 0.21685012 0.025249464 -0.062333252 0.22364086 0.0058494313
-0.13299696 -0.18351577 0.046476725 0.089799695 0.03295033 -0.27980465 0.014373106 -0.22837967
-0.076055184 0.037717212 -0.003444366 -0.45855364 -0.031834513 -0.58486134 0.33883202 0.2425934
-0.16309622 0.043462545 -0.2258053 -0.028692223 0.28210607 -0.21377653 0.25131026 -0.06219777
0.05346309 -0.088010155 -0.3541453 0.1068666 -0.18735315 -0.31806675 -0.12308362 -0.41285747
0.043273035 0.0380848 -0.0066416613 0.0049485588 -0.21566603 -0.17899203 0.026969137 0.020859886
0.07791989 -0.035313714 -0.27108675 0.17589521 -0.052556872 -0.041466575 0.0825999 -0.08849996
0.12344758 -0.2378526 0.1934429 -0.4464561 -0.08348655 0.21624784 0.20408598 -0.09280555
0.07389324 -0.20311089 -0.43123668 -0.34910148 -0.15196751 -0.043944865 0.2943149 0.3437189
-0.51660216 0.32610968 -0.2478746 -0.09315712 -0.062438294 0.1175279 -0.21059132 -0.1920137
0.07182302 0.020700892 -0.17152083 0.15635325 -0.050102387 -0.03897155 0.15178631 0.045238927
0.46496236 -0.04150638 -0.11384375 -0.2755564 0.1332217 -0.06572681 0.20582838 0.22756633
0.13630192 -0.07017133 0.1647799 0.19755596 0.03030104 -0.14875501 0.12625802 0.34762797
-0.27070576 0.3313318 0.097088866 0.054438934 -0.0501387 0.19940169 0.022668514 0.13704218
0.27709872 -0.24957709 -0.141008 0.38873172 -0.10621899 -0.20407332 0.099349044 -0.0049630515
-0.19958943 -0.05538158 0.38746777 -0.1579365 -0.28677574 -0.06439396 -0.35487768 -0.2441598
-0.017670993 -0.12875769 -0.009558466 0.121207 0.079195864 0.016702145 0.38881502 -0.053621147
-0.31987545 -0.13391343 -0.21494886 -0.15124398 -0.5675996 0.1848872 0.21983902 0.029293168
-0.27482 -0.20252186 -0.12427127 -0.35542116 -0.2183696 0.2102362 -0.15309274 0.110911205
0.21572115 0.27637872 -0.2256356 -0.105472416 -0.0899446 -0.3758528 0.03670832 0.19316915

gnn_layers.1.W1.weight f4 [128, 128]
00000000: 106e 5ebd f306 813e bab0 89be ddcb 453e
00000010: 9857 b1bd f573 99be 4deb 93bd 26b4 e43e
00000020: b87b 6f3e 2151 65be 971d b43d 4485 c4be
00000030: 1e2d b63c a6b5 40be bc28 50be 4e34 2dbd
00000040: f82a 8dbe 4f8f 3cbe c095 063e a642 c7bd
00000050: e341 263d 068f 27be 26a0 c9be cd42 8bbd
00000060: ca68 543e 032c 18be 84d8 54be e50b 453e
00000070: 1be3 8b3e c207 0fbf 8b34 57bd 12cf 8e3e
00000080: f3fc d03d e096 153f 9c33 413c ef39 54bf
00000090: ef9b 12be f78d 9a3d 0a66 b73c 2c03 7ebe
000000a0: d2d1 223d 6698 84be 2ae5 953d d89f 56bd
000000b0: 6e0e 05be 4f89 07be 293a 3abd 7cd7 993e
000000c0: 9380 2d3e 2154 41be 515a 64bd 3a4c c0bd
000000d0: a2a5 ca3e 12e4 7d3e 077c 313e 191c af3d
000000e0: d0aa c0bd 419d a53e e35e 473e 2ba3 ccbd
000000f0: 497e 4d3e 1e0e 86be 85c5 123e 82c9 a23d
00000100: b9d5 b03d 45b2 3dbd 75f4 c4be 8fd2 293e
00000110: 0d5c a93d 3c7c f7bc 70e0 dbbe d5c3 a33d
00000120: 2461 373e 0300 c53c fae7 e83d 5847 2a3b
00000130: cdce 453d f87f 75bc 55d2 0ebe baba a7be
00000140: 02ac c9be f665 3abe 8f91 ed3e f908 593d
00000150: 2d2e e9be b58a e7bd 9c7c 89bd 1156 7d3d
00000160: 2df6 eb3c 6243 aebd d207 5d3e 2c10 16be
00000170: 22e0 bdbe 4c29 973e 66a1 273e a0c4 c03d
00000180: 48af d93d ef87 983e 0207 08bf c98c 5b3d
00000190: 394d ebbe 2d1f fbbd a65e 643e a929 7d3e
000001a0: e49d cfbc d345 44be 5a26 45bd 6af2 bd3e
000001b0: 8040 65bd 6f05 90be 5fd4 523e dc87 453d
000001c0: 2102 093e 5da4 783e 1cbb fb3d ed0e 2cbe
000001d0: 2806 01be faa7 d33d 3ae8 bcbe 0e80 debd
000001e0: 7f68 c7be 87f4 36bd feb2 873e 5874 e3bc
000001f0: e438 2f3e 3a09 043e 0cd0 6c3c b1dc 353d
00000200: 242b b53e c066 0dbe bc62 9fbd 136b 02be
00000210: 7e10 183d 0b6a 15be 5d21 8f3d 722b 4f3b
00000220: 544b df3c 4ead 8f3b 0284 993d 4617 c03e
00000230: 65b4 e43c b1d3 d63d c3c2 a53e 54b1 a0bb
00000240: d2d2 c2bc af00 923e 7420 6c3e 51cb ddbc
00000250: ab54 d03e bd78 b0be 425c 1cbe c3c3 0abe
00000260: 95d3 46be 7ea9 87bd be2e 843b 2f83 333d
00000270: 2c8f abbd 2d1b 99bd 7247 633c 1ec2 9dbe
00000280: cd39 14be ebf0 05be d033 9bbd 4a54 1cbe
00000290: bb04 a83e 0d0f dcbd f54b 853d 4c00 22be
000002a0: 8c10 5fbe bda8 d03c 35d0 e9bd 4f0c c33e
000002b0: 27c1 03bf febd 90be be52 b6be b5f4 65bd
000002c0: e7c1 383e e465 3fbe 9855 1d3e 6399 4e3c
000002d0: 8853 05be 3c20 953d fa68 20be a88e 3b3d
000002e0: e6b4 9cbd 7bd7 0e3f bbab 0a3e e627 453d
000002f0: 67cb b63d 32ca ad3b e2f8 063d 9a60 c23d
00000300: b730 ce3e 9efb 0c3d 9ea4 853e bb3b a2bd
00000310: 457b 61be 01d5 12bd 02fc b4be 960b 803e
00000320: ee96 f4bd 89d7 8dbe 938f d4bd 63df fdbe
00000330: 2af1 e93e 0163 b23e 1e56 31be 301c 953e
00000340: 7224 f33e 8fbb 5c3d c91f be3b a117 83bd
00000350: ec13 a83e 9a64 f73d b604 4fbd 36c7 913e
00000360: c3d7 1dbd 82fd f03d 3ce6 b5bd fa8b f4bd
00000370: 4680 a2be 8751 17be e2f9 37be 71fa d43e
00000380: 4cf9 a53e 728c 233e f391 8a3e 23d3 dcbe
00000390: 1098 3e3e eeaa 723e bc06 f1bd a1c5 a83e
000003a0: ca8a 3bbd 21b5 f63e 5526 a0bb 60f3 543e
000003b0: a543 40be 32c8 7b3e aeaa 07be 39f4 d83e
000003c0: e6ff 1ebe d8f8 b23d b7be ab3b fc26 8a3e
000003d0: 3c60 16bd bb78 993e 8d56 a5be f774 8e3e
000003e0: 299c af3c 3171 0bbd fa1b 103d dd6a b63d
000003f0: 6290 a3be 4891 03bf 4e88 86bc da79 1f3e
-0.054304183 0.25200614 -0.26892644 0.19316049 -0.08659285 -0.2997128 -0.072226144 0.44668692
0.23387039 -0.2239423 0.08794706 -0.38382924 0.02223831 -0.18819293 -0.20328039 -0.04228621
-0.27571845 -0.18414043 0.13143063 -0.09729509 0.04059018 -0.16363153 -0.39379996 -0.067998506
0.20743099 -0.14860539 -0.20785719 0.19242819 0.27321705 -0.5587121 -0.052540343 0.27892357
0.10204496 0.5843334 0.01179209 -0.829009 -0.14317296 0.07546609 0.022387523 -0.24805897
0.03975088 -0.2589752 0.073191 -0.052398533 -0.12993786 -0.13235973 -0.045465622 0.30047214
0.16943578 -0.18879749 -0.055750195 -0.09389539 0.39579493 0.24794033 0.17332469 0.08550281
-0.0940758 0.32346538 0.1946979 -0.09992059 0.20067705 -0.26182646 0.1433316 0.07948591
0.08634514 -0.04631259 -0.38467756 0.16584228 0.082695104 -0.030210607 -0.4294467 0.07996336
0.1790815 0.024047857 0.11372371 0.0025982466 0.048292924 -0.014984123 -0.13947423 -0.3275965
-0.39389044 -0.18202958 0.46400115 0.052987073 -0.45543042 -0.11305753 -0.067132205 0.061849657
0.02880391 -0.08508946 0.21585014 -0.14654607 -0.37085062 0.29523695 0.16370162 0.09412503
0.10629135 0.2979121 -0.53135693 0.05360106 -0.45957354 -0.12261806 0.2230173 0.24722923
-0.025343843 -0.19167261 -0.048132278 0.3709901 -0.055969715 -0.28129146 0.20588826 0.04822527
0.13379718 0.2428145 0.12291548 -0.16802569 -0.12600005 0.10334773 -0.36895925 -0.10864268
-0.38946912 -0.044666793 0.26503748 -0.027765438 0.17111546 0.12894145 0.014453899 0.04439992
0.35384476 -0.13808727 -0.07782504 -0.12736158 0.037125103 -0.14591233 0.069887854 0.0031611589
0.027257599 0.004384673 0.074958816 0.37517756 0.02791805 0.10489596 0.32375154 -0.0049039517
-0.023782168 0.28516147 0.23059255 -0.027074488 0.40689597 -0.34467116 -0.15269569 -0.1355124
-0.1941665 -0.06624125 0.0040338924 0.04382628 -0.08376917 -0.074758865 0.013872014 -0.30812162
-0.14475174 -0.13080184 -0.07578242 -0.15266529 0.3281611 -0.10745058 0.06508628 -0.15820426
-0.21783656 0.025471086 -0.114166655 0.38095328 -0.514666 -0.28269953 -0.35610002 -0.056141574
0.18042718 -0.18691212 0.15364683 0.012609812 -0.13020146 0.07281539 -0.15665045 0.045790344
-0.07651691 0.5579755 0.13542072 0.048133753 0.08925515 0.0053036446 0.032952197 0.094910815
0.4027154 0.03441965 0.26102155 -0.07921549 -0.2201968 -0.035847668 -0.35348517 0.2500884
-0.1194285 -0.27703503 -0.10378947 -0.49584493 0.45691806 0.3484116 -0.17318007 0.29123068
0.47488743 0.053889807 0.005802129 -0.06400991 0.328277 0.12079735 -0.050541602 0.28472298
-0.038535845 0.11767103 -0.08881804 -0.11940761 -0.3173849 -0.14777194 -0.17966416 0.41597322
0.3241676 0.15971544 0.27064475 -0.43129835 0.18612695 0.23698017 -0.117688626 0.3296328
-0.045786656 0.48185065 -0.004887382 0.20795965 -0.18775804 0.24588087 -0.13248703 0.42373827
-0.15527305 0.087388694 0.005241241 0.26982868 -0.03671287 0.29974923 -0.32292596 0.27823612
0.021436768 -0.034043495 0.03518293 0.08907101 -0.31946093 -0.51393557 -0.016422417 0.15573826

gnn_layers.1.W2.weight f4 [128, 128]
00000000: 93b3 6d3e a024 963e 7de1 0a3e 2d01 fbbd
00000010: 78f4 0cbe 2a48 cabd 1ed0 653e 5edc 87bd
00000020: a6f8 10be 345e 8abd 6e76 1a3e 01a8 673e
00000030: 280f 633e f9bc 06be 6213 9b3e 5e3b 33be
00000040: da0a 83be f841 61bd 6325 063f 3ea8 893e
00000050: c651 91bd 2977 c4bd ac87 0cbd 3f3a 8c3e
00000060: 8d45 653b 7fe1 34be bc49 813e 15d5 1abe
00000070: edad 0ebe 195c c23d c564 8bbe a1ec 273e
00000080: 9fd1 943e 631f 64bb 1a58 c9bd 4abb 333e
00000090: ed7c 3e3b 865b 6abd 1894 e6be 1d72 b1be
000000a0: ad5a 373e 945a aa3d bdf3 f43d 4174 013e
000000b0: 3787 59be 64ac 893e da8c cc3d 26df 9bbe
000000c0: 3615 993d 2d29 b0bd fd8b 913d ea3b c33c
000000d0: b0b1 b63e e217 023f 9336 863e ee45 d0be
000000e0: d0c2 d53d eaf6 17be 0d52 3c3e 783d fb3d
000000f0: 8f5f d63d 492f 293e 7277 abbc 8ae1 4bbd
00000100: 57fe 00be 921a 0dbe a554 173d 7cb1 2bbe
00000110: 7469 863d bbd9 95be 86af 093e 70d8 b8be
00000120: 1e95 d2bd a603 15be 6847 19be f3c6 093e
00000130: 6737 dd3d ceb2 e9bb e51e bc3d 12df 8bbe
00000140: 1541 eb3b cd7d 583e d626 933e 1fd0 29be
00000150: ea99 5a3e 76a1 b73b 22ee 093e 23e0 77be
00000160: bc36 c23d 103e dc3d 0fe4 5bbe 23dc 8ebe
00000170: 1f07 29ba 06ba 98bd 6809 943d b514 983d
00000180: e9dd 8b3d cd56 8dbc 5be7 91bd 4038 7bbd
00000190: da38 9a3e db7e 8d3c 28ad c13d 2496 373e
000001a0: 2b75 b1bd 37d1 703e c7cf 43bb bfc2 fc3d
000001b0: 2d52 bcba 73cb 423e cda3 e0bd 47c1 84bc
000001c0: 0640 723d a5b8 bebc d53f 123e 3f05 413c
000001d0: 4001 2d3e e4f2 383e 73d7 a2bd 6673 e8be
000001e0: b221 a3be 7cb1 cfbd 484a 3bbe 506c 32be
000001f0: fc65 ed3d 4220 2f3e 6985 373e d5cb 0bbe
00000200: 48a7 303c c181 5abe a2e3 d43c eeeb 09be
00000210: 1339 00be 4e86 d33e 800b febd 6466 293b
00000220: fa7f 9c3d fdd8 18bd 497e c3be f2d1 f63c
00000230: d1b3 e33e fe25 9d3c 08a4 d9bd 655c 8ebe
00000240: 0d07 80be 58ab b7be 01bf 303e fd19 e2be
00000250: 65dc a83e 96bf bd3e 7e68 0abf 6afc 343e
00000260: 6c5b 88be e3c9 2d3e 5807 b9be e2f0 123e
00000270: b266 cdbe 66ee 1bbf 14cc 18be 7f94 223f
00000280: 6bf2 e9be b714 f3bb bb13 a73e b721 28bf
00000290: 9739 18bd fba2 e3be 6970 68bd e4f7 813e
000002a0: 51ea 5fbe 0f3e d13e 7775 adbd e362 393e
000002b0: d026 90be d148 17bf 3315 85be 7263 febe
000002c0: 6ce1 e3be 87da 1abe bdc3 5dbe cd08 7f3d
000002d0: 66fd 87be d421 aabe 0306 ccbe a47f a93d
000002e0: 82d0 34bf d7fb d93d 17c5 1ebe 6b9a 80be
000002f0: c4ef df3c f1ed 733e 5a90 adbe 45ab e9bd
00000300: 01be c3bd e08b c6be a4ac b5be 9765 6dbd
00000310: 39de a43e 881b 433e 2e33 683c 23cf e0be
00000320: 44cf eb3d 2f43 74be 2070 b2be 7738 883c
00000330: ba3b e73e 9a0d 183e 37d0 3d3e db99 1fbd
00000340: 8f31 8fbe 3670 4bbd c220 d5be 1742 703e
00000350: cf43 acbe d5fd cebb 9de0 aabe 5ce7 0d3f
00000360: 3ae2 f23e d20e 82be 1375 84be 3292 46be
00000370: 7ad6 4cbe 1c8e e63e 102b 163e bfd2 d53b
00000380: b5dd b8be ff47 223e ed69 363e 9b07 7fbe
00000390: 98ea 763e 7f36 4abc b334 1f3e 0dbd 2a3e
000003a0: a2ea 84bd 0ed8 123e 7210 1dbe d2e1 c2be
000003b0: 828f 77bc b208 e7bc ef95 8fbe 9c6d 8abe
000003c0: 0de6 10bf e772 113d 91ea fdbe 85c8 7f3e
000003d0: 2606 8cbd f930 b6be 7af3 c7be f6c6 633d
000003e0: 4b0d b53d 4211 843c bbbb 32be ec5e 373e
000003f0: ab8e b6be a03c 19bf deae 7fbe 6da6 10be
0.23213033 0.29324818 0.1356258 -0.12256084 -0.13765132 -0.098770455 0.22442672 -0.066338286
-0.14157352 -0.06756249 0.1508424 0.22622682 0.2217375 -0.13158025 0.30288225 -0.17503116
-0.25594217 -0.054994553 0.524008 0.2688617 -0.07095675 -0.095930405 -0.034309074 0.27388188
0.0034984082 -0.17664145 0.25251567 -0.15120347 -0.13933535 0.094902225 -0.2722532 0.1639886
0.29066178 -0.0034808747 -0.09831257 0.17551914 0.002906616 -0.05721619 -0.45034862 -0.34657374
0.17905684 0.08318058 0.11960552 0.12642004 -0.21242987 0.26889336 0.09987803 -0.30443686
0.07474749 -0.08601604 0.07106779 0.02383228 0.3568244 0.5081769 0.26213512 -0.40678352
0.10437548 -0.14840284 0.18390675 0.122675836 0.10467445 0.16521944 -0.02093098 -0.049775638
-0.12597023 -0.13779667 0.036945958 -0.16766924 0.06563082 -0.29267678 0.13445863 -0.3610263
-0.10282348 -0.14552173 -0.14968646 0.134548 0.10801583 -0.007131911 0.0918558 -0.27318627
0.0071793892 0.21141739 0.28740567 -0.16583298 0.21347776 0.0056039644 0.13469747 -0.24206595
0.09483096 0.10754025 -0.21473716 -0.27902326 -0.00064478995 -0.07457356 0.072283566 0.074258246
0.068294354 -0.017253304 -0.07124206 -0.06133294 0.301215 0.017272403 0.09456855 0.17928368
-0.08664926 0.23517309 -0.0029878484 0.12341832 -0.0014367752 0.19022922 -0.109687425 -0.016205443
0.05914309 -0.023281405 0.14282162 0.011781036 0.16895008 0.18061405 -0.0795125 -0.45400542
-0.31861645 -0.10141274 -0.18290055 -0.1742413 0.115917176 0.17102149 0.17921986 -0.13651974
0.01078207 -0.2133856 0.02598745 -0.13468906 -0.12521772 0.41313404 -0.12404537 0.0025848383
0.07641597 -0.03731631 -0.38182285 0.030129407 0.44473127 0.019183155 -0.106269896 -0.27804866
-0.2500538 -0.35872912 0.17260362 -0.44160452 0.32980648 0.3706023 -0.5406569 0.17674413
-0.2663225 0.16971545 -0.36138415 0.14349702 -0.40117413 -0.6091064 -0.149216 0.6350784
-0.45692763 -0.007418241 0.3263224 -0.65676445 -0.037164297 -0.44460282 -0.056747828 0.25384438
-0.21866728 0.4086766 -0.0846967 0.18104129 -0.28154612 -0.59095484 -0.25992736 -0.49685246
-0.4450792 -0.15122424 -0.216567 0.062264252 -0.26560515 -0.33228934 -0.39848337 0.08276299
-0.7063066 0.10643738 -0.15504871 -0.25117812 0.027336009 0.23821236 -0.33899194 -0.1140962
-0.09557725 -0.3877859 -0.35483277 -0.05795821 0.32200792 0.19053471 0.014172358 -0.43908033
0.11514142 -0.23853754 -0.3485117 0.016628487 0.45162755 0.14848939 0.18536459 -0.038965087
-0.27967498 -0.04966756 -0.41626555 0.23462711 -0.33645484 -0.00631688 -0.3337449 0.5543115
0.47438222 -0.25401932 -0.2587057 -0.19391707 -0.20003691 0.45030296 0.14664865 0.006525367
-0.3610665 0.15847777 0.17813845 -0.24905245 0.24112928 -0.012342094 0.15547447 0.1667368
-0.06490065 0.14340231 -0.15338305 -0.38062912 -0.0151098985 -0.028202388 -0.28044078 -0.2703675
-0.5660103 0.03550997 -0.49593022 0.24978836 -0.0683711 -0.35584238 -0.39052945 0.055609666
0.08840426 0.01612151 -0.17454426 0.17907304 -0.35655722 -0.5985813 -0.2496905 -0.14125986

gnn_layers.2.W0.weight f4 [128, 128]
00000000: c54b 11be 2116 fa3d 4313 a93d 1b39 0f3e
00000010: 8c6f 91bd 2a76 f9bd 7cb3 f93a a21c 2cbe
00000020: d320 8c3c 5609 c83c 8f4f dfbb b621 47be
00000030: 8f9e 42be 56c1 29be 5584 aabe 5a0d debc
00000040: 213c ac3d 9399 d2be 674b d8bd 85ab 6aba
00000050: 84f7 e73d 2b06 80be d515 bfbe f70c 9d3c
00000060: 1030 11be 51c0 b13e 653b ac3b db4a 72be
00000070: e763 923e 0291 3d3c dc6d 01be b56b bebe
00000080: f306 75be 6812 40be e115 a13e c60a 9a3b
00000090: d1a9 debd dd66 333b d986 183b 3aaf fdbb
000000a0: dadf 51bc a469 82be 188f adbc d25b 32bf
000000b0: 23eb 63be da7c 973e 63ef 9d3d a3c6 17be
000000c0: b567 0ebd f162 84bb fbdd febd 2a87 f43d
000000d0: 131c 413d aac2 483d 3015 09bd f4c8 163b
000000e0: 7923 c43a 37ea 963d 4d56 c7bc fbc1 973d
000000f0: 11e1 303e df56 9cbb c896 04be 4e11 b0be
00000100: b1d7 343e 8024 803e 290d 05bc 8b05 47bc
00000110: 3f90 a23e f0fc 16be f9e4 77be ae0e 393e
00000120: 6b53 01bf acb0 043c 90b7 acbe 8a0c cebd
00000130: c45c 7c3b fb2c 9fbe 6892 2abd cfd1 1ebd
00000140: acb4 9dbd 7c77 2cbe fc5d bcbd d4aa 6bbd
00000150: cd61 d3bd b8f1 153e 2b9e b83b 983f 313e
00000160: 30b2 95be 3c1a 003d 59a3 9e3e f220 09bc
00000170: dc39 b7be ccf4 99bd 41e7 17be 8149 003c
00000180: b230 803c d2f0 a8bd 960a 553e 7ac5 983e
00000190: bd35 ad3e 3d74 af3e 166b 6bbc 32e4 72be
000001a0: 0424 273e 0dc3 c4bd 63c5 9d3e 8b8d 343c
000001b0: b103 aebd ce5a 21bc 6bf2 b6bd 3ba5 843e
000001c0: f46a 47be 0901 7a3d 6674 ccb8 1491 93bc
000001d0: 12bb 77bd 5d88 06be bab8 053e b8f1 233e
000001e0: a31a 0dbe 6305 33bc a7f9 a5be 77d0 093c
000001f0: 6d08 aabe a86e 04bf 510d 24bc 22ec 11be
00000200: 9daa f8bd 8dd8 a0bd 77e5 73be 1c2c 8c3d
00000210: 8f88 cabe 4769 c8be 92a6 16bc 1a34 90bc
00000220: 6efb ad3b 98b7 babe 733a 163c a9fb 99be
00000230: 1425 6fbd e274 d6bd 8ac1 873e 22dc 00bc
00000240: 8454 b83e 4608 523e db88 dfbe 340d 4e3c
00000250: ae61 47be 1b4e 05bd c623 6fbe a2b3 b3bb
00000260: 696c b5be e63e b3bd ea04 24bc 37f2 f1bd
00000270: e191 d93d a609 093c 9a28 1fbe a0a3 90be
00000280: 6364 20be 6138 36be 965f 033e a58e 003a
00000290: f60b 0e3e 1beb 5a3a 319f 823b 6296 edbd
000002a0: 766e 78ba f1db 3ebd c1df b1bb 79d4 9abd
000002b0: 1c53 29bd fbcf 94be f59e 9a3d 9629 9e3e
000002c0: 3881 7d3e fed5 603b 8b9d 833e ec71 08be
000002d0: f353 733e b9e0 5b3d 749e 83ba 5b43 72be
000002e0: 47c9 3ebe 1887 3bbe db91 a1bc 95b7 273e
000002f0: 6392 de3e 6535 243c 0683 5dbe 309b 2cbe
00000300: 64d4 093e 7a70 6b3d b7da 2e3b 26b4 ac3b
00000310: 70ae 88be 79f4 41bc 05de 853d d1e3 0dbd
00000320: 0180 453e 756e 44bd e25f 44bd 42b4 f6bd
00000330: a17e 35bc 5f02 ebbc bef6 b23d 2d33 83bd
00000340: d22a 1e3c 5728 653e ac85 63be 2e90 b4bc
00000350: 5eca bdbe 2025 7bbe 2116 11bf e4fd 463e
00000360: b147 c7bc 7cd8 06be 5562 41be 229f 0bbc
00000370: 7ad2 433d 065a e13e af45 93be d96f e4bd
00000380: eda4 8739 a154 1fbe 25d7 60be 4dd2 a3be
00000390: b15a dc3c f1c7 263e 895a a7bd 1b51 55be
000003a0: 0924 52be 21b3 703e 5591 523d afa5 313e
000003b0: 14d7 7ebe d621 613e 9fa2 b1be cf2b e6bb
000003c0: 839e 18be 6f64 8d3e be34 da3b b93b 16bc
000003d0: 54d2 80bd 5044 d5bd 64bc 103e 51b9 eabd
000003e0: 44f6 e63d 79e2 d5bc aa16 073e 5cd7 e93b
000003f0: f407 16be 8de6 8abe 34f2 ed3b d539 b0bd
-0.1418906 0.12211252 0.08255627 0.13986628 -0.07101354 -0.12180741 0.0019050683 -0.16807798
0.017105496 0.024418514 -0.006814904 -0.19446453 -0.19005798 -0.16577658 -0.33304086 -0.027105976
0.08409906 -0.41132793 -0.10561257 -0.000895195 0.11326507 -0.25004706 -0.37321344 0.019171221
-0.1417849 0.34717038 0.005256104 -0.23661368 0.28591844 0.011570217 -0.12639564 -0.3719155
-0.23928432 -0.18757021 0.31462005 0.0047009913 -0.10872234 0.0027374544 0.0023273735 -0.007741836
-0.012809718 -0.25471222 -0.021186396 -0.69671357 -0.22257666 0.29587442 0.07711675 -0.14821868
-0.03476687 -0.004040115 -0.12444683 0.11939843 0.047145914 0.04901377 -0.03346747 0.002300796
0.0014964185 0.07368892 -0.024333144 0.07410046 0.17273356 -0.004771098 -0.12948143 -0.34388202
0.17660405 0.25027847 -0.008120813 -0.012147318 0.31750676 -0.14744925 -0.2420844 0.18072006
-0.5051791 0.0080987625 -0.33733797 -0.100609854 0.003850744 -0.31089005 -0.04164353 -0.038774308
-0.07700476 -0.16842455 -0.091976136 -0.05753596 -0.103213884 0.1464299 0.0056340895 0.17309415
-0.2923751 0.03127502 0.30984 -0.008369671 -0.3578633 -0.075173944 -0.1483431 0.007830025
0.01564822 -0.08249058 0.2080482 0.29838163 0.33830062 0.3426837 -0.014368793 -0.23719862
0.16322333 -0.096075155 0.30814657 0.011020075 -0.08496798 -0.00984831 -0.08932956 0.2590731
-0.19474393 0.061036143 -9.749159e-05 -0.018013515 -0.06048114 -0.13137956 0.13058749 0.16010177
-0.13779692 -0.010926577 -0.32417032 0.008411518 -0.33209553 -0.5173135 -0.0100129405 -0.14250234
-0.12141917 -0.07853804 -0.23818003 0.06844351 -0.3955731 -0.3914282 -0.009194987 -0.017602969
0.005309514 -0.36468196 0.009169209 -0.30074814 -0.05838497 -0.104715124 0.26514846 -0.007864984
0.3600198 0.20510969 -0.436591 0.01257639 -0.19470856 -0.03254519 -0.2335349 -0.0054840604
-0.35434273 -0.08752231 -0.010010937 -0.11813777 0.10623527 0.008364117 -0.15542832 -0.28249836
-0.15663294 -0.17794944 0.12829432 0.0004904068 0.1387175 0.00083510735 0.0039862623 -0.11600949
-0.0009476909 -0.04659647 -0.005428285 -0.07560057 -0.041339025 -0.29064927 0.0754985 0.30891103
0.24756324 0.0034307237 0.25706133 -0.13324708 0.23762493 0.05368111 -0.001004173 -0.23658507
-0.18631469 -0.18313253 -0.01972287 0.16378625 0.4347106 0.010022496 -0.21632013 -0.16856074
0.13459927 0.057480313 0.0026680657 0.005270499 -0.26695585 -0.011838072 0.065364875 -0.03464109
0.19287111 -0.047956903 -0.047943003 -0.120461 -0.011077554 -0.028687654 0.087384686 -0.064062454
0.009653764 0.2237867 -0.2221896 -0.022041406 -0.37068456 -0.24525881 -0.5667439 0.19432789
-0.024326177 -0.1316852 -0.18885167 -0.008521827 0.047808148 0.44013995 -0.28764102 -0.11154146
0.00025872086 -0.15559627 -0.21957071 -0.31996384 0.026898714 0.16287209 -0.08171565 -0.2083172
-0.20521559 0.23505832 0.05140813 0.1734836 -0.24886733 0.21985564 -0.34694383 -0.0070242654
-0.14904217 0.27615687 0.0066591194 -0.009169512 -0.06290117 -0.1041342 0.14134365 -0.114611275
0.1127744 -0.026108967 0.1319224 0.0071362685 -0.14651471 -0.2712902 0.007261539 -0.086047806
